checkpoint_critic_agent_0.pth (torch_old, 324010 bytes, 9 tensors)

fc1.weight f4 [256, 52]
000000 c2 25 c5 3e 48 f1 b8 3f 6a 0e a7 bc c2 c0 a5 3e
       0.3850537 1.4448633 -0.020392615 0.32373625
000010 ee b2 f8 3d ba 63 e7 3e d2 2a 09 bd c8 4d a9 3e
       0.12143503 0.45193273 -0.033488102 0.33067155
000020 ee 78 95 3e bb 2b c1 3f 1c 4b c1 3d 1d 25 d5 3c
       0.29193825 1.509147 0.09438154 0.026018674
000030 b7 8f 9f 3d 23 28 2c 3f b9 00 02 3d 48 92 68 3d
       0.07791083 0.67248744 0.03173897 0.05678013
000040 2c 3a 3e 3e a7 88 a3 3f 08 55 52 3d 4a f5 7c bf
       0.18576878 1.2776078 0.051350623 -0.9881178
000050 93 b7 17 bd cb b7 81 3f 59 b9 94 b9 58 8d 8c bf
       -0.037040304 1.0134214 -0.00028366855 -1.0980635
000060 73 c0 7d 3e 4c 9e 2f 3f 80 55 28 bb 3b 75 bf 3d
       0.24780445 0.68600917 -0.0025685728 0.09348532
000070 8d b2 35 bd c7 21 ec 3e 69 a6 11 3d 5c da a8 3d
       -0.044359732 0.4611952 0.03555909 0.08244774
000080 98 02 36 bb 5e 51 1d 3f 3a 70 1d 3d 43 db d4 3c
       -0.0027772542 0.6145228 0.038437106 0.025983458
000090 36 61 78 bd d1 1b 25 3f fb 18 bb bc bd 3a 16 bb
       -0.060639583 0.6449557 -0.02283906 -0.0022923194
0000a0 97 68 02 3e c4 ad 01 3f 74 8e a3 3d 4f f0 c6 be
       0.1273521 0.5065577 0.07986155 -0.38855216
0000b0 0b d8 0a 3e eb c4 7d 3f aa 3f ab 3d 0f ea a2 be
       0.13558976 0.991286 0.08361752 -0.31819198
0000c0 d2 b8 32 3e 8c 10 0a 3f f8 c1 06 c0 a4 32 17 bd
       0.17453316 0.539315 -2.105589 -0.03691353
0000d0 ad a3 6e 3f 5b 32 e1 be 6b 33 17 3e 52 70 58 3d
       0.932185 -0.4398373 0.14765708 0.052841492
0000e0 a0 8c a5 3e 74 2e 53 be 9c 1a fd 3d 73 2b 48 3d
       0.3233385 -0.20623189 0.12358591 0.04886956
0000f0 9d 09 02 3f 22 85 18 bf 87 e1 bd 3a d8 f4 a6 be
       0.5079592 -0.59578145 0.0014486768 -0.32608676
000100 ee 3d b0 3e ca 2f 57 be 95 1a 82 3c f1 7e 97 be
       0.3442225 -0.21014324 0.015881816 -0.29589036
000110 99 13 ae 3d c4 c0 35 bf c3 48 5a be 6a bd 02 bf
       0.08499832 -0.7099726 -0.21316819 -0.5107027
000120 50 93 81 3e 9e 7d 46 be ca 56 59 be 67 d1 0b bf
       0.25307703 -0.19383857 -0.21224514 -0.546164
000130 bc e0 21 3e 70 ec 89 be 96 d1 4c bc 4a 7f ce 3e
       0.15808386 -0.269382 -0.012501141 0.4033149
000140 34 95 a6 be 00 9f 87 be 69 c8 a6 bc 5c 6b c8 3e
       -0.32535708 -0.26488495 -0.020359235 0.3914441
000150 21 7b 5b 3e 3c b8 8b be 88 1c 56 3e d2 2f 2c 3f
       0.21433689 -0.27288997 0.20909321 0.6726047
000160 eb d5 ba be b4 58 29 be 17 c7 29 3e 8c 0f 25 3f
       -0.3649133 -0.16537744 0.16579853 0.6447685
000170 b3 97 7d 3e 61 7c 1e be de cc 1a 3d a2 40 57 3f
       0.247649 -0.15477134 0.037793033 0.84082997
000180 ed 58 80 be 92 2f ed bd d3 7b 5e 3d e7 4a 4f 3f
       -0.25067845 -0.11581339 0.054317307 0.80973667
000190 77 79 fd 3e 9b 69 88 3e 5a 10 87 bf cc bd fc 3e
       0.49506733 0.2664307 -1.0551865 0.49363554
0001a0 90 0b 98 bd b6 fa 06 bf 0c 8a 97 bd ba 15 17 bf
       -0.0742408 -0.52726305 -0.07399377 -0.5901753
0001b0 b6 29 ad 3e 95 06 65 bf 9b a2 26 bd 8d ff 12 bf
       0.33820885 -0.8946317 -0.040682416 -0.5742119
0001c0 f6 db 51 be 8f 92 39 bf 2c b5 97 3d 6a c1 81 3b
       -0.20494065 -0.72489256 0.07407603 0.0039598243
0001d0 61 19 95 3e 6f 33 88 bf 3a ce 7d 3d 4b 0a 05 3d
       0.29120925 -1.0640696 0.06196425 0.03248052
0001e0 89 75 ef bd ea 0e 6b bf f9 46 d0 bd 69 3f 19 3e
       -0.1169234 -0.9181963 -0.10169787 0.14965595
0001f0 35 bf 8f 3e d5 14 80 bf 5f b6 aa bd 1f 42 03 3e
       0.28075567 -1.0006357 -0.08335566 0.12818192
000200 f8 77 05 3d cb 49 60 3e a0 b1 c0 3b dc 5e a8 be
       0.032585114 0.2190315 0.0058805496 -0.32884872
000210 b1 1a a7 be 9e 64 6a bf 6e ed 24 3d 29 55 70 be
       -0.3263755 -0.9155978 0.040265493 -0.23469986
000220 77 82 51 3e ba 62 ac 3e f3 b2 b3 3d 61 9b 9e 3e
       0.20459925 0.33669072 0.08774366 0.3097792
000230 07 9a 7e be f6 16 87 bf 27 7d af 3c f1 23 7d 3e
       -0.24863444 -1.0553882 0.021421982 0.24720742
000240 8a eb 7d 3e 8e 61 8d 3e 49 ac e0 3d 86 16 b0 3d
       0.24796882 0.2761349 0.10970361 0.08598046
000250 58 ea 8a be 47 13 85 bf 56 04 3f 3d 7c 1b 23 3e
       -0.27131915 -1.0396508 0.046634994 0.15928453
000260 68 cd c2 3f e7 af 9f bf bf 53 c4 bf 5c 1e 4a bf
       1.5218935 -1.2475556 -1.5338057 -0.78952575
000270 e8 1e 8c bd 46 c7 a1 3f 8b 41 71 3e 63 9f fe 3e
       -0.068418324 1.2638938 0.23560159 0.49730977
000280 46 37 77 be 69 7a 13 bf cb a4 47 3e 4e f0 03 3f
       -0.24142179 -0.5760866 0.19496457 0.5153855
000290 16 fa f2 bc 0e 1c 6b 3f 0b e8 6a 3c 51 85 08 be
       -0.029660266 0.91839683 0.01433755 -0.13332106
0002a0 f3 f0 74 be 65 42 3e bf b7 5d ad bd e0 bd 85 bd
       -0.2392004 -0.7432006 -0.0846514 -0.065303564
0002b0 0e 89 a4 3d 35 7f 16 3f 4d a5 17 bd 59 6b 2d bf
       0.080339536 0.5878785 -0.037022877 -0.67741925
0002c0 65 84 9e be 20 da 25 bf cb e7 6c bd 33 12 42 bf
       -0.30960384 -0.6478596 -0.057838243 -0.7580902
0002d0 2f e9 25 3e 3e 74 e1 3e 06 35 e1 3d 99 07 69 be
       0.16202234 0.44033998 0.109964415 -0.22756805
0002e0 f1 6b 83 3e b2 01 23 bf ed a3 29 3d 3e ec 9e be
       0.2566829 -0.6367446 0.041416097 -0.31039613
0002f0 0d d1 19 3d a1 5b 8a 3e 72 53 8c 3e 90 21 8b be
       0.037552882 0.27023032 0.27407414 -0.27174044
000300 20 7d aa 3e f5 8b 30 bf 67 f1 6f 3e d8 94 32 be
       0.33298588 -0.6896356 0.23431931 -0.17439592
000310 6e 05 42 be 20 98 b3 3d af af bd 3d 4a 4b 95 be
       -0.18947384 0.0876925 0.092620246 -0.29159003
000320 74 f5 b0 3e 42 93 35 bf d2 ec ca 3d d0 b4 60 be
       0.34562266 -0.7092782 0.09908451 -0.21943974
000330 a2 fb 95 bf 5a 9a 97 3f e2 1b 5e 3d 3e 38 a3 3d
       -1.1717417 1.1843979 0.05422581 0.07969712
000340 0c 60 9a 3e f4 5b 5d 3e ab 6f 15 3e 20 f7 13 bd
       0.30151403 0.21617109 0.14593379 -0.03612435
000350 e7 d9 85 bd 34 8e 07 bf 7b 9d bf 3d 98 c2 d0 bd
       -0.06535702 -0.5295136 0.09356209 -0.10193366
000360 63 6c dc 3e 76 1a aa 3e 5d 86 b0 bd d7 ed 03 be
       0.43051443 0.33223313 -0.08619378 -0.12883697
000370 01 10 f8 be e6 22 e8 be 85 fd cf bd 75 b9 31 bd
       -0.4844971 -0.45339125 -0.10155777 -0.043389756
000380 eb bd 0d 3f 0f 2b e0 3e 3e 10 af bd 29 6c 8f be
       0.55367917 0.4378285 -0.0854802 -0.28012207
000390 49 99 4c bf d8 8c b7 3d e7 a2 23 be dd 82 72 be
       -0.79921395 0.08962411 -0.15980111 -0.23682733
0003a0 88 bc 93 3f 18 42 0e 3e fe f8 4e 3d 20 33 9d 3e
       1.154191 0.138924 0.050530426 0.30703068
0003b0 fa b2 8b 3d 28 dc 0e bf e9 93 5f 3c 23 48 c8 3e
       0.068212464 -0.5580468 0.013646104 0.39117536
0003c0 b2 89 94 3f 33 5c 49 3e ef 6d 06 be 04 bb 2b bd
       1.1604521 0.19664077 -0.13127874 -0.0419264
0003d0 58 49 eb 3e f1 99 c7 be 75 41 04 be f7 d9 27 bd
       0.45954394 -0.38984635 -0.12915595 -0.04097935
0003e0 94 6a 39 3f 81 48 2b 3e 1e d6 8a bd 23 5f 93 bc
       0.7242825 0.16726877 -0.06779121 -0.0179897
0003f0 02 40 45 3f cb 07 16 3e 8e 77 dc bd 34 ee 97 bb
       0.77050793 0.1465141 -0.10764991 -0.0046365503

fc1.bias f4 [256]
000000 57 bb 4a bf 4c 3a bf be 3f 35 19 be 70 9c 54 3e
       -0.7919211 -0.37349164 -0.14961718 0.20762801
000010 e2 b4 45 bf a6 8a 0f be f2 5a 3b bf d8 fb b6 be
       -0.7722913 -0.14017734 -0.73185647 -0.35739017
000020 61 e5 76 bf db 46 37 bf e8 f2 fe be 4e 64 bc be
       -0.96443754 -0.7159249 -0.49794698 -0.36795276
000030 fa cd 27 bf 3a 0c db be 94 d9 08 bf 96 0d 02 bf
       -0.6554867 -0.42782766 -0.53457 -0.5080198
000040 33 61 1f bc ea 82 a9 be 21 70 36 bf 1a 9e 31 bf
       -0.009727764 -0.33107692 -0.71264845 -0.6938187
000050 3c 13 fd be 44 bd 86 be 21 f1 08 bf 15 53 ee be
       -0.49428737 -0.26316273 -0.53492934 -0.46547762
000060 e7 93 59 be 19 ae b7 be a2 34 8f bf c6 0d c2 be
       -0.21247827 -0.35875013 -1.1187937 -0.37901133
000070 fd 1c 6f bf 8f fd 0d bf be 2e 5c bf 19 81 3d bf
       -0.9340361 -0.55465025 -0.8600882 -0.7402511
000080 25 72 88 bf f3 a9 f5 be 25 dc 34 bf 4b aa 05 bf
       -1.0659834 -0.47981223 -0.70648414 -0.5221297
000090 20 79 01 bf b1 3b a0 be 3e 96 be be a3 5d 9a be
       -0.5057545 -0.3129554 -0.37224 -0.30149564
0000a0 48 b5 36 be 07 55 47 be ff 98 d9 be 8c 4c 07 bf
       -0.17842591 -0.19466029 -0.4249954 -0.52851176
0000b0 14 3c c1 be ea f7 2c bf 2a df 9a be e4 78 ff be
       -0.37741148 -0.67565787 -0.30248386 -0.4989692
0000c0 56 62 e1 be 55 e2 da bc 3b 4c 42 be 11 f7 85 be
       -0.44020337 -0.026719252 -0.18974392 -0.2616506
0000d0 00 a4 b4 be d3 f4 ed be aa 0f 03 bf de f5 9f be
       -0.35281372 -0.4647585 -0.51195776 -0.3124227
0000e0 dc 30 a6 be 85 4d 3b bf 0a 33 38 bf 29 8d af be
       -0.32459152 -0.7316516 -0.7195288 -0.34287384
0000f0 43 80 26 bf 7e 20 05 bf 48 67 8a bf 31 21 49 be
       -0.6503946 -0.52002704 -1.0812769 -0.19641568
000100 ba 47 24 bf 35 75 dc be 61 46 ac be 33 09 e7 be
       -0.64171946 -0.43058172 -0.33647445 -0.45124206
000110 6d 8f 17 bf ff 4b 9a bd 42 a7 61 bf f4 bd 42 bf
       -0.59203225 -0.07534026 -0.8814584 -0.76071095
000120 7f 1e 2f bf 16 b0 ed be 7c b2 44 be de db ec be
       -0.6840591 -0.46423405 -0.19208711 -0.46261495
000130 63 ba a9 be a2 ae 84 bf 05 89 c6 3d 5d 96 15 be
       -0.33150014 -1.0365794 0.09694103 -0.1460814
000140 ae 5b c1 be b7 ee 91 be aa 9c 78 be 37 42 9e be
       -0.3776526 -0.28502437 -0.24278513 -0.30909893
000150 7e fb b3 be dc f1 1b bf ef 5b 56 be f4 43 48 be
       -0.3515281 -0.60915923 -0.20933507 -0.19557172
000160 80 66 0e be 12 21 35 bf a3 b2 fe be cc 36 4d bf
       -0.13906288 -0.70753586 -0.49745664 -0.8016174
000170 ed 20 fd bd 82 b0 67 be fb 5a dd be 2c 48 0e bf
       -0.12359796 -0.22625926 -0.43233475 -0.55578876
000180 99 55 21 be ad 90 91 3e fd 39 21 bf 1d 03 d3 be
       -0.15755309 0.2843069 -0.6297911 -0.41213313
000190 4b 0f 84 be 15 a0 d7 be 06 d8 fa be 84 15 af be
       -0.25792918 -0.4211432 -0.48992938 -0.34196103
0001a0 92 e7 85 be 39 5f 7c 3c 6f e8 a5 bd ab 5f a1 be
       -0.26153237 0.015403562 -0.08100974 -0.315183
0001b0 9f 06 23 bf ad 50 12 bf f2 46 1d bf 45 f2 a0 be
       -0.6368198 -0.5715435 -0.6143638 -0.31434837
0001c0 29 95 e9 3d 44 df 1a bf ae 6f 0c bf 32 bf 49 bf
       0.11405403 -0.60496926 -0.5485791 -0.78807366
0001d0 c2 c4 3e be d4 8b 61 bf ed bf c5 be b2 cf c0 be
       -0.18629745 -0.88103986 -0.3862299 -0.3765846
0001e0 7a c5 6e bf 8d 0a 33 be 7c a7 d8 be ab 69 5a be
       -0.93270075 -0.17484494 -0.4231528 -0.21329372
0001f0 be 3c 6b be bd 37 07 bf e4 8f 95 bc d5 b6 7e bf
       -0.2297239 -0.52819425 -0.018257089 -0.9949773
000200 66 27 7b be 5e 21 14 bf 07 6e 95 be 5d 54 27 bf
       -0.24526748 -0.57863414 -0.29185507 -0.65363103
000210 c4 be 4b be 59 b4 10 bf 97 d3 81 be c1 1c da bd
       -0.1989699 -0.5652519 -0.25356743 -0.106500156
000220 80 e2 22 bf e6 e3 f9 be 13 b1 9e bd 49 7f 83 bf
       -0.6362686 -0.48806685 -0.07748618 -1.0273219
000230 3d af 2c bf fa 13 08 bf bd a9 33 be 10 e0 be be
       -0.6745489 -0.5315548 -0.17545219 -0.3728032
000240 aa b6 ef be ec 33 03 bf ca e6 19 bf 65 98 9c be
       -0.4681905 -0.512511 -0.6011778 -0.30585018
000250 66 19 e3 be 3f 45 60 be 37 d7 d6 be d7 32 17 bf
       -0.44355315 -0.21901415 -0.4196107 -0.5906195
000260 23 59 b0 bd 44 e4 54 be f6 bc db be 58 cb 4d bf
       -0.086107515 -0.20790201 -0.42917603 -0.803884
000270 26 c2 d6 be 6c f6 00 bf 0e 75 84 be 45 31 95 be
       -0.41944999 -0.5037601 -0.25870556 -0.29139152
000280 e9 60 12 bf 1f 13 17 be de 4e ff be 3f c3 02 bf
       -0.57179123 -0.14753388 -0.49864858 -0.5107917
000290 aa 7d c2 be 87 2c 20 bf 43 61 5e bf 3e bf a0 be
       -0.379865 -0.62567943 -0.8686716 -0.31395906
0002a0 c0 57 01 bf f7 bc 2f bf e7 87 e6 be 36 a6 e5 be
       -0.5052452 -0.6864771 -0.4502556 -0.4485337
0002b0 0d eb 20 bf 03 99 dd be 6a ad 05 3e fa 03 7c 3e
       -0.6285866 -0.432808 0.13054433 0.24610892
0002c0 33 39 99 bf 16 e7 e8 be 0d 7f 36 be ee 34 46 be
       -1.1970581 -0.45488805 -0.17821904 -0.19356129
0002d0 5f 83 e6 be 5f a5 9e be f5 24 d4 bd b1 fb 1c bf
       -0.45022103 -0.30985543 -0.103586115 -0.6132155
0002e0 8e 0e 31 bf b5 c1 43 be fe 5f e3 be 5b 75 2c bf
       -0.69162834 -0.19116862 -0.44409174 -0.6736657
0002f0 dc 95 c2 be 8a 6a 19 bf d8 c7 4a bc 81 de 18 bf
       -0.3800496 -0.5992819 -0.012376748 -0.59714514
000300 e4 84 28 bf 10 ad bb be 11 61 16 bf 2f 4e df 3d
       -0.65827775 -0.36655474 -0.5874186 0.10903584
000310 27 70 f6 be c7 4a c2 3c 73 aa 25 be ef c7 ea be
       -0.4813244 0.023717297 -0.16178302 -0.45855662
000320 10 5e 52 bf 06 46 63 be 72 7b 58 bf 96 28 cc be
       -0.8217478 -0.2219468 -0.8456336 -0.39874715
000330 22 56 e1 bd 2f 67 6e be 1a 2c 92 bd 3d e1 f4 be
       -0.11002757 -0.23281549 -0.07137318 -0.47828093
000340 6b 6a 12 bf 77 3f 15 bd 02 e0 c9 be fe e4 05 bf
       -0.5719363 -0.036437478 -0.39428717 -0.5230254
000350 72 dd 52 3c ea e0 05 bf 6d b8 bb be ed 68 96 be
       0.0128701795 -0.52296317 -0.36664143 -0.29376927
000360 50 b3 02 bf 7a f5 83 be 76 19 1d 3e 12 49 91 be
       -0.5105486 -0.2577322 0.15341744 -0.2837606
000370 92 a7 db be c8 08 8e bd 07 b0 3c bf 95 4e d0 bc
       -0.42901284 -0.06935269 -0.73706096 -0.025428096
000380 54 2a 52 bc 1c fd ac 3e 23 0b bb 3c a6 47 e8 be
       -0.012827475 0.33786857 0.022832459 -0.45367163
000390 dc 2b 0b bf 91 fc fb be f3 da d3 be 8b f7 4d bf
       -0.543638 -0.4921613 -0.41377982 -0.80455846
0003a0 02 4c 3b bf a9 9c f8 bc 7b f9 28 bf 62 32 1c bf
       -0.73162854 -0.030348139 -0.66005677 -0.6101438
0003b0 18 ea e0 be 09 89 ec be cf fc 3e 3e 64 a5 ee be
       -0.439286 -0.461983 0.18651126 -0.46610558
0003c0 d2 71 c7 bb 50 80 41 bf 4a d6 e8 be 82 94 d5 3c
       -0.0060865665 -0.75586414 -0.4547599 0.02607179
0003d0 55 00 6b be 4b 92 62 bf 39 68 c8 be cd 92 13 bf
       -0.22949345 -0.88504475 -0.39142016 -0.57645875
0003e0 ff 0c 0d bf 77 59 08 bf b8 c0 b4 bd cf 7d b3 be
       -0.55097955 -0.5326151 -0.08825821 -0.35056922
0003f0 cf 82 e8 be cd 70 56 be ef 9f c4 be cf 87 45 be
       -0.454123 -0.20941468 -0.3840327 -0.19290088

fc2.weight f4 [256, 256]
000000 78 fc 30 3c 57 07 a0 bb 53 a8 6d bc e0 a9 71 bd
       0.010802381 -0.0048836875 -0.014505464 -0.058999896
000010 85 88 d1 bc 68 56 98 3c 30 9f 13 be a3 0f 62 bd
       -0.025577793 0.01859589 -0.14416194 -0.055190694
000020 00 33 cc bc 09 dd 00 bc f6 6f b2 3c b5 8d 93 3a
       -0.024926662 -0.007865199 0.021781903 0.0011257442
000030 b8 d4 8b bd d4 9a 1d bd 0e 81 6c 3c bb e8 1a 3b
       -0.06827682 -0.038477734 0.014435066 0.0023637253
000040 aa 69 ee bd ef ae 9a bd 6f 89 d1 bd e2 22 42 bd
       -0.116412476 -0.07552897 -0.102312915 -0.047396548
000050 64 95 ed bd c1 b0 2d 3c 69 ca d2 bd 9e d8 09 bd
       -0.116007596 0.010601223 -0.10292513 -0.033653848
000060 91 af 91 bd 7b b5 29 bc 33 a9 01 bc 2e d9 6a 3d
       -0.07113565 -0.01035821 -0.007913875 0.057336025
000070 4d 99 9f 3d c6 23 b9 bb f4 6d 3b 3d 82 ec 05 3d
       0.07792912 -0.0056500165 0.045759156 0.032696255
000080 d4 bc e6 bd a5 bc 80 bd 1c 98 0f be 71 f6 46 be
       -0.11266485 -0.06285981 -0.14022869 -0.19429947
000090 da 40 01 bc 38 10 d7 3c a3 e4 97 bd b6 d5 e4 bd
       -0.007888997 0.02625285 -0.07416656 -0.111735746
0000a0 f4 1d 7d bd 8d f7 14 bc 17 bd 90 bd 71 ba d0 3c
       -0.061796144 -0.009092224 -0.07067316 0.025479527
0000b0 b0 cc 62 3d b0 d3 a3 bc 03 80 b1 bc 27 f1 57 3c
       0.055370986 -0.019998401 -0.021667486 0.013180054
0000c0 09 ba 2c 3e e4 5d f2 bd d8 87 31 3e ca 4a ff bd
       0.16867842 -0.118343145 0.17336977 -0.12465437
0000d0 71 2a ba 3c 84 16 7b 3d 14 03 a8 3d 87 85 61 be
       0.022725316 0.06130077 0.08203712 -0.22023593
0000e0 19 0a a4 bd a5 33 10 3d 92 20 e9 3d 7f 54 e5 bd
       -0.080097385 0.035205502 0.113831654 -0.11197757
0000f0 4c 44 c4 bd 1c 6f 6c bb 19 63 90 bd 8c cc 27 be
       -0.09583339 -0.0036076969 -0.070501514 -0.16386622
000100 a5 70 08 3e 74 3e 53 bd 76 7b a9 3d de 9f 25 be
       0.1332422 -0.05157323 0.082755014 -0.16174266
000110 04 56 84 3c 24 8b 87 3c 45 03 85 3d 68 ec 83 3c
       0.016154297 0.01654584 0.06494764 0.016103938
000120 17 fc 11 ba 50 88 f5 3d 6f fb b7 bd 3d 76 0e 3d
       -0.00055688753 0.1198889 -0.08983504 0.03478073
000130 42 10 90 3c cd 53 7f 3c 2f ac 07 3c 22 37 aa bd
       0.017585877 0.0155839445 0.008280798 -0.08311297
000140 b6 d8 a3 3d fb b7 76 bc 1f 1a 26 bd 5e a5 e5 bd
       0.08000319 -0.015058513 -0.040552255 -0.11213182
000150 6b c5 5c bd 4a 02 9c 3c c4 7f 39 3c e5 46 a7 bd
       -0.05389921 0.01904406 0.011321966 -0.08167819
000160 cb 9f a9 bd 65 22 8b 3c 2d 84 26 be 86 1e 09 bd
       -0.08282431 0.016984174 -0.16261359 -0.033476375
000170 ca c2 0b be 26 37 fc 3d 87 62 3f bc 80 66 80 be
       -0.13648525 0.12315206 -0.011681206 -0.250782
000180 f2 4e fe 3c e1 82 a3 bc 30 00 7e bd 13 2b 31 3d
       0.031043503 -0.019959869 -0.062011898 0.04325397
000190 a4 ca 69 bc 1a 77 8f bc 3e 93 cb bd 88 fd e0 bd
       -0.014269505 -0.017512847 -0.099401936 -0.10985857
0001a0 ab c2 9d bc 24 a1 e9 bc cd 92 1b bc 8c b2 65 be
       -0.019257864 -0.02851922 -0.009495449 -0.22431391
0001b0 ad 7a 08 3c b4 ff 44 3e d8 d9 91 bd 68 d9 9f bd
       0.008330029 0.19238168 -0.071216285 -0.07805139
0001c0 b0 02 2a 3e b2 0b aa bb 5c a3 23 bd 4c 28 84 3c
       0.16602588 -0.0051893825 -0.039950714 0.016132496
0001d0 4a 33 3d bd 79 97 7a bc b2 45 b1 bb 49 41 17 bb
       -0.04619149 -0.015294903 -0.0054099197 -0.0023079684
0001e0 06 c2 4e bd 20 26 02 bd 31 27 44 3d 1c 8b 0b be
       -0.050478004 -0.03177464 0.04788894 -0.13627285
0001f0 49 d8 09 bd 42 36 02 be 95 e4 82 bd e6 1e 3a 3d
       -0.03365353 -0.1271601 -0.06391255 0.045439623
000200 97 f3 9c bd 4d 0b a8 bd 60 76 d3 bd 08 b5 09 bd
       -0.076636486 -0.082052805 -0.103253126 -0.03361991
000210 3c 08 5c bc 21 72 f2 3d e3 e7 b1 bc 41 6f 42 bd
       -0.013429698 0.118381746 -0.021717018 -0.04746938
000220 35 2a cf 3a e1 45 97 bd f2 da f1 3c 4f c7 c7 3b
       0.0015805425 -0.07386375 0.029523347 0.0060967575
000230 6e 90 2f bd 1f ac 1a 3d 8e fc 02 bd d9 ee 83 3e
       -0.04286235 0.037761804 -0.031979136 0.25768164
000240 a4 08 21 3d f8 13 1b be 53 de a7 bc da 82 94 3a
       0.03931488 -0.15144336 -0.020491755 0.0011330501
000250 f3 36 a3 bc fe 3e 3c be 6e 4a be bd 27 f9 b7 3c
       -0.019923663 -0.18383405 -0.0929154 0.022457672
000260 07 53 b2 bc 85 6d 3e be 76 d6 c5 b6 08 8c b7 bd
       -0.021768106 -0.18596466 -5.896024e-06 -0.08962256
000270 86 01 d2 bb 77 c5 ac bd 9d a4 d2 bb 3b b6 11 3e
       -0.006408873 -0.08436101 -0.006428315 0.14229672
000280 d7 08 9c 3c 7b ba 16 3d 27 16 fd 3c 99 13 98 3d
       0.019047184 0.036798935 0.030894352 0.07425613
000290 1b a7 19 be 37 45 b2 bd f3 ec 7a 3c e2 c2 a9 bc
       -0.15005152 -0.08704608 0.015315282 -0.02072281
0002a0 c9 54 23 bd 00 07 a3 3c a8 7c 17 bd 59 8d 78 bc
       -0.03987578 0.019900799 -0.036984116 -0.015170419
0002b0 81 e1 12 be 64 00 70 bd d8 83 45 3d e0 16 e6 3c
       -0.14343835 -0.058594123 0.04822144 0.02808708
0002c0 80 37 7f 3d 51 cd 83 bd 1f b7 0b 3c 52 44 0e be
       0.06230879 -0.06435645 0.008527546 -0.1389325
0002d0 a5 4c 8f bd 54 74 41 bd 83 46 1a bd 58 d9 2c bb
       -0.06997041 -0.04723008 -0.0376649 -0.0026374664
0002e0 36 99 b5 bd f2 89 a3 3c c0 af 1e be 93 d3 48 bd
       -0.08867113 0.019963238 -0.15496731 -0.049029898
0002f0 d0 b5 ee 3c 3b ef 3f bd de b4 8f bd f5 5b 89 bd
       0.02913943 -0.046859007 -0.070169196 -0.067069925
000300 8b dd ab bc f6 68 22 bc a4 13 f5 3c 15 ee a3 bd
       -0.020979663 -0.00991272 0.029916592 -0.08004395
000310 d3 78 10 3c 7c e9 7d 3d 66 b9 0d be cc 71 df 3c
       0.008817869 0.061990246 -0.13840255 0.027275942
000320 0e 4e 8d 3a dd 19 a3 3c 04 5c 0c 3d e1 b2 b2 3d
       0.0010780708 0.019909794 0.03426744 0.08725525
000330 42 52 ac bb 1b c0 2e be 95 be 94 bd 21 17 d2 bb
       -0.0052588293 -0.1706547 -0.07262913 -0.0064114486
000340 24 81 75 bd fc 9a 82 bd a9 56 53 bd 3a a1 4b be
       -0.05993761 -0.06377217 -0.051596317 -0.19885722
000350 6a 61 14 3d c2 53 6b be 6c 5c 6e 3d 30 74 fc 3c
       0.036225714 -0.2298117 0.05819361 0.030817121
000360 e5 8c 96 bd 73 ef 21 3c f3 f9 34 bd e8 6f 22 be
       -0.07351092 0.009883749 -0.044183683 -0.15863001
000370 f4 f4 b9 bd d6 5f f9 3c 64 24 ae bd c4 41 25 bd
       -0.09079924 0.030441206 -0.08503035 -0.040345922
000380 2a ea 8e bd 62 2b ac 3d f0 f2 3b bd fa 62 e5 b9
       -0.06978257 0.08406712 -0.04588598 -0.00043752027
000390 ec ad d6 3c 1d db a1 3d 8b 89 2b bc f7 0d ad 3c
       0.02620598 0.07903121 -0.0104698045 0.021124823
0003a0 40 3b 8c bd a0 67 54 bc bd bc 8f 3d 60 b7 37 3c
       -0.068472385 -0.012964159 0.07018421 0.011213154
0003b0 55 34 dd bd ee dd fe 3d c7 3f 7a 3d 85 61 89 3c
       -0.10800997 0.124446735 0.06109598 0.016770134
0003c0 ba 91 75 3b f2 7f a5 3c 7a 0b 74 3d 95 f0 83 bd
       0.0037470893 0.02020261 0.059581257 -0.06442372
0003d0 35 b3 3c 3c da 97 7e be 4d 42 57 bb 99 d8 d8 bc
       0.011517336 -0.24862614 -0.0032845915 -0.02647047
0003e0 e1 0d 8e bd 5d 68 57 bd d5 fe 36 bc ad 3c f4 3d
       -0.06936241 -0.052589763 -0.011169155 0.119256355
0003f0 87 d0 15 3d 2a d5 d4 3d 61 b8 90 3d 95 b5 03 bd
       0.03657582 0.1039222 0.070664175 -0.032155592

fc2.bias f4 [256]
000000 f7 09 3a be 5d 02 06 be 37 93 ee bd bf ef d6 bd
       -0.18167864 -0.13086839 -0.11649173 -0.10494947
000010 f6 89 0d be e5 c9 e2 bd 40 20 26 be 51 94 86 be
       -0.13822159 -0.110736646 -0.1622324 -0.2628503
000020 47 e0 37 be 43 24 7d bd 44 02 4c be 1b 82 bd be
       -0.17956649 -0.06180216 -0.1992274 -0.37013325
000030 3a 99 58 be e0 d4 17 be 76 6b 09 be 5f f7 09 be
       -0.21152201 -0.14827299 -0.134199 -0.13473271
000040 a2 ab 3a be 5d 9f 22 be 66 92 5a be 21 3d 23 be
       -0.18229535 -0.15881105 -0.21344909 -0.15941288
000050 80 2d 05 be 54 bf 21 be 52 3a 22 be 50 a3 6b be
       -0.13005638 -0.15795642 -0.1584256 -0.23011518
000060 03 35 a2 be 2e 7b 17 be 31 e7 07 be 0b e2 f4 bd
       -0.3168107 -0.14793083 -0.13271786 -0.11957177
000070 ff da 79 be c0 43 22 be f5 4e 80 be dd 6e a0 be
       -0.24399947 -0.15846157 -0.2506024 -0.31334582
000080 1c 9a 7e bd 50 2a d7 bd 3c 64 92 be 42 0a d0 bd
       -0.06215869 -0.10506117 -0.28592098 -0.101582065
000090 98 d0 8d be a5 79 3b be 1c a2 cb bd a2 14 71 be
       -0.27698207 -0.18308122 -0.09943029 -0.23543027
0000a0 0a d3 31 be 9d b8 46 be fe 4e 48 be 50 b3 c5 be
       -0.17365661 -0.19406362 -0.19561383 -0.38613367
0000b0 b6 3d fb bd 89 19 24 be 36 ba db bd d6 c7 1e be
       -0.1226763 -0.16025366 -0.10728876 -0.15505919
0000c0 bf 67 69 be d6 d6 81 be f6 4e d1 bd 72 1b 89 bd
       -0.22793482 -0.2535922 -0.10220139 -0.06694688
0000d0 cb 90 a0 be 55 ea 21 be 23 51 a7 bd 6c f5 25 be
       -0.31360468 -0.15812047 -0.081697725 -0.16206902
0000e0 2f 30 50 be 5e 01 7f be 19 17 7d be 52 c0 66 be
       -0.2033088 -0.24902865 -0.24715842 -0.22534302
0000f0 c7 09 3c be 6f 5c 80 bd 74 e8 6b 3d dc 10 5d be
       -0.18363105 -0.0626763 0.05759473 -0.21588463
000100 4a a2 71 be 0f f2 df bd 48 6e 3b be 71 e2 bb bd
       -0.23597065 -0.10934841 -0.18303788 -0.0917405
000110 95 8f 80 be cb de 82 be 94 80 fc bd 00 a5 f6 bd
       -0.25109544 -0.25560603 -0.12329212 -0.1204319
000120 0a be 40 be 55 d2 9b be b3 ca ce bd d0 f2 fb bd
       -0.18822494 -0.30433908 -0.100972556 -0.12302172
000130 a7 85 94 be ef 47 eb bd d7 93 37 be e2 59 86 be
       -0.2900822 -0.114883296 -0.1792749 -0.2624045
000140 81 b0 0c be 02 a1 66 be 6a 48 8a be 0e 69 f0 bd
       -0.13739206 -0.22522357 -0.27008373 -0.117387876
000150 d2 e0 25 be 99 c4 4b be 58 14 d9 bd 5d e0 7b be
       -0.16199043 -0.19899215 -0.105995834 -0.24597307
000160 7f fd 3c be 91 bb 17 bd d8 ff 18 bd be ec 0b be
       -0.18456076 -0.03704411 -0.037353367 -0.13664529
000170 04 df 80 be 20 81 2a be 3e 51 ab be 1d b8 43 be
       -0.25170147 -0.1665082 -0.3346042 -0.19113202
000180 2f 40 52 be a9 53 f2 bd ec 48 82 be ea 57 70 be
       -0.20532297 -0.11832363 -0.2544626 -0.23471037
000190 c4 57 bf bd 28 95 8c 3c bc 2a 2a be 44 c3 2b be
       -0.09342912 0.017160967 -0.16617864 -0.16773707
0001a0 18 7f 82 be ca bb bb 3c 71 a7 7d be ca b9 14 be
       -0.2548759 0.022916693 -0.24770905 -0.14523998
0001b0 8a 17 22 be 41 8a 46 be 5e bd 55 be a9 41 b1 be
       -0.15829292 -0.19388677 -0.20873019 -0.34620407
0001c0 70 7a 2a be 5d 56 3f be 01 b2 29 be 2d c6 4d be
       -0.16648269 -0.18685289 -0.1657181 -0.2009513
0001d0 98 db 52 be e2 2d 49 be 1d 0b cf bd 76 b1 53 be
       -0.20591581 -0.19646409 -0.101095416 -0.20673165
0001e0 f6 67 ef bd 35 c8 d8 bd e2 35 3e be d9 dc bf be
       -0.11689751 -0.105850615 -0.18575242 -0.3747318
0001f0 c5 9e 68 be 99 10 2f be 3f 5d 88 bd 0a 90 24 be
       -0.22716816 -0.17096175 -0.0665841 -0.16070572
000200 ce bf d9 bd 79 af 5e be de a9 8a be cd da f8 bd
       -0.10632287 -0.21746625 -0.27082723 -0.12151108
000210 7a 4b d8 bd d5 fd 4f be d4 c6 b2 bd 74 fe e9 bd
       -0.10561271 -0.20311673 -0.0872933 -0.11425486
000220 79 cc c2 be a8 9a 75 be 80 2c c5 bd 9b 32 cf bd
       -0.38046625 -0.23984778 -0.09627628 -0.10117074
000230 64 ec 81 be c8 e9 94 be 38 19 ef bd d4 6a 58 be
       -0.25375664 -0.2908461 -0.11674732 -0.21134502
000240 e7 7b 03 be 55 91 be bd 31 63 dc bd 51 1c 82 be
       -0.12840234 -0.09305064 -0.10761107 -0.2541223
000250 f4 8f 06 be 30 91 03 be 81 a8 a2 be 06 e2 65 be
       -0.13140851 -0.12848353 -0.31769183 -0.22449502
000260 31 72 32 be bb 91 9b be 0c 71 34 3d 67 d5 8a be
       -0.17426373 -0.3038462 0.044053122 -0.27115938
000270 58 66 8e bd 16 cc 17 be 50 16 38 be 85 89 dc bd
       -0.06953114 -0.14823946 -0.17977262 -0.10768417
000280 ba 9e 2a be 2d a2 a9 bd a1 20 81 bd 43 7b ef bd
       -0.16662112 -0.08282886 -0.063050516 -0.11693432
000290 0e 5b 00 be 50 71 b0 bd bb 45 26 be 33 05 fa bd
       -0.12534735 -0.08615363 -0.16237538 -0.12208023
0002a0 50 e6 39 be 06 11 20 be d0 f4 6b be 20 06 1b be
       -0.18154263 -0.15631494 -0.23042607 -0.15139055
0002b0 01 10 6f be e7 11 05 be ea f0 f0 bd a8 ec 5f be
       -0.23345949 -0.1299511 -0.11764701 -0.21867621
0002c0 bc 6a 22 be b8 22 dc bd a5 d7 b1 be a3 8a 9c be
       -0.15861028 -0.107488096 -0.34734836 -0.3057452
0002d0 3b fc 05 be bb 39 91 bd a4 5b 8a be 32 9c 9b bd
       -0.130845 -0.07091089 -0.2702304 -0.07598151
0002e0 32 c1 64 be 68 18 29 be 66 59 44 be 3c 3b 00 be
       -0.22339323 -0.16513216 -0.19174728 -0.12522596
0002f0 27 0e fb bd b9 13 e7 bd aa 41 f9 bd 19 30 3b be
       -0.12258559 -0.11283059 -0.121707276 -0.18280067
000300 30 cf d0 bd 2a 56 2b be 37 ba 4e be ef df 9c be
       -0.10195768 -0.16732088 -0.20188223 -0.30639598
000310 1c cd 7c be fc d7 41 be 34 46 81 be 0e 85 49 be
       -0.24687618 -0.18930048 -0.25248873 -0.19679663
000320 f5 26 30 be 09 27 a4 be a5 a2 1e be aa a4 cc bd
       -0.17202361 -0.3206103 -0.15491731 -0.09992345
000330 42 0e 2a be 28 58 64 be 32 cb a8 be 87 8c b8 bd
       -0.16607001 -0.22299254 -0.32967526 -0.090111785
000340 82 8d 4d be 44 14 f6 bd 43 dd 2c be 01 25 27 be
       -0.20073512 -0.12015584 -0.1688128 -0.1632271
000350 55 02 bc bd 8e cf 9a be 30 05 72 be e9 fa 54 be
       -0.09180132 -0.30236477 -0.23634791 -0.2079884
000360 1b 50 43 be 6d 5f ae 3d 43 7b 47 be 40 3f 06 be
       -0.19073527 0.08514295 -0.19480614 -0.13110065
000370 f8 83 24 be aa fe 18 be 33 b4 74 be 2b 49 52 be
       -0.16065967 -0.14940897 -0.23896866 -0.20535724
000380 14 ca 1e be fd dc f9 bd 4c 23 00 be a2 ce 63 be
       -0.15506774 -0.12200353 -0.12513465 -0.22246793
000390 80 fc a8 bd eb 27 58 be da 8b 3a be 17 d6 6b be
       -0.082512856 -0.21108977 -0.18217412 -0.23030888
0003a0 b1 f6 0d be 34 be c0 be 5c e0 26 be 7f 0b 51 be
       -0.13863637 -0.37645113 -0.16296524 -0.20414542
0003b0 cb 81 8f be 4f 9a 6c be 43 cb 3d be 9f fd 81 be
       -0.28028712 -0.23105739 -0.1853457 -0.2538881
0003c0 31 e8 13 be f0 f5 28 be 72 d1 c4 be 4b da 89 be
       -0.14444043 -0.16500068 -0.38441044 -0.26924357
0003d0 82 8b 9b be d3 62 72 be 89 4b 81 be 36 cb 69 be
       -0.30379874 -0.23670511 -0.2525294 -0.22831425
0003e0 ae d8 2e be f5 44 4d be d9 d6 2c be a4 ba 6f be
       -0.17074844 -0.20045836 -0.16878833 -0.23411041
0003f0 cf 76 8b bd 78 3c 10 be ff 05 8b be 5c 9b 1e be
       -0.0680977 -0.14085567 -0.27153012 -0.15488952

fc3.weight f4 [1, 256]
000000 fb 90 9b 3b 4e fa 26 bc bf 58 00 3b 67 48 6c bb
       0.0047475076 -0.010191513 0.0019584147 -0.0036053897
000010 16 c8 b7 3c bf 29 81 bb ff b9 d4 3c 8e 89 0e bd
       0.022434276 -0.003941744 0.025967596 -0.03479915
000020 cf 3d 9c 3c 22 7e e6 3c 5f 8d 84 3c 2a 31 47 3c
       0.019072441 0.028136317 0.016180692 0.012157718
000030 68 b5 11 bc 9d 1d 31 bb 1b b3 94 bc 96 14 6c 3c
       -0.008893348 -0.0027025708 -0.01815181 0.014409205
000040 2a 6d 81 bc 8d c4 01 3a 28 02 cf bb b9 df 80 bb
       -0.015799124 0.0004950248 -0.0063173957 -0.00393292
000050 f5 40 80 bc e9 f6 c3 3c d4 8d c1 bc ed e9 78 3c
       -0.015655974 0.023921447 -0.0236272 0.015192491
000060 4c 80 e6 bd 95 a9 37 37 7b 3b 53 bc 91 23 32 3d
       -0.112549394 1.0947134e-05 -0.012892599 0.04349095
000070 73 97 96 bb 77 b8 88 bc 9c 67 53 bc 1c a4 9e bd
       -0.004595691 -0.016689522 -0.01290312 -0.07746145
000080 8f f6 4a bc f4 b6 07 3c 87 21 84 3d aa 7c 8b bb
       -0.012387886 0.0082833655 0.06451707 -0.0042568045
000090 ac 96 13 3c b7 6b d4 3b d2 1f c2 bc 89 2a 32 3c
       0.009008091 0.006482567 -0.023696814 0.010874399
0000a0 73 3e e6 b9 53 ae 20 bd 97 f9 a1 3a 22 15 39 3d
       -0.00043915547 -0.03922875 0.0012357709 0.04518617
0000b0 49 f8 ce 3c b7 0b 56 bc d9 e7 9c 3b 23 f1 67 bb
       0.025264876 -0.0130643165 0.0047883806 -0.0035391531
0000c0 41 44 5a 3d 54 c1 36 bc be e7 6f bd 5c eb 30 3c
       0.05328775 -0.011154491 -0.058570616 0.010798302
0000d0 01 e2 01 3c fd a3 17 3c 5d 49 02 3c 2f 97 97 bc
       0.007927419 0.009255406 0.0079520615 -0.018504707
0000e0 f3 6b dc 3a 35 c8 40 3c c5 3e 01 bc 8d 91 f1 bb
       0.0016816839 0.011766483 -0.007888501 -0.0073720873
0000f0 80 97 88 bd 77 1e 15 bd 7d e7 70 3c 40 a4 c2 bc
       -0.06669521 -0.036406007 0.014703629 -0.023759961
000100 b0 65 97 bc fb 39 a5 bc 84 8f cd 3c ca da af 3b
       -0.018481106 -0.020169249 0.025092848 0.005366658
000110 07 e9 07 3c 55 8b e9 bc 4f 38 d9 bc d7 78 36 bd
       0.008295304 -0.028508822 -0.026516108 -0.044548836
000120 b1 97 ce 3b 81 c5 53 bc 7e 05 16 3d b5 ec a2 bc
       0.006304704 -0.012925507 0.03662633 -0.019888261
000130 03 0f 97 3c a0 f5 90 bc 6c c1 8d 3c 13 c1 e8 3b
       0.018439775 -0.017695248 0.017304145 0.0071030944
000140 9e e1 9f 39 83 39 d8 3c d7 8e 7a 3c fa 10 5d bb
       0.0003049494 0.026394611 0.015292845 -0.0033732043
000150 f8 c6 b2 bc 70 75 85 bc a1 c1 b7 3c 40 55 f0 bb
       -0.021823391 -0.01629135 0.022431197 -0.0073343813
000160 cf 87 6f 3c 4d d2 02 3e 6f 3c 1c 3c 15 76 21 3c
       0.014619782 0.12775536 0.009535893 0.009854813
000170 8c 54 a7 bb dc 80 81 bc 74 2a 88 bb 35 8c 7d bb
       -0.0051065143 -0.015808515 -0.0041554514 -0.0038688306
000180 b2 d3 48 bd e0 bf eb 3c 98 1b d8 3b 2a e6 c1 3b
       -0.049030013 0.028778017 0.0065950863 0.0059173303
000190 17 27 c8 bb 59 db cb 3c cd 9e bf 3b 02 7b 01 bc
       -0.0061081755 0.024884867 0.005847788 -0.0079028625
0001a0 30 9b 6f 3c 99 69 66 bc 93 8a 2e bd 03 56 0c 3c
       0.014624402 -0.014063262 -0.042612623 0.008565429
0001b0 97 43 4a 3c 84 94 d9 bc d6 ec 1e 3c 2a 43 82 3d
       0.012345216 -0.026560076 0.009700021 0.06360467
0001c0 ea f9 0a bc 3e 13 1e 3c bc 97 0c 3b 1f c7 f5 3b
       -0.008482436 0.009648142 0.0021452745 0.0075005437
0001d0 ca 52 d6 bc d5 98 71 bc f6 88 a8 3c 14 15 c2 bc
       -0.026162524 -0.014745911 0.02057312 -0.023691691
0001e0 53 bd c0 b9 1c 98 83 3a 68 6f 61 3d db 81 d2 3d
       -0.0003676215 0.0010039839 0.055037886 0.10278674
0001f0 7d 1c a0 ba 2b d5 c3 bb a9 59 ac 3c 92 a1 31 3c
       -0.0012215521 -0.0059763393 0.021038847 0.010841744
000200 ea bd d1 bb 67 dc d5 3c bb 9d 37 3c dd de eb 3c
       -0.0064008133 0.026106073 0.0112070395 0.028792793
000210 33 33 96 3c 79 e8 38 3c 5e c4 4c 3c 88 ca e3 3b
       0.01833496 0.011285895 0.012497989 0.006951634
000220 56 d8 87 3d 38 a7 24 bc 3d 24 84 3b e4 ff 63 bd
       0.0663306 -0.010049634 0.0040326403 -0.05566396
000230 61 2e 1c 3c 16 34 ad 3b b0 98 04 3d 0e a0 4d 3c
       0.009532542 0.00528575 0.032372177 0.012550367
000240 09 81 e2 bc 62 c3 54 bc 41 69 f0 bc 68 12 33 3c
       -0.02764942 -0.012986036 -0.029347064 0.010929681
000250 83 d6 ec 3a ac 02 a4 3c 2c d9 4f bc bf f3 a7 3c
       0.00180693 0.020020805 -0.012686055 0.02050197
000260 ce ee ae bb 7e c6 b8 bc 92 89 05 3d 2c 21 3a 3d
       -0.0053385263 -0.022555586 0.0326019 0.04544179
000270 85 55 a8 bb d3 62 66 3c e2 35 3e 3c 00 18 44 bc
       -0.005137148 0.0140616475 0.011609526 -0.011968613
000280 1b 89 b1 bc e3 12 5e 3c d5 59 6e bc 90 f2 e3 bb
       -0.021671822 0.013554308 -0.014547785 -0.006956406
000290 1d 23 14 3d 11 c6 a8 bc c0 8d fb bb 82 99 b0 3b
       0.0361663 -0.020602258 -0.00767681 0.0053893933
0002a0 07 d8 39 bc 08 e4 a8 bc 77 58 b1 bc 82 b8 58 bb
       -0.011343009 -0.020616546 -0.021648629 -0.003306896
0002b0 4d 6c e3 3c aa 05 86 3c 1c 1c da bb e8 da ba bc
       0.027761603 0.016360123 -0.006656183 -0.02280946
0002c0 1d fa 01 bc 08 17 2b bc e6 9c 5f 3c 1d 02 5c bc
       -0.007933167 -0.010442503 0.013648247 -0.013428238
0002d0 7f 94 ca 3b eb 8e ae 39 5b 79 b2 bc 6f 24 2e 3c
       0.006182253 0.00033294348 -0.021786382 0.010628804
0002e0 97 a9 56 3c db e0 36 bd cc af db bb 61 c1 1a 3c
       0.013101957 -0.044648033 -0.006704306 0.009445519
0002f0 6d 8a fa 3b 25 4f 9c 3c 67 79 c7 3c 84 32 ef ba
       0.007645896 0.019080708 0.024349881 -0.0018249308
000300 19 21 81 bd db 6e e2 bc 33 d2 cb bd 56 21 1d 3c
       -0.06305141 -0.02764075 -0.09952202 0.009590467
000310 e9 8f d0 3a 21 fe 64 bd 23 c4 84 bd e8 3b b3 3c
       0.0015912029 -0.05590642 -0.064827226 0.021879151
000320 6c c2 2a bb 9d c6 85 3d 0b b8 c1 ba ba 02 6f bb
       -0.0026055826 0.06532023 -0.001477958 -0.003647013
000330 a0 d8 63 3c bb 0e 63 bc ed 5b 96 3d 90 e9 b4 3b
       0.013906628 -0.0138584925 0.07341752 0.005521007
000340 d9 5c b4 bc 5f 5e 62 3b ab 67 3c 3c 13 a8 e7 bc
       -0.02201693 0.0034541113 0.011499326 -0.028278386
000350 22 14 0a 3d 0d 32 ef bc 73 64 7a 39 97 78 3f 3c
       0.033710606 -0.02919867 0.00023879278 0.011686466
000360 54 a3 9a 3c 25 bb f4 bc ba eb 5a 3c f5 18 57 bb
       0.018876709 -0.029874394 0.013361866 -0.0032821272
000370 83 a1 97 bc 96 53 c9 bc 24 f6 9a 3c ca a0 31 bc
       -0.018509632 -0.02457599 0.018916197 -0.010841558
000380 df 7e 07 3e 4b 34 f8 bb d6 f1 07 3c 99 63 82 3c
       0.13231991 -0.007574593 0.008297404 0.015916632
000390 34 38 c5 bb d5 11 9f bc c9 e4 db bc e1 d6 8b 3c
       -0.006018663 -0.019417683 -0.026842492 0.017070236
0003a0 25 3a fb bc 23 c6 86 3c f9 73 81 3c a6 36 86 bb
       -0.030667374 0.0164519 0.01580237 -0.00409587
0003b0 d7 e1 a0 bc 9c f9 ab 3c 8d dc 1b 3c e1 c6 59 bc
       -0.019638939 0.020993046 0.009513033 -0.013292045
0003c0 28 2d e0 3c 5a a0 4e bc 2c d0 33 bc 7f 37 a9 bd
       0.027365282 -0.012611473 -0.010974925 -0.08262538
0003d0 3e 97 c0 3b ea f6 2b bd be b3 59 3b 88 d3 17 bc
       0.0058774045 -0.041983522 0.0033218707 -0.009266742
0003e0 0b 61 59 ba ae a5 66 bc c1 75 95 bc e5 49 5f 3e
       -0.00082923536 -0.014077587 -0.018244626 0.21805532
0003f0 bf b7 15 bd 18 5b 01 bc ee 87 48 3c 99 fa e6 3b
       -0.036552187 -0.007895254 0.012239439 0.0070489165

bn1.weight f4 [256]
000000 7a 29 1e 3e fc f1 f9 3d 04 46 5e 3e cf 6f 6e 3d
       0.1544551 0.12204358 0.21706396 0.058212098
000010 fb 7e 01 3e 3a f7 34 ba da 58 fc 3d 13 fc f6 3d
       0.12646095 -0.00069032947 0.123216346 0.12059798
000020 65 26 31 3e 9c 2e 57 bd 85 d8 c1 3d 70 62 48 3e
       0.17299803 -0.052534685 0.09465126 0.19568801
000030 97 c0 42 3e f0 48 16 be 8f c7 e8 bc e7 b3 f4 38
       0.1901878 -0.14676261 -0.02841547 0.00011668336
000040 ca fe 05 3e aa 55 ce 3a 81 47 30 3e c1 dc 22 3e
       0.13085476 0.0015742083 0.17214777 0.15904523
000050 35 e4 37 3e ed 73 1d 3e f6 99 e5 3d a9 24 5f 3e
       0.17958148 0.15376253 0.11211006 0.21791328
000060 6e 7a 65 bd 52 b2 7d 3d 2a 39 0a 3f 01 11 3b 3f
       -0.05602496 0.061937638 0.53993475 0.7307282
000070 95 0f 02 3e 8a f4 cf 3e 35 43 f4 3d 2c 00 0c 3e
       0.12701257 0.40616256 0.11926881 0.1367194
000080 c2 b7 80 3e 5d a7 1c 3e 64 4a 38 bd 47 7b 2a 3e
       0.25140196 0.15298219 -0.04499282 0.16648589
000090 1e e6 36 3e ef cb b8 bd e9 6b b7 3d 10 04 2c 3e
       0.1786122 -0.09023272 0.08956129 0.16798425
0000a0 b6 15 76 3e 00 4e 10 3e d2 a4 c1 3e a1 47 6c 3e
       0.2403172 0.14092255 0.3782106 0.230742
0000b0 41 7e 9b 3d b7 30 90 3e 65 04 6c 3f 4c 5a a0 3d
       0.075924404 0.28162166 0.92194206 0.07829723
0000c0 70 1d 26 be 5f 7d 0e 3e 88 b6 9f 3d de a0 3e bd
       -0.16222167 0.13915013 0.07798487 -0.046540134
0000d0 83 69 d1 3e 4a a3 ac 3d 5b 66 ba 3d 67 f9 06 3e
       0.40900812 0.084295824 0.09101554 0.13181077
0000e0 43 e3 0f 3e 0e 2d 94 3e 31 9f 9d 3e da 26 b1 3d
       0.14051537 0.28940624 0.30785516 0.086499885
0000f0 3b 5d 33 3d 25 42 ec 3d a7 6e 7a 3e 60 bd 97 3d
       0.043790083 0.115360536 0.24456273 0.07409167
000100 74 a9 f4 3d e7 90 69 3d b6 51 95 3e 3a 55 28 3e
       0.11946383 0.057022955 0.29163903 0.16438761
000110 d7 78 07 3e bc 84 80 3e 20 e3 0a 3e c3 3a d4 3e
       0.1322969 0.25101268 0.13563204 0.41451082
000120 92 25 20 3e 0d 0b 15 bd ce f0 17 3e 1d 24 35 3e
       0.15639332 -0.036387492 0.14837953 0.17689557
000130 39 36 41 3d c1 7e 29 3e eb aa 80 3e f4 8d c0 3e
       0.04717085 0.16552259 0.251304 0.37608302
000140 d3 5b 52 3e 75 bb c6 3d 54 f0 2d 3d 09 91 63 3d
       0.2054284 0.09703723 0.042465523 0.05555824
000150 33 09 1b 3e 11 41 60 3e 4b 40 db 3d 5a c6 38 3e
       0.15140228 0.21899821 0.10705622 0.18044415
000160 a2 71 f3 3d ec 37 71 3e 98 6b 0e 3e f9 b1 86 3e
       0.11886908 0.23556489 0.13908231 0.26307657
000170 3d 45 7c 3d 8a b3 fc 3d ad c7 b8 3e 10 13 59 3e
       0.06158947 0.12338932 0.3608984 0.21198678
000180 b7 66 21 3e 24 80 18 3f 0e 31 cc 3d 75 f5 00 3e
       0.15761839 0.5957053 0.09970294 0.12593634
000190 54 a6 c8 3d 6a c5 4c 3e 48 80 11 3e 77 bf d9 3e
       0.097973496 0.19997182 0.14209092 0.4252889
0001a0 ab 93 2e 3e ff 91 e6 3d 4b d6 e7 3d 86 7e 99 3d
       0.17048518 0.11258315 0.1132017 0.074948356
0001b0 dc b5 c4 3d cd 1b 25 be c5 c9 f3 3d 66 b2 8d 3d
       0.096049994 -0.16123886 0.11903719 0.069187924
0001c0 c1 ab 10 ba c4 ea 6e 3e 16 38 04 3e 76 8b 8e 3d
       -0.00055187574 0.23331743 0.1291202 0.06960194
0001d0 4a 95 f9 bc 74 d0 c4 3e e2 27 0a 3e f7 26 b6 3e
       -0.030466694 0.38440287 0.13491777 0.35576603
0001e0 0f 48 8b 3e 66 35 d1 3e ba 41 75 3e d1 a4 ed 3d
       0.27203414 0.40861052 0.23950854 0.11603702
0001f0 3b 75 34 3d 7a 46 c2 3e 07 c7 74 ba db 08 0c 3e
       0.044057112 0.37944394 -0.0009337519 0.13675253
000200 f1 d2 02 3e 2d 38 06 3e cc 90 94 3e dc 7c c8 bd
       0.1277578 0.13107367 0.2901672 -0.0978944
000210 80 dc b4 3e d9 26 03 3e 08 69 4a 3e 74 48 86 3e
       0.35324478 0.12807788 0.19766629 0.26227152
000220 86 48 2a 3e 54 84 b8 3d f2 fe 22 3e 7f 4c df 3d
       0.16629228 0.090096146 0.15917566 0.10903262
000230 f4 71 37 3e 1e 4e fc 3d a1 cc 1e 3d 44 0d 94 be
       0.17914563 0.12319587 0.038769368 -0.2891637
000240 d5 48 24 3e c9 d5 2a 3e 8a ad 75 3e 8e 8d 0b 3e
       0.16043408 0.16683115 0.23991981 0.13628218
000250 8a 02 21 3d 82 4d 0c 3e 13 c6 7d 3d 70 13 dc 3d
       0.039309062 0.13701442 0.061956476 0.10745895
000260 17 fa 7c ba 41 46 cd 3d 9d 93 98 bd 15 61 79 3e
       -0.00096503034 0.100231655 -0.0745003 0.2435344
000270 af ef aa 3d fd 95 05 3e e5 f8 f2 3d 8a 04 22 bd
       0.08346497 0.13045497 0.11863879 -0.03955511
000280 c6 ec 2c 3e 42 15 b4 bc 7e 07 f1 bd b8 5f 10 3e
       0.16887197 -0.021982793 -0.11769007 0.14099014
000290 f0 18 37 3e ae 37 4f 3d c2 e6 de 3d 92 21 19 3e
       0.17880607 0.05059021 0.10883857 0.14954212
0002a0 06 ab e2 3d ff 5b 2a 3e 88 12 fe 3d 71 2c 03 3e
       0.110677764 0.16636656 0.12405878 0.12809922
0002b0 22 52 90 3d 4c 8f 33 3e 23 ff 26 3e 73 37 44 3e
       0.070469156 0.17535132 0.16308264 0.19161777
0002c0 6a e3 f3 3e 9c 95 a2 3e 9b cc c8 3e 61 00 3d 3e
       0.4763444 0.31754768 0.39218602 0.18457176
0002d0 0e cf e3 3d d4 35 5b 3e ed 60 3d 3e e7 99 15 3e
       0.11123477 0.21407253 0.18494006 0.1460949
0002e0 f7 de 59 3e 65 34 8a 3e df 13 80 3d 1f f2 61 3d
       0.2127646 0.269931 0.0625379 0.055162545
0002f0 e8 d5 f8 bd 80 d3 5a 3e be 55 47 3e c4 3e 97 3d
       -0.121501744 0.21369743 0.19466302 0.073850185
000300 b9 85 1e 3e ba c2 58 3e 23 69 30 3a cc a3 b4 3c
       0.15480699 0.21168032 0.0006729534 0.02205076
000310 38 33 82 3f 79 dc 7c 3e a8 7a 7a 3d 1b 0d 95 3e
       1.0171881 0.24693479 0.06115213 0.2911156
000320 28 7e 05 3f 8c 05 a8 3d 07 ad a4 3d b0 ae fe 3d
       0.52145624 0.08204183 0.08040815 0.12435663
000330 b2 d0 3f 3e 80 25 b1 3d 72 32 52 bd cd 48 5b 3d
       0.18731955 0.08649731 -0.05131764 0.053536225
000340 d3 0a 0a 3e be ee 8c 3f 5b 73 9a 3d 52 c0 73 3e
       0.13480692 1.1010358 0.075415336 0.23803833
000350 0f 33 54 3e 82 11 09 be 4b 3c 46 3e df 8a 0c 3e
       0.20722602 -0.13385585 0.19358937 0.1372485
000360 48 6e 0f be 76 f7 50 3d 6d 06 46 3e d8 cf 21 bd
       -0.14006913 0.051017247 0.19338389 -0.039504856
000370 72 52 1b 3e b8 59 75 3d 25 1d a6 3d 0f 56 f7 3d
       0.15168169 0.059900016 0.08111028 0.12076961
000380 fd 4f 02 3e 93 9f ea 3e 0b 92 0d 3e 44 21 c6 3d
       0.12725826 0.4582487 0.13825242 0.09674314
000390 85 6a 79 3f 74 e9 6d 3e 65 15 c9 3d d1 0f 0b 3e
       0.9742816 0.23233587 0.09818534 0.13580252
0003a0 c1 13 3f 3e b4 61 a3 3e 32 f8 ec 3e 28 d1 8c 3d
       0.1865988 0.3191048 0.46283108 0.06875831
0003b0 42 04 0c 3d 21 7a 0e bd 86 86 cd 3e c8 ea 04 3e
       0.034183748 -0.03478444 0.40141696 0.12980187
0003c0 47 f2 98 3e 8d e9 e7 3e 92 a0 21 3e fe 61 03 3e
       0.29872343 0.45295373 0.15783909 0.1283035
0003d0 1b 75 8c 3d 23 5e df bd cc 49 64 3d c2 02 46 3f
       0.068582736 -0.10906627 0.05573444 0.7734796
0003e0 57 90 27 3e c7 34 86 3e d2 68 4e bd 1c c9 92 3d
       0.16363655 0.2621214 -0.050392933 0.07167265
0003f0 66 d7 ef 3d 5b ee 95 3d 08 49 b2 bd ec fa da 3d
       0.11711006 0.07320853 -0.08705336 0.10692391

bn1.bias f4 [256]
000000 1b f9 85 3d 5b a4 7e 3d 53 d4 35 3d 02 0b 99 3c
       0.06541654 0.06216846 0.04439194 0.018682007
000010 1d de b3 3c 21 36 22 ba d8 2e 91 3d 2f 55 60 3d
       0.021956498 -0.00061878754 0.07089013 0.054768737
000020 ab 48 d3 3c a9 14 3f bb 4a 00 8a 3b 89 83 ab 3d
       0.025791487 -0.0029156602 0.0042114602 0.08374698
000030 27 cc ff 3d c1 75 88 bd b8 e8 12 bc 8d 85 68 3c
       0.12490111 -0.06663085 -0.008966617 0.014191997
000040 df ef 87 3d 9a 40 ed 38 9d e0 08 3e 1f fe 13 3d
       0.06637549 0.000113130736 0.13366933 0.03613102
000050 4f ed 65 3d 41 81 02 3d dd e9 af 3c 5c 83 77 3e
       0.05613452 0.031861547 0.02147382 0.24171203
000060 b0 27 5c bc 98 0c d6 3c 74 7e ed 3d fc 45 bd 3e
       -0.013437197 0.026129052 0.11596385 0.36967456
000070 a8 0e 4d 3c 0a d8 dd 3d 08 aa ea 3c 97 34 98 3c
       0.012515701 0.10832222 0.02864553 0.018579764
000080 1a 60 dd 3d 7e 41 83 3c a1 0b e0 3b b4 d5 b5 3d
       0.108093455 0.01602244 0.006837324 0.08878651
000090 f7 ab 54 3d 35 e5 a3 bc 8a 39 ee 3c ce 5d 45 3d
       0.05192181 -0.020006755 0.029080171 0.048185162
0000a0 97 c7 68 bd 05 b0 12 3e 5e 30 8d 3e 1b 05 19 3e
       -0.05683097 0.14324959 0.27575964 0.14943354
0000b0 bc b7 39 3c e0 15 d1 3d 04 60 46 3d 25 55 b8 3c
       0.01133531 0.102092505 0.04843141 0.022501538
0000c0 c2 aa a0 bd c9 79 9b 3d d3 c7 70 bd 74 5f e4 3d
       -0.078450695 0.07591588 -0.058784317 0.11151019
0000d0 20 7e 2d 3e 53 05 09 3d 24 67 80 3b e3 43 2d 3d
       0.16942644 0.033452343 0.0039185453 0.04230107
0000e0 f3 72 38 3d 93 7c 92 bd 80 9e 80 3d 3e cc 42 3d
       0.0450315 -0.07152667 0.062802315 0.04755806
0000f0 68 8a 96 bc dc f5 be 3c 30 e5 c8 3d 08 58 55 3e
       -0.018376544 0.023310594 0.09809339 0.20834363
000100 f7 e4 a1 3c 38 64 0a 3d fa d6 b1 3d b1 62 9d 3d
       0.0197625 0.033786982 0.08683582 0.076848395
000110 8b 52 d0 3c 14 bc b4 3d 94 1a 2a 3d 71 37 d8 bd
       0.025429985 0.088249356 0.041529253 -0.105574496
000120 aa 78 fb 3c 18 ff 08 3c a4 07 85 3d 1f 29 97 3b
       0.030697186 0.0083616 0.06495598 0.0046130563
000130 e2 29 21 3b 70 7b e1 3c 70 76 99 3d 66 32 f8 3d
       0.0024591614 0.02752468 0.07493293 0.12118988
000140 cb 6d f9 3d 45 dd 0d 3c a7 82 f4 3c ea 84 d2 3c
       0.121791445 0.008658712 0.029847456 0.025698144
000150 2c 78 0e 3d 78 c8 8d 3d 78 60 07 3d 67 b3 8e 3d
       0.034782574 0.06923002 0.033050984 0.06967812
000160 08 0b ea 3c 7b f1 00 3e 16 c5 26 3c fe b0 ab 3c
       0.028569713 0.12592117 0.010178825 0.02095842
000170 55 24 a3 3d 70 6c 51 3c 6a af 2b 3e ff f7 84 3d
       0.07965914 0.012782201 0.16766134 0.06492614
000180 49 0d 1d 3d 46 0f 21 3e 6d 7f 22 b8 28 cd 75 3c
       0.038342748 0.15728483 -3.8742484e-05 0.015002526
000190 77 f5 c4 3d ec e9 86 3d d3 2a c7 3c 34 92 e2 3d
       0.09617131 0.06587586 0.024312412 0.11063042
0001a0 10 8d 65 3d 1d 62 48 3d 82 ce df 3c 17 2b fd 3d
       0.05604273 0.048921693 0.02732015 0.12361734
0001b0 a2 c8 84 3c ab c8 a3 bd ab 4a f1 3c e7 f7 82 3c
       0.01620895 -0.07997259 0.02945455 0.01598735
0001c0 e4 1b 13 bb bd 0b 73 3c 4b 56 c2 3d e7 99 90 3b
       -0.0022447044 0.014834342 0.09489115 0.004412878
0001d0 3e 0b a6 b9 a8 44 29 3e ca bd 1f 3d c8 da bb 3d
       -0.00031670363 0.16530097 0.038999356 0.091725886
0001e0 54 2f b5 39 34 66 e6 3d 05 32 9e 3d dc 98 0c 3c
       0.00034558272 0.112499624 0.07724384 0.008581366
0001f0 90 de 2d 3c 3f 98 6b 3e ac 50 2e 3a 10 21 24 3d
       0.010612145 0.23007296 0.0006649594 0.040070593
000200 3f f4 3d 3d 32 d6 17 3d b5 ef 20 3e 7a 34 cb bb
       0.04637551 0.037069507 0.15716441 -0.006201324
000210 b6 ad 6f 3e f2 f3 3c 3d 1f 53 f0 3d 17 af 63 3e
       0.23406109 0.046131082 0.11734604 0.2223476
000220 f4 ed 41 3d 0a 26 ea 3c 70 9d 02 3d 1a 97 25 3d
       0.04734607 0.028582592 0.031888425 0.040427305
000230 bf 6d 4b 3d 39 10 31 3d 43 2a 8d 3c e3 4a b5 bd
       0.04966521 0.04322836 0.017232066 -0.08852174
000240 f5 f7 84 3d 07 9a 5e 3d 0c 64 f5 3d ab ba ef 3c
       0.064926066 0.05434611 0.11981973 0.029263815
000250 ba 75 73 3b 7e 86 82 3d ba 85 9e 3c 4a de f4 3c
       0.0037149028 0.063733086 0.019350875 0.029891152
000260 58 65 ce 3a ae b8 a6 3d e6 49 5d bc ba dc d5 3d
       0.0015746756 0.081406936 -0.013506388 0.10442491
000270 7c f3 7d 3c 12 0e 4d 3d 2e cb 50 3d 8b f7 af bc
       0.015499946 0.050062247 0.050975017 -0.021480342
000280 c6 8f 98 3d 91 5d af 3c b7 d3 11 bd 9c 30 c0 bb
       0.074492976 0.02140692 -0.035602298 -0.0058651697
000290 1a 1f 6e 3c dd 6e bb 3a 41 33 b0 3c 24 83 71 3d
       0.014533782 0.0014300008 0.021508815 0.058962956
0002a0 09 c5 cf 39 36 1a e4 3c 75 b5 b4 3d e4 f3 ab 3d
       0.0003962892 0.02784453 0.08823673 0.08396128
0002b0 f2 78 35 3c 10 ef 30 3d 39 0f c3 3d 36 f2 93 3d
       0.011076199 0.043196738 0.09524388 0.072239324
0002c0 82 11 94 3d 71 22 23 3e 97 4a 73 3e e6 a9 c2 3d
       0.07229902 0.15931107 0.23758923 0.09505062
0002d0 fd fb 00 3d a0 f3 c0 3d 69 8b d6 3d 9a 82 a5 3a
       0.031490315 0.09421468 0.10475809 0.0012627423
0002e0 8c ef 60 3d d6 a0 6d 3d fa 2d 0f 3c 59 fd d9 3c
       0.05491595 0.058014713 0.008738989 0.026610063
0002f0 5b d8 91 bc 68 7e 93 3d d1 8c b4 3d cf 50 dc 3c
       -0.017803362 0.072018445 0.08815921 0.026894001
000300 93 66 36 3d e8 95 6c 3d 86 f6 71 ba 72 a3 87 3c
       0.044531416 0.05776015 -0.0009230155 0.016557429
000310 f9 f0 9f 3e 28 fa cd 3d 1d 6b a1 3c dc 30 25 ba
       0.31238535 0.10057479 0.019704396 -0.0006301531
000320 88 c3 80 3e 84 7d e6 3c 72 92 cd 3c 9f 98 7b 3c
       0.25149179 0.028136022 0.025094245 0.015356212
000330 79 3d 99 3d fd 54 b7 3c 52 11 4d bc 49 c7 31 ba
       0.07482428 0.022379393 -0.0125163365 -0.000678171
000340 6b 8c 0b 3d 67 94 77 3e 51 32 e2 3c dd 38 ec 3d
       0.03406946 0.24177705 0.027611883 0.11534283
000350 92 8f 22 3d eb 24 43 3e 48 e9 61 3d b9 4b 96 3d
       0.0396877 0.19057052 0.055154115 0.07338662
000360 c3 bc 20 bd ad c1 61 3c dd 2f 42 3d 51 75 13 3e
       -0.039242517 0.013779086 0.047408927 0.14400221
000370 77 3b 76 3d 84 09 d1 3c bb f5 34 3c 27 2e 47 3b
       0.060115304 0.025517233 0.011044915 0.00303925
000380 65 5e 58 3d 61 b0 32 3e a8 43 e0 3c 18 cf 67 3c
       0.052824397 0.17450096 0.027376011 0.014148496
000390 c4 5d da 3e f0 b8 c5 3c e3 c4 1d 3b a4 63 00 3d
       0.42649662 0.024136037 0.0024073652 0.031345025
0003a0 f4 5a a0 3d d0 14 34 3e 4b 51 04 3e 2b 73 a5 3c
       0.07829848 0.17586064 0.12921636 0.020196518
0003b0 f8 cc 34 3c a2 6b 0c bd 55 28 98 bd 20 1f 92 3c
       0.0110351965 -0.034282334 -0.07429568 0.017837107
0003c0 9f 55 92 3d 93 de a1 3e c4 77 dd 3d 87 c0 81 3d
       0.07145237 0.31615123 0.10813859 0.0633555
0003d0 d0 e3 0a bb 2e a5 08 3e 0d b7 60 bb 2f 72 5b 3e
       -0.0021192916 0.13344261 -0.0034288794 0.21430276
0003e0 24 46 66 3d 98 54 a1 3d 04 30 a7 bc 56 df 9a 3b
       0.056219235 0.07877463 -0.020408638 0.0047263307
0003f0 8b d4 3d 3c ae e8 85 bc 1c ff 20 bd 2f 4f a9 bb
       0.011586319 -0.016346302 -0.03930579 -0.00516691
