checkpoint_actor_agent_1.pth (torch_old, 296365 bytes, 10 tensors)

fc1.weight f4 [256, 24]
000000 9c 99 a2 3d 42 e9 44 3d b4 03 ae bc 54 2a ab 3c
       0.07939455 0.048074014 -0.021242 0.020894207
000010 c7 ff 94 bc 34 c1 d4 bd d9 0a 78 3c d6 44 4d bc
       -0.01818837 -0.10388413 0.015139305 -0.012528619
000020 d0 b5 ec 3c 13 f6 e2 3c 7b f5 ab bb d0 e6 95 3b
       0.028895289 0.027705228 -0.0052477694 0.004574634
000030 7d d1 61 3b 4b 95 11 bd ad 5e 5a 3b b9 45 df 3c
       0.003445714 -0.035542767 0.0033320591 0.027254926
000040 c1 66 19 3c 2e da 26 3c d7 a0 cf bc 44 30 f5 bb
       0.009362877 0.010183854 -0.02534525 -0.0074825604
000050 21 25 60 3c 87 c2 1d bb 5a 00 c8 3c 4e f1 8e bb
       0.013680727 -0.0024072246 0.02441423 -0.004362262
000060 77 89 69 3d 06 7b ab 3d bd db 97 3d a1 b2 a8 bc
       0.057015862 0.08373074 0.074149586 -0.02059299
000070 cb 9d 5e bd 1b 9d 44 3d 3b 99 4e bc e3 5b 80 3d
       -0.0543497 0.04800139 -0.012609775 0.06267526
000080 e0 e0 f0 3c 0b 7a e6 3d 2a 24 d2 3c 70 cc 17 bd
       0.029404104 0.112537466 0.02565201 -0.0370602
000090 60 a0 94 bd 19 78 82 3d 45 ef bb 3c a4 c2 76 3c
       -0.072571516 0.06370563 0.022941241 0.015061054
0000a0 9a 43 cf bc f7 82 f0 3d 10 17 11 3a ca 5d d5 3b
       -0.02530079 0.117437296 0.00055347476 0.0065114247
0000b0 b2 d9 e7 bd c6 5f d3 bd 42 7f e2 3c 43 cf 82 bb
       -0.11320819 -0.10321002 0.027648572 -0.0039919927
0000c0 5c 2e d3 3d 18 24 45 bc 32 ae 8d bc 4c cd 76 3d
       0.10311577 -0.012032531 -0.017294977 0.06025438
0000d0 50 5c 61 3c d2 38 a0 bc cc a9 d4 3c 00 b6 07 bb
       0.013754919 -0.019558344 0.025959872 -0.0020707846
0000e0 79 22 03 3e 48 84 f5 3b 90 5f 0b ba fb fc 27 3d
       0.12806119 0.007492576 -0.0005316669 0.041012745
0000f0 14 0f e0 3c a1 2d 4a bc 92 40 15 bd d1 75 f6 3c
       0.02735094 -0.01233998 -0.036438532 0.030085476
000100 73 a3 d7 3d 06 96 88 3c ef e4 3e bd 64 83 e1 3c
       0.10529222 0.0166731 -0.046605047 0.027528472
000110 65 b6 36 bd ca e3 70 bd f3 7c b9 3b c7 6c 81 3d
       -0.04460754 -0.058810987 0.005660647 0.06319576
000120 01 83 d9 3c 6d 3b e4 3b df da ee 3b 2e 7d 22 bd
       0.026551725 0.006965092 0.007289275 -0.039670162
000130 ac 5f 32 bc d7 82 32 3d c8 c2 0d 3c ce 21 44 3d
       -0.010887068 0.04358181 0.0086523965 0.0478838
000140 ef e2 d0 3c 00 fd d3 39 13 40 07 3d 02 5b 80 3a
       0.025498835 0.00040433556 0.03302009 0.0009792747
000150 b8 48 e8 bd 1d 8c c3 3b 9b 26 02 bd 86 f6 97 3d
       -0.11341995 0.0059676305 -0.0317751 0.074200675
000160 b8 63 08 3e 64 0d 09 3e d0 01 b6 3a 94 b3 95 3d
       0.1331929 0.13384014 0.0013886038 0.073096424
000170 3c d6 c0 bd 6b 2e ef 3d 2d 7e 35 bd f1 58 21 3d
       -0.09415862 0.116787754 -0.044309784 0.03939146
000180 13 55 dc 3d 73 e9 4c bd d4 5f d7 bc d7 80 03 bc
       0.10758414 -0.050027322 -0.026290812 -0.008026323
000190 de f7 7f 3c b2 1e 30 bc 9c c8 52 3c b7 cc fb bc
       0.015623061 -0.010749506 0.012865212 -0.030737264
0001a0 11 74 11 3e d7 09 61 bd c5 a7 c9 3c 10 ce c5 3c
       0.14204432 -0.054941025 0.024616132 0.02414611
0001b0 39 0d 82 bd 98 5a 94 bd 60 38 00 bd 84 8d 20 ba
       -0.06350178 -0.07243842 -0.031303763 -0.0006124603
0001c0 ae 16 94 3d 5a 89 66 3c e7 23 10 3c 34 3d 0d 3c
       0.07230888 0.014070833 0.008797622 0.008620549
0001d0 ca 5c 9f bc b6 08 21 be 4b 08 dc bb 72 fe 3d bc
       -0.019453425 -0.15725979 -0.006714856 -0.011596309
0001e0 3c 91 66 3d 95 5f 84 bd 07 1d 94 bd 49 81 87 bd
       0.05629085 -0.06463543 -0.07232099 -0.06616456
0001f0 ff 64 1a be 68 c5 88 3c cb 97 1f bc 1c 70 0a bd
       -0.1507759 0.016695693 -0.00974078 -0.033798322
000200 64 1e 9c 3d f8 d5 03 3c 55 71 2f bc c3 87 27 3c
       0.07622984 0.00804662 -0.010708173 0.010225239
000210 b2 71 c3 3c 0d 75 77 bc 54 8f d1 bb 7a 6e 3e bd
       0.023857925 -0.015103591 -0.00639526 -0.046492077
000220 d0 9b b1 3d 66 f2 ae 3c fd 4c 6b 3c 93 78 31 3d
       0.08672297 0.021355819 0.014361617 0.04332788
000230 5e c4 62 3d 93 00 8b bc e1 34 68 bd 9e 4e d6 bc
       0.05536305 -0.016968047 -0.056691054 -0.026160534
000240 bd 44 dd 3b 9b e5 03 be 7e 84 9f bc c7 f9 1d bc
       0.006752579 -0.12880556 -0.019472357 -0.009642071
000250 a4 73 bf bc 50 ac c9 3d 30 85 2a 3d d8 0a e4 bc
       -0.023370571 0.09847319 0.041630924 -0.027837202
000260 9f 08 66 3a c8 4a ce bd 4d ae b9 3c 28 b0 04 3d
       0.00087750884 -0.10072857 0.02266612 0.03239456
000270 42 68 87 bd 32 1c 42 3c 68 9a 60 3c 83 ae 10 bc
       -0.066116825 0.011847543 0.013708688 -0.008830669
000280 a6 0f 57 3d 16 58 b2 bb 45 3c 39 3d c1 0d 5b 3d
       0.052505158 -0.0054426296 0.045223493 0.053479914
000290 b0 3f 4e be aa 22 47 bd 65 0b 1e bd 2d fc 1a 3b
       -0.20141482 -0.048617043 -0.038585085 0.0023648844
0002a0 33 04 cc 3c 2b b2 e3 3d ae d7 00 bd 92 88 a7 bd
       0.024904346 0.11117967 -0.03145569 -0.081803456
0002b0 a8 9a 94 3d 89 4e ec bc 23 45 95 bc b1 ec 17 be
       0.07256061 -0.028846042 -0.018221444 -0.14836384
0002c0 8f ea 39 3d 6d b8 c4 3b 68 02 99 3b 7b 17 af bd
       0.045389708 0.0060034306 0.0046694763 -0.085494004
0002d0 69 74 e9 bc 78 4b a1 ba 90 cc 2e bd 9e 65 a1 bd
       -0.028497892 -0.0012305817 -0.042675555 -0.0788071
0002e0 e7 17 76 bc 2a 79 96 bc a5 11 74 bd a9 89 90 bd
       -0.015020347 -0.018368322 -0.05958714 -0.070575066
0002f0 66 62 2e bd 3d 9c 3d bd 55 01 3a 3d 46 7c 63 bc
       -0.04257431 -0.04629158 0.045411427 -0.01388461
000300 8a 13 82 bd 0a a0 47 3d 75 13 c5 bc 44 f8 c1 3c
       -0.06351383 0.04873661 -0.02405713 0.023677953
000310 b0 df 99 bd 28 4d e8 bc 19 af 98 3d 1e 12 56 3d
       -0.07513368 -0.028357103 0.07455272 0.05226337
000320 09 dc fb bc 92 e1 68 3d e4 9f f1 bb 75 e9 94 bb
       -0.03074457 0.056855746 -0.007373797 -0.004544432
000330 6e 3f d4 bb dd bd fd bd 64 90 6e 3d 2c 85 5f bc
       -0.006477288 -0.12389729 0.05824317 -0.0136425905
000340 fb f9 c5 3c b2 e1 da 3d 02 54 3c 3a de 52 f2 3c
       0.024167052 0.10687579 0.0007184149 0.02958053
000350 27 ad 5e 3d b3 e1 13 be 6f 6f 24 bc 14 30 0b 3d
       0.05436435 -0.14441566 -0.010036333 0.033981398
000360 33 b5 a1 bd c5 70 e8 3d b3 5b cf 3c 6f 4b 30 bc
       -0.07895889 0.11349634 0.02531228 -0.010760172
000370 4d 47 55 3d 65 b7 a6 3d bb 9a cc bc e1 d3 4f 3c
       0.05206995 0.081404485 -0.024976125 0.012684793
000380 2e 15 9d 3c e6 95 2d 3d 25 f6 8d 3c c3 99 76 3d
       0.019175138 0.042379282 0.017329285 0.060205232
000390 c7 31 30 bb 8a 3b d3 bd f3 14 cf bc db 57 cc bc
       -0.0026885138 -0.103140905 -0.025278544 -0.024944237
0003a0 d6 4e f9 3c 2e 16 ef 3d 40 1b a4 3c f6 f3 81 3c
       0.0304331 0.11674152 0.020032525 0.0158634
0003b0 21 b3 a9 bd 97 d3 59 be a8 20 a3 bc c1 a4 91 bc
       -0.08286119 -0.21272121 -0.019913033 -0.017778756
0003c0 df e0 ed 3d 43 61 48 bc 0f 64 13 bb 42 2c ff bc
       0.116151564 -0.01223022 -0.002249006 -0.031149033
0003d0 7c ba 68 3c c5 91 bc bd 16 c1 10 bc cf 57 9b bb
       0.014204618 -0.09207491 -0.008835098 -0.004740692
0003e0 c5 38 7b 3d 59 0e 82 3c f7 3e 5b bd 84 6e 63 bc
       0.061333437 0.015875982 -0.053526845 -0.013881329
0003f0 9a 31 3e bd f8 21 05 be 91 77 e6 3c 89 da 0b bd
       -0.046434022 -0.1300124 0.028133186 -0.03414396

fc1.bias f4 [256]
000000 2a 10 eb bd 2f 84 04 3e 3d ab 62 bc 6f 2c d0 3c
       -0.114776924 0.12941049 -0.013834772 0.025411813
000010 e1 5d 9e bd 57 0d 6b be e0 6c 8c be 99 64 95 bd
       -0.0773275 -0.22954307 -0.27426815 -0.07294578
000020 67 e9 61 be b2 45 03 be f2 51 86 bc 24 75 dc bd
       -0.22061692 -0.12819555 -0.016396496 -0.1076453
000030 55 33 3e 3d 31 a9 7d be 0a f0 56 3d 46 ae 3b 3e
       0.046435673 -0.24771573 0.052475013 0.18328199
000040 ea 3c 7d bd 4d fa 83 bd 40 5a 46 be 21 7b 0a be
       -0.06182567 -0.064442255 -0.19370365 -0.13523532
000050 1b 2f 83 3d 4e 54 87 be 23 f8 83 bd 98 08 c4 be
       0.06405469 -0.26431507 -0.06443813 -0.38287807
000060 10 00 e6 bb 06 6d cf bd 8d a4 e0 3b 0d 02 96 bd
       -0.0070190504 -0.101282164 0.0068555535 -0.0732461
000070 e3 34 86 be e9 e7 01 be cf 7b 1d be 17 23 05 be
       -0.26212224 -0.12686123 -0.1537926 -0.13001667
000080 24 f0 bf bd da e2 2c 3d eb 6a 39 be d8 c2 28 bc
       -0.09371975 0.04220853 -0.18107192 -0.010300361
000090 62 bb 39 be de 7b b0 3d 02 5a 28 be 51 c9 82 3d
       -0.18137887 0.08617376 -0.16440585 0.06386054
0000a0 b8 3f 1a be 00 6c 08 be 02 dd 3f 3d 98 df 55 be
       -0.1506337 -0.13322449 0.04684163 -0.20886075
0000b0 ed 90 8e bd 4d 77 fe bd d0 d5 1b 3d e5 e4 7d be
       -0.06961236 -0.124250986 0.038045704 -0.24794348
0000c0 04 1d fb 3d 18 58 3f 3d b0 38 c0 bd 4d 00 f0 3d
       0.12261394 0.046714872 -0.09385812 0.11718807
0000d0 61 50 13 be d4 df 4d be 3b cb a4 bd 5b fb 69 bd
       -0.14386131 -0.20104915 -0.08046576 -0.057124477
0000e0 69 1e 9f 3d 16 38 52 bd 69 7b 47 be db a7 d9 3d
       0.07769472 -0.05132302 -0.19480671 0.10627719
0000f0 29 5e 31 3c 99 ed 01 be f5 9d 82 bd 7b 1b 25 be
       0.010825672 -0.12688293 -0.06377784 -0.16123764
000100 a1 76 18 3c 6d b3 08 be ee fe 56 be 4b a1 ff 3d
       0.009305627 -0.13349696 -0.20995685 0.12481936
000110 cf 45 28 be 6e 2d 48 be 64 22 4c be 3b c2 19 be
       -0.1643288 -0.1954858 -0.19934994 -0.150155
000120 a1 6f 89 be 27 94 bd bd 5d 61 66 be bd a1 8b 3d
       -0.2684298 -0.092567734 -0.22498079 0.068179585
000130 18 66 ed 3c d5 8d d4 3d 55 20 06 bd 3b e2 d2 b9
       0.028979346 0.10378615 -0.032745678 -0.00040222876
000140 48 59 fe bd 9c 84 3d be 13 f9 93 be 6b 12 9d be
       -0.12419373 -0.18507618 -0.28900966 -0.30678114
000150 6f c2 de 3d ce 30 2f be ff 43 c7 bc 4f 1d 1d 3d
       0.10876929 -0.17108461 -0.024324415 0.03835803
000160 b2 c3 8a be 06 27 0a 3c 93 83 6a 3c ba 67 f8 3c
       -0.2710243 0.0084321555 0.014313596 0.030322898
000170 5d d7 47 be 25 7e e3 3d c8 7c 44 be 1e 1a d5 bd
       -0.19515748 0.111080445 -0.19188225 -0.10405372
000180 d2 91 8b 3d e0 9a 32 be 96 af 0d 3e f3 ed 2e 3d
       0.068149224 -0.17441893 0.13836512 0.042707395
000190 b1 a7 79 3d 81 0a 0b be f6 d8 f9 bd 60 47 94 3d
       0.06095094 -0.13578226 -0.12199585 0.07240176
0001a0 67 4a 50 be b4 1b d9 3d 8d 9a cf 3d 10 5f c0 bd
       -0.20340882 0.10600987 0.101369 -0.09393132
0001b0 bc 70 22 bc ca 4c a6 bd 27 f4 12 be 83 04 70 be
       -0.009914573 -0.08120115 -0.14350949 -0.23439221
0001c0 c9 85 f3 bd 0a f0 5b be 5f c4 dd bd fb 1f e1 3a
       -0.11890752 -0.21478286 -0.108284704 0.0017175669
0001d0 af b5 cb 3d 97 58 8f be f6 f3 ae be 73 f4 95 3d
       0.09946763 -0.27997276 -0.34170502 0.073220156
0001e0 48 7a b1 bd 68 95 53 3a 82 7b b1 3d ab 5d d1 3d
       -0.086659014 0.00080712745 0.08666135 0.10222944
0001f0 b7 54 4f 3d 34 8d 86 3d 14 8a f9 bc 06 bc 63 3c
       0.0506179 0.06569901 -0.030461349 0.013899809
000200 53 14 6b bd dd 57 93 be 3a 44 55 be 18 63 65 3c
       -0.05739243 -0.28777972 -0.20826808 0.014000677
000210 2d 2b 7b be ce 08 d6 3d fd 1f 94 3d af e6 6a 3d
       -0.24528189 0.10450898 0.07232664 0.057348903
000220 24 44 89 3c 84 ff da 3c e8 73 3d 3d d5 02 3e 3e
       0.016756125 0.026733167 0.046253115 0.18555768
000230 07 6e 02 be 6b 76 c9 bd d3 25 09 3d a2 10 bf bc
       -0.12737285 -0.098370396 0.033483338 -0.02332336
000240 ae ab 38 3d aa 11 0d be 0f 24 b7 bd a9 ec e6 bd
       0.0450856 -0.1377627 -0.089424245 -0.11275608
000250 a2 76 49 3d 01 0e 44 3e e7 27 64 bc be a7 e1 3d
       0.049185403 0.19145967 -0.013925529 0.110183224
000260 f6 07 3b 3e af 01 4b be 34 0b cb 3d 20 a8 4e bd
       0.18264756 -0.19824861 0.09914246 -0.050453305
000270 f2 98 6c 3e c1 45 89 3c d7 fb d0 bd 2c 91 57 3e
       0.23105219 0.016756894 -0.10204285 0.21051472
000280 84 3a ee bd 10 b7 8b 3d ba 46 cd bd 62 1b b7 bd
       -0.11632255 0.06822026 -0.10023256 -0.0894077
000290 fe e5 fd bd a3 02 22 3e 78 10 22 bd c9 b8 53 bd
       -0.12397383 0.15821318 -0.039566487 -0.051689897
0002a0 5f 0b e2 bb e5 bb cf 3d 54 ec b3 bc 7e cb 5a be
       -0.006898328 0.1014326 -0.021963276 -0.21366689
0002b0 55 e8 4c be cc 0d 93 be 4d 3e 98 be 62 70 1c be
       -0.20010503 -0.28721464 -0.29735032 -0.15277246
0002c0 64 a7 39 bd 22 f0 1e 3e 0e f6 3e be 63 ad f5 bd
       -0.04532565 0.15521291 -0.1864855 -0.119959615
0002d0 4c c0 0c be 62 a9 ba 3b be bc a3 3d 79 7e ea 3c
       -0.1374523 0.0056964615 0.07994984 0.02862476
0002e0 b8 6c 38 3e 63 bc 2f be 9c db 6f be 67 96 3c be
       0.18010223 -0.17161708 -0.23423618 -0.18416749
0002f0 ef 59 23 bd 0c 1f c6 3d a3 3c 1f 3e 1d 9c ff bb
       -0.03988069 0.096738905 0.15550475 -0.0078005926
000300 fc 54 b2 bd 1e 1c 61 be c8 da ec 3d cc b0 68 be
       -0.08707616 -0.21983382 0.11565167 -0.22723693
000310 d1 45 55 be f9 28 bd 3c 03 f7 21 3e 43 0f 42 bc
       -0.20827414 0.023090826 0.15816884 -0.011844459
000320 7a ca 25 bd 99 6a 10 be 55 0c b9 bd 46 81 1d be
       -0.0404763 -0.14103164 -0.09035555 -0.15381345
000330 ec f8 ff 3d 91 6a d6 3d a7 2f 35 be 1e 95 14 3b
       0.1249865 0.10469545 -0.17693959 0.0022671889
000340 d6 93 89 bc 74 b5 f7 bd e0 81 27 3c 0b 35 e0 bb
       -0.016794126 -0.12095156 0.010223836 -0.0068422607
000350 5b 44 58 3e 36 39 a7 bd b6 ed 67 bd d9 6d 2c be
       0.21119826 -0.08165209 -0.056623183 -0.16838779
000360 3a 7a 85 3d 92 84 4c 3d 8d a8 a9 bd 02 37 d9 bd
       0.065174535 0.049931116 -0.08284102 -0.10606195
000370 01 e6 fc bd 0d 5a f7 3d ef 67 ba 3d 1b 6e f9 bd
       -0.12348557 0.12077723 0.09101855 -0.12179204
000380 fa d1 71 bc 72 6a 94 be 0b c8 04 3e 8f 7a ac bd
       -0.014759535 -0.2898746 0.12966935 -0.08421814
000390 47 56 6d bd 02 3d 6f be 5a 5d 0e 3e b6 d8 57 3e
       -0.05794361 -0.23363116 0.13902798 0.21078762
0003a0 71 53 4f be e2 d6 16 be bf bf f0 3c c6 25 fd 3d
       -0.20246674 -0.14730409 0.029388307 0.1236072
0003b0 74 cc 46 be 0e 76 14 3d 23 8c 63 bc ca 36 98 3d
       -0.1941393 0.0362454 -0.013888392 0.07432325
0003c0 f3 f0 d4 bb 88 e6 6e be 72 27 a1 3d 9a 3e 3a bc
       -0.00649845 -0.23330128 0.07868852 -0.011367464
0003d0 61 95 08 be 20 8c 3d 3e 49 8c 50 bd 98 28 81 be
       -0.13338234 0.18510485 -0.050915036 -0.25226283
0003e0 0b 4c cc bd 52 4b b4 bd 39 92 12 be 2a 20 a7 be
       -0.099754415 -0.08803429 -0.14313592 -0.32641727
0003f0 59 41 5f 3d c9 c6 27 3e 07 41 38 be 2d d7 c4 3d
       0.05450568 0.16384424 -0.17993556 0.09611354

fc2.weight f4 [256, 256]
000000 d3 00 43 3c 35 ec b2 3d 79 ef 0a be c9 d9 ba 3b
       0.011902052 0.08736459 -0.13567914 0.0057022315
000010 48 b5 94 3d 04 4b d6 bc ad 4f 5b bb 29 9a 1f 3d
       0.07261139 -0.026158817 -0.0033464239 0.038965378
000020 a3 e5 d0 bc ea 50 3d bc 46 3d 0e bd 25 2c 4d bb
       -0.025500124 -0.011554936 -0.034726404 -0.003130683
000030 13 a5 ab bd 51 d7 03 3d d4 3b 93 3d 46 75 f4 bd
       -0.08381095 0.032187764 0.07189146 -0.11936431
000040 3d 76 27 bd f8 23 76 3d d8 da 41 bd 2d f4 75 bb
       -0.040884245 0.060092896 -0.047327846 -0.0037529573
000050 02 aa ca bc 5b ad 4d 3c eb f3 ac bd 48 2a b9 bc
       -0.02473927 0.012553538 -0.08444961 -0.02260317
000060 34 da 16 be d9 25 c3 3d 05 03 0b bc da 47 7c bd
       -0.14731675 0.09528703 -0.008484607 -0.06159196
000070 70 e7 9e bd e5 a0 ef bd 37 66 e4 bc d9 c9 4f 3d
       -0.07758987 -0.1170061 -0.027880771 0.050729606
000080 21 c0 b7 3d 19 8e 0d 3e ba aa 11 bc a2 49 98 3c
       0.089721926 0.13823737 -0.008890802 0.018589798
000090 0b 8b 38 3d 5e eb 18 3c fd 77 5b bd 56 07 54 bb
       0.045054477 0.00933346 -0.053581227 -0.0032353005
0000a0 6d 2c a3 bd 31 ea e6 3b 17 c6 e4 3c 81 36 3b bb
       -0.07967458 0.0070469608 0.027926488 -0.0028566422
0000b0 cc ae b4 3d 99 b5 26 bb ac 2b 48 bd 12 7b 56 be
       0.08822402 -0.002543783 -0.048869774 -0.20945385
0000c0 83 9a b9 bd 78 5a 04 3d fe a9 06 bd ed 0f 79 bb
       -0.09062674 0.03231284 -0.03287696 -0.0038003877
0000d0 b3 34 2b 3d 82 1b 77 3c 24 08 fe 3c 61 9a 4e 3d
       0.041798305 0.015082242 0.031009741 0.050440196
0000e0 36 fc 81 bd bf ac e5 ba 8d f5 54 3d ab 6c b6 bd
       -0.063469335 -0.0017522796 0.051991988 -0.089074455
0000f0 8a b6 06 3d 4a 1b cc bd 7c cf 8f bd 2e de dd 3c
       0.032888927 -0.099661425 -0.070219964 0.027083483
000100 e1 e2 a3 3d 92 fb 89 3d a9 a6 a2 bd 22 08 7c bd
       0.08002258 0.06737436 -0.07941944 -0.061531194
000110 8a e1 7b bc 76 1e 96 3d bb d1 37 bd 6a d5 c1 3d
       -0.015373597 0.07330029 -0.04487775 0.094645336
000120 d7 22 28 3c f1 3c 71 bd 2f 9d 91 3d 67 6c da bd
       0.010262213 -0.05889601 0.071100585 -0.10665207
000130 11 a9 71 3d 50 15 3c bd eb 26 1c 3d fe f4 c4 bd
       0.058999125 -0.045918763 0.038123053 -0.09617041
000140 0f 07 cc 3c bb 5f 38 3e 21 17 57 bc a9 8a 93 bd
       0.02490571 0.18005268 -0.013128073 -0.07204182
000150 ee 9e 3e 3d 8d 90 26 3d 11 51 dc 3d d1 66 a9 3d
       0.046538286 0.040665198 0.1075765 0.08271564
000160 37 ae ca 3d db 84 14 bd d9 12 cd bd f0 c2 af 3c
       0.0989651 -0.036259513 -0.100133605 0.021455258
000170 de af 44 be 2c a2 28 3d 4e b3 68 bd dd 67 f9 bc
       -0.19207713 0.041170284 -0.056811623 -0.030445034
000180 bb fd 01 3d 82 0e dd bc 68 04 c2 3d 35 a3 9b bb
       0.031736117 -0.026984457 0.09473497 -0.0047496804
000190 1e 81 6e 3d 2e 7e 42 bc 93 53 38 bd fd 4f 23 3e
       0.058228604 -0.011870904 -0.045001578 0.15948482
0001a0 ba 33 8c 3d 4a 71 27 bd 70 8f 5a bc de 5a 63 bd
       0.068458036 -0.040879525 -0.013339862 -0.05550658
0001b0 14 5f f6 bc 4d a5 cf bc fc 2c 53 bc ac b6 64 bd
       -0.030074634 -0.025347376 -0.012889143 -0.055838272
0001c0 f4 b2 0d 3e 2e 15 f6 bb 2f 66 ac 3c 70 2d d9 bd
       0.13837796 -0.007509849 0.021044819 -0.1060437
0001d0 29 2e c2 3c bd 7e c6 bd da b2 2c 3d 2d f5 8b bd
       0.023703652 -0.09692142 0.042162754 -0.06833873
0001e0 2e e9 9d 3c 00 00 4f bd 62 b1 5b 3c 84 d1 24 3d
       0.019276228 -0.05053711 0.013408991 0.040238872
0001f0 d3 25 0f 3d 33 dd 24 3d 2a f4 b9 3d 74 79 af 3d
       0.03494818 0.040250015 0.09079774 0.08568087
000200 e2 01 5d 3d ba c7 36 3d 07 02 b8 3d 1a 8b 65 bd
       0.053956874 0.044624068 0.08984762 -0.05604086
000210 2f 9a 58 3d 2b da 35 bd 35 ec 85 bd 76 2e 96 bd
       0.052881416 -0.044397514 -0.065391935 -0.073330805
000220 55 a0 60 bc bf f9 4a 3c f6 02 7d 3d c1 39 b3 3d
       -0.013710101 0.012388646 0.061770402 0.0875125
000230 88 63 29 3c c5 f6 be bc b2 a9 d9 bc 60 86 98 bc
       0.0103386715 -0.023311028 -0.026570175 -0.018618762
000240 0c ec a6 bd a7 44 ad 3d 4b 06 a6 bd 24 80 0b bc
       -0.08150491 0.0846036 -0.08106669 -0.008514438
000250 4b e5 16 3d 1f 67 10 be b7 4a ad 3d 0e ae 5b 3b
       0.036839765 -0.14101838 0.08461516 0.0033520493
000260 ac ee b5 bd cd c9 da bd 42 bb 29 3c d2 99 a3 bd
       -0.08883414 -0.10683022 0.010359587 -0.07988323
000270 90 68 c7 3c 30 6a 90 3d bc d4 2a bd 02 a4 c6 3d
       0.024341851 0.07051504 -0.041706786 0.09699251
000280 62 c4 89 3c 8c 69 2f 3d e2 cd 09 bd e6 f7 fd 3d
       0.016817275 0.042825267 -0.03364361 0.124007985
000290 9f 02 b7 bd 5f fe d0 3d 79 8b eb bd ca 13 be 3d
       -0.08936047 0.102047674 -0.11501212 0.09281118
0002a0 92 5d ee bd 7d f1 96 bd 4a a7 91 3c ac 52 18 bc
       -0.11638941 -0.07370279 0.017779965 -0.009297054
0002b0 a9 ab 84 bd 9d a2 f8 bc 15 1f 19 3e 2d ce 62 3d
       -0.06478054 -0.030350978 0.14953263 0.055372406
0002c0 33 e5 9d 3d 29 41 1c 3c f6 b5 a5 3d bc 87 a2 3c
       0.07709732 0.00953702 0.08091347 0.019840114
0002d0 e7 10 50 3c fc c5 41 3d 12 7a 8e bd c3 e1 e8 3d
       0.012699342 0.047307953 -0.06956877 0.11371186
0002e0 3d 23 89 bc ac 20 0a 3d d4 7b 53 3d 82 ff 7c 3c
       -0.016740436 0.033722565 0.051631764 0.015441777
0002f0 87 3f d7 3c ae 70 50 be 8f 51 9c 3d 83 1f 36 bd
       0.02627541 -0.20355484 0.076327436 -0.044463646
000300 e1 1c 64 bd bc d6 1f bd d0 aa ac bb 09 36 e5 3a
       -0.055691604 -0.039023146 -0.005269386 0.0017487417
000310 c2 b6 87 3d 79 33 34 bc 79 d7 2b bd f3 d2 78 3d
       0.06626655 -0.0109986 -0.041953538 0.06074805
000320 76 d3 77 3d f4 7d 1d bd 3e 31 e0 3c 8f fc 5c 3c
       0.0605044 -0.038450196 0.02736723 0.013487949
000330 4a 63 e8 bc 39 ff 90 3d 69 5a b8 bb 00 a1 42 bd
       -0.028367657 0.0707993 -0.005626012 -0.047516823
000340 5a 7a c1 3d d5 95 cb bb 7a d1 90 3d 4e 6d 51 3d
       0.09447165 -0.0062129297 0.070712045 0.05112963
000350 de 37 59 3d d6 43 9f bd 97 2f 99 3d b1 0a e7 3c
       0.053031795 -0.077766106 0.0747978 0.02820334
000360 47 c9 07 3d 14 62 85 3d ed 10 da 3a 8a 41 9c bd
       0.033150937 0.065128475 0.0016637124 -0.07629688
000370 9c 27 9a bd 12 be a2 ba 8a 16 4b bc aa d8 78 3c
       -0.07527086 -0.0012416265 -0.01239551 0.0151883755
000380 15 56 17 bd bf 88 01 be 81 82 ad 3b c1 85 dd 3c
       -0.03694733 -0.1264982 0.0052950983 0.027041318
000390 8d f3 10 3d 44 f2 13 bd 22 42 a0 3d 1e 84 50 3d
       0.035388518 -0.036119714 0.07825114 0.050907247
0003a0 11 0c aa bd 52 83 be bd 6a c0 7f 3c a8 35 6b bd
       -0.08303083 -0.09302391 0.01560984 -0.057424217
0003b0 82 f2 ad 3c 17 94 5a 3d ec 2f de bc 96 4f 29 bd
       0.0212338 0.053363886 -0.02712246 -0.041335665
0003c0 aa 09 fc 3c 0e 03 3a bd 64 f8 ec bb ab 77 d0 3b
       0.030766327 -0.04541307 -0.007231759 0.006361922
0003d0 b4 0f eb bb 92 f8 14 bd b9 b0 61 3d d5 2a af bc
       -0.007173503 -0.036369868 0.055100176 -0.021382729
0003e0 8e cd 20 bd dc c5 5d 3d 81 ba 37 3d 33 a7 04 3d
       -0.039258532 0.05414377 0.0448556 0.032386016
0003f0 47 90 bd bc 40 23 39 3d 78 31 e2 bd bb f7 50 3d
       -0.023140086 0.045199633 -0.11044592 0.051017504

fc2.bias f4 [256]
000000 ea 15 a4 3d 48 a9 de 3d 08 0e 00 3e 19 a8 c3 3d
       0.08011992 0.108721316 0.12505352 0.095535465
000010 dc 4c 15 3d c8 68 e4 3c fe a6 c1 3d ff 99 84 3c
       0.036450252 0.027881995 0.09455679 0.016186712
000020 69 2e 46 3d db 1a 30 3d fa 3c b1 3c 08 2b 39 3e
       0.048384104 0.04299436 0.021635521 0.18082821
000030 79 79 f5 3d c5 cf f8 3d f0 34 c8 bb 61 b2 03 3c
       0.1198606 0.12149004 -0.0061098263 0.008038134
000040 e9 05 fe 3d 3e b0 2b 3d 2f e0 94 3d 57 8f 96 3d
       0.12403471 0.041916125 0.07269322 0.07351559
000050 00 1d 8a 3d 37 18 bb 3d ca 80 8d 3d 28 58 43 3e
       0.067438126 0.09135478 0.0690933 0.19076598
000060 6a 40 08 3e 93 bd 88 3d 19 23 ee bb d3 b2 4e bc
       0.13305822 0.066767834 -0.0072673676 -0.012615877
000070 cb 2c 68 3d c3 8c 01 bc 2b 99 58 bc 0e da 01 3d
       0.056683343 -0.007907095 -0.013220112 0.031702094
000080 18 ba 92 3d be c4 0e 3e df 67 cc 3c 5b ea ef 3d
       0.07164401 0.13942239 0.024951873 0.11714622
000090 aa 6c 0b 3e 88 cc 9a 3d 90 74 2d 3d 0b 0f e3 3d
       0.13615671 0.075585425 0.04234749 0.110868536
0000a0 a5 fb bd 3d 33 6f 34 3c 1a da cd 3d 14 5f 99 3d
       0.09276513 0.01101284 0.10051365 0.07488838
0000b0 b0 a3 53 3d 1d ec 2b 3d 68 5d fb bb 20 5d b0 3d
       0.051669776 0.041973222 -0.007671047 0.08611512
0000c0 c2 7b bb 3d e5 fc 6b 3d 7c f0 bc 3d a1 7e 1e 3c
       0.09154464 0.057614226 0.09225556 0.009673745
0000d0 fc 66 51 bc 51 c9 0c 3d 98 f7 e7 3d 3d 65 8b 3d
       -0.012780901 0.034371678 0.11326522 0.06806419
0000e0 66 cc 89 3d d2 1f 51 3d 3e c4 3f 3d de 0e 94 bc
       0.06728439 0.051055737 0.04681801 -0.018073495
0000f0 82 11 4d 3d c4 b8 f0 3d dc eb 25 3d 6a 71 66 3d
       0.050065525 0.11753991 0.040508136 0.056260504
000100 f6 21 59 3d 8f 61 cc 3d 03 82 66 3d 09 e2 fa 3d
       0.053010903 0.09979545 0.056276333 0.12250144
000110 7b 48 ca 3d 3a b9 f0 3d 51 be d4 3d 4c 78 95 3d
       0.09877106 0.11754079 0.103878625 0.072983354
000120 50 d2 fb 3c 81 c9 95 3d 0f bc 0c bd 4f 7a cd 3d
       0.030739933 0.073138244 -0.034359034 0.10033094
000130 41 33 c8 3d 23 98 60 3d ee c2 70 3d 01 f3 78 3d
       0.09775401 0.05483259 0.05877965 0.06077862
000140 f4 9a 14 bd dc 3e 99 3d cc 1d 8c bd 8e 47 a6 39
       -0.036280587 0.074826926 -0.06841621 0.000317153
000150 1d 7e a1 3d 90 62 d2 3d 98 39 be 3c 50 65 40 3d
       0.07885382 0.102727056 0.023220822 0.04697162
000160 1e c5 a7 3d b3 5e 4c 3c b3 3f 11 3d 32 5c de 3d
       0.08191894 0.01247375 0.03546114 0.108574286
000170 bf b0 86 3c 46 6c ed 3d 95 5f 81 3d f1 3c 9c 3d
       0.016441701 0.11592917 0.06317059 0.07628811
000180 b5 2d ac 3d ef b5 4a 3d b4 48 be 3d 05 a0 09 3d
       0.084071554 0.04948991 0.09291211 0.033599872
000190 b1 df fc 3d b5 54 b4 3d 08 24 40 3d 0c d4 87 3c
       0.12347353 0.08805219 0.046909362 0.016580604
0001a0 de 25 cd 3d 44 1e 8e ba 5e 3f 66 3c 3c 73 37 3c
       0.10016988 -0.001084276 0.014053194 0.011196908
0001b0 4f de a3 3d 98 72 78 bd 1b 67 cc 3d 9d a6 cd 3d
       0.080013864 -0.06065616 0.09980603 0.100415446
0001c0 0a bb d7 3d e1 e9 86 bc 45 2d 65 bc 98 8a f0 3d
       0.10533722 -0.016468944 -0.013987844 0.11745185
0001d0 8f 2a fb 3d 70 95 a8 3c db bc af 3d 41 33 fb 3d
       0.12263977 0.02057907 0.08580943 0.12265635
0001e0 c8 33 07 3e 87 11 85 3d ab 43 e7 3d 67 01 20 3d
       0.13203347 0.06497484 0.112922035 0.039063837
0001f0 72 52 43 3d b8 b2 d9 3c f3 a2 d9 3a 5a 89 cc 3d
       0.047686048 0.026574478 0.0016604349 0.09987135
000200 6d 3d a3 3b 5d 22 2f 3d f7 95 53 3a 6a 84 c6 3d
       0.0049816878 0.04275738 0.0008071358 0.09693225
000210 fd 40 0f 3d ac 51 24 bd 11 14 02 3c 35 43 aa 3d
       0.034974087 -0.04011695 0.0079393545 0.083136
000220 2c 7d c9 3d 49 04 05 3e bf bb f0 3d a7 32 94 3c
       0.09838328 0.12989916 0.1175456 0.01809056
000230 a9 66 52 3d 7f 9b 89 3b 5e 9f e3 3c 9f a9 4a 3d
       0.051367436 0.004199445 0.027785953 0.04947817
000240 c1 d0 ad 3d f9 d2 d0 3d d3 a9 c8 3d 64 0f 03 3b
       0.08487082 0.1019649 0.097980164 0.0019998187
000250 d1 71 c6 3d 64 07 1c 3e 49 40 f6 3d 6f 1f 37 3d
       0.096896775 0.15237194 0.1202398 0.04470771
000260 22 05 0c 3d c5 57 a5 bc 58 94 9a 3d 02 56 0e 3e
       0.034184583 -0.020183453 0.075478256 0.13899997
000270 0c d7 98 3d 01 70 da 3d 37 27 fb 3d bb 30 8a 3d
       0.07462892 0.10665894 0.12263339 0.06747576
000280 13 60 22 3e c1 33 e6 3d 20 6d 34 3d 8b 6e 81 3d
       0.15856962 0.1124034 0.044049382 0.063199125
000290 a9 75 1f bc f4 eb 35 3d ae 8e 1e 3e 0f 91 9a 3d
       -0.009732642 0.044414476 0.15484115 0.07547199
0002a0 85 98 f0 3d 20 cc 3f 3e 2c 28 9d 3d 07 b0 33 3d
       0.11747841 0.18730211 0.07673678 0.043869045
0002b0 f0 b3 61 3d 79 91 08 3d 32 ce 91 bc 17 ec 81 3c
       0.055103242 0.03334186 -0.017798517 0.015859647
0002c0 9d 83 b6 3c de f6 01 3d ef a0 26 3e 06 81 a1 3c
       0.022279555 0.03172957 0.16272329 0.019714843
0002d0 7e 78 2b 3d 44 f7 e0 3d 55 88 0b 3e 62 50 8c 3d
       0.041862957 0.10984662 0.13626225 0.06851269
0002e0 56 bb fe 3d ae 51 68 3d 4a b6 5e b8 df 2d 5f 3d
       0.12438075 0.05671852 -5.3098694e-05 0.054487105
0002f0 57 78 ac 3d 45 01 41 3d 54 ea e7 3b 79 31 73 3d
       0.084213905 0.04712035 0.0070774946 0.059373353
000300 30 f0 f2 3c d5 de fa 3c 68 84 ca 3d 19 6b 57 3d
       0.029655546 0.030623833 0.09888536 0.05259237
000310 ed af 35 3e 6c b4 8e 3d 20 a3 8b 3d b3 25 44 3e
       0.17742892 0.069680065 0.06818223 0.19155006
000320 35 15 79 3d 01 14 c8 3d f8 50 a9 3c 6b 33 cd 3d
       0.06081124 0.097694404 0.020668492 0.10019573
000330 98 79 ab 3d eb e8 aa 3d 55 b9 2c 3d a9 b1 e4 3c
       0.083728015 0.08345207 0.042168934 0.027916746
000340 8b 30 8c 3d 50 24 5d 3d 97 fa dd 3d b4 df 88 3c
       0.06845196 0.05398971 0.10838812 0.016708232
000350 a7 09 1b 3d 00 0d 99 3d 41 58 b7 3d 71 c8 39 3c
       0.037851002 0.07473183 0.0895238 0.011339293
000360 38 4c b1 3d 6a 89 0b 3c db dd b3 3d d1 92 9f 3c
       0.08657116 0.008516649 0.0878255 0.019479187
000370 34 fe 51 3d 8d cf 60 3d b6 67 d4 3d f3 34 da 3d
       0.051267818 0.054885436 0.10371344 0.106546305
000380 b6 dc 55 3c 14 76 ee 3d 53 c5 ca 3d dc 60 73 3d
       0.01305311 0.11643615 0.09900918 0.059418544
000390 44 f5 86 3d 90 54 bd 3d 01 c6 dd 3d 91 4c d2 3d
       0.065897495 0.09244645 0.10828782 0.1026851
0003a0 8f 99 f0 3d 82 48 6f 3d e2 45 e0 3d 8d a8 a7 3d
       0.11748039 0.05841876 0.10950829 0.081864454
0003b0 26 c0 2f 3d 52 ad b7 3d de d6 f7 3d 45 56 f2 3d
       0.042907856 0.08968605 0.121015295 0.11832861
0003c0 15 6d 80 3c d6 d0 4b 3c d1 f4 87 3d b7 e4 9a 3d
       0.015677014 0.012439927 0.06638492 0.07563155
0003d0 a8 f4 bd 3d c7 4e f3 3c e7 55 cf 3d 0d c2 bf 3d
       0.0927518 0.02970065 0.101238064 0.09363184
0003e0 c1 80 a2 3d 24 da 93 3d 8e ef 3d 3c 30 4c 04 3e
       0.07934714 0.072193414 0.011592759 0.12919688
0003f0 c1 3a e4 bc 28 98 5d 3d 8a bc e4 3d 31 e7 d9 3d
       -0.027860047 0.054100186 0.111687735 0.106397994

fc3.weight f4 [2, 256]
000000 34 4c d0 3d 58 ad 28 3e ee a8 15 3e a5 5f 4d be
       0.101707846 0.16472375 0.14615223 -0.20056017
000010 f7 e7 77 be b4 d6 f9 bd 93 9c 30 3e b4 f8 7c 3e
       -0.24209581 -0.121991545 0.17247228 0.24704248
000020 53 12 2a be f4 19 04 3e f7 10 1a be 30 a6 01 be
       -0.16608553 0.12900525 -0.15045534 -0.12661052
000030 7c ef 2b 3e 15 24 cb bd 2f 96 f6 bd d7 66 cb bd
       0.16790575 -0.099189915 -0.12040364 -0.099317245
000040 4b 9f 90 3e a3 60 48 3e 14 50 6e be f8 b8 51 be
       0.2824653 0.19568114 -0.23272735 -0.20480716
000050 89 7e e1 bd 77 9f 2f be 0e b8 61 3d 61 0a 39 3c
       -0.11010463 -0.17150675 0.05510717 0.011293978
000060 83 0c 25 3e fa 3d d3 bb bc 04 90 3c dc 42 7c be
       0.16118054 -0.006446597 0.017580383 -0.2463488
000070 76 31 48 be eb 4b 05 3d b9 5c 7e be 93 56 a2 be
       -0.19550118 0.032543104 -0.24840058 -0.31706676
000080 9b bc 0c be 0a 35 b6 3c b8 a0 c7 bd 26 c7 3e 3e
       -0.13743822 0.022242088 -0.097474515 0.18630657
000090 06 31 bc 3d 18 03 b9 bd ff c1 01 3e fd 27 dc bc
       0.09189038 -0.09033793 0.1267166 -0.026874537
0000a0 84 26 75 3e f3 1d 88 be 7c 25 1c 3e c4 13 b1 3d
       0.23940474 -0.2658535 0.15248674 0.08646348
0000b0 97 f6 9e 3d 48 a8 ff 3d cd 3b 69 3e 9f c6 eb 3d
       0.07761877 0.12483269 0.22776718 0.11512493
0000c0 89 bd ba 3d a7 d4 1a be d8 bb 33 3e ee a9 2d be
       0.09118182 -0.15120183 0.17552125 -0.16959354
0000d0 75 55 8d 3d b5 78 ae 3c a6 28 85 3d 8a 09 4e bc
       0.06901065 0.021297792 0.06501894 -0.0125755165
0000e0 07 3e 05 be 35 89 ea bd 56 ab 0b be de d4 85 be
       -0.13011943 -0.114519514 -0.13639578 -0.26138967
0000f0 7f d5 d9 3d 78 9c 81 3e 26 91 82 3e f0 fd 79 be
       0.10636424 0.2531469 0.25501364 -0.24413276
000100 89 c3 6e be 3b 87 90 3d ed 3b 9d be 66 37 1e 3e
       -0.23316778 0.07057043 -0.30709782 0.1545082
000110 5a d0 21 be ba 24 98 3e ed ca 8e be f0 ef d9 3d
       -0.15802136 0.2971552 -0.27889195 0.106414676
000120 e6 84 49 be 45 7b 71 be 74 cf b6 be fd 15 9a bd
       -0.19679603 -0.2358218 -0.3570515 -0.07523725
000130 bf 8a 44 be 92 54 bb bb 59 c0 02 be dc 8d f0 bd
       -0.19193552 -0.0057168687 -0.12768687 -0.117458075
000140 70 56 42 3e c7 46 42 3d 36 2c 63 3e b0 82 b7 bc
       0.18978286 0.04743078 0.22184834 -0.022401184
000150 71 2d 9d 3d 70 5a 21 be f3 0c 3d bd 7a 53 02 bd
       0.07674683 -0.15757155 -0.046154927 -0.03181789
000160 55 95 8f be 95 82 aa bd d1 6b 24 3e ca fd 86 3e
       -0.2804362 -0.08325688 0.16056754 0.263655
000170 b7 91 7c be 57 f3 dd bd ca be ba 3e 1d f2 b8 3d
       -0.24664961 -0.10837429 0.36473686 0.090305544
000180 98 97 b3 3e 69 86 12 bd d8 52 05 be 83 86 78 bd
       0.35076594 -0.035772715 -0.13019884 -0.060675155
000190 65 be 9f bd 27 a3 88 3e 85 0d 92 bd 26 08 12 3d
       -0.07799987 0.26686975 -0.07131485 0.035652302
0001a0 9e d6 17 3e 6e b3 84 be a0 d2 12 3e cf cf 26 be
       0.14827964 -0.25918144 0.1433816 -0.1629021
0001b0 0f 8c 35 3e c6 26 8f be 52 ec 94 3e 71 0b 0c 3d
       0.1772921 -0.2795927 0.29086548 0.0341906
0001c0 e9 fe 02 bd 98 f4 4b 3e 62 21 90 3e b1 85 bd bd
       -0.031981383 0.19917524 0.2815047 -0.09254015
0001d0 48 08 6d 3e 79 81 ba be 2a 17 a4 be 61 09 f3 bb
       0.2314769 -0.36426905 -0.32048923 -0.0074168895
0001e0 a5 90 69 3e ca 6d 70 bd 2c be 84 3e 65 6b 6d bc
       0.22809084 -0.058698453 0.2592634 -0.014490937
0001f0 bb 45 4f 3e 94 74 87 3e b2 ec 04 be a9 e9 a9 bd
       0.20241444 0.2645613 -0.12980917 -0.0829652
000200 e8 3e 86 3e cd f0 96 bd 5a 84 2d be 52 7c 6c be
       0.2621987 -0.07370148 -0.1694502 -0.230943
000210 f3 6e 75 be 50 62 43 3e c1 fe 86 3d 2f 5b 74 be
       -0.23968105 0.19080472 0.06591559 -0.23862909
000220 a6 e1 d3 bd 02 ab cb 3d d1 90 22 3e 8a a4 0f bd
       -0.103457734 0.099447265 0.15875556 -0.035069026
000230 52 e2 3d 3e f1 2c 25 be ed 8f 7d bd 6d f5 23 3c
       0.18543366 -0.16130425 -0.061904836 0.010007245
000240 b5 66 30 be 87 51 86 3e 67 95 7a 3d d3 b3 bb be
       -0.1722668 0.26234075 0.061177637 -0.36660632
000250 b2 e8 c1 bd de b0 88 3b 6e 81 1c 3e 94 15 0d bd
       -0.09468211 0.004171475 0.15283749 -0.034444407
000260 83 7c 36 3e 27 87 b9 3d 55 59 01 3e 96 43 92 3e
       0.17820935 0.090589814 0.12631734 0.2856719
000270 94 fe 85 be b5 6f 2b 3e 47 5e dd bc c2 75 25 3e
       -0.2617079 0.16741832 -0.027022494 0.16158202
000280 74 af 36 bc 2f 4b 64 be 98 f6 6e be 53 e5 c4 b9
       -0.01115023 -0.22294305 -0.23336256 -0.00037554893
000290 e3 15 03 bd b0 90 f9 3d 0a 7a 6f be 0a 13 87 be
       -0.032003295 0.121858 -0.23386398 -0.26381713
0002a0 a5 91 f7 bd 38 e3 27 bd cd 9a cd 3c 3e 8f 99 be
       -0.12088326 -0.040988177 0.025098229 -0.29992098
0002b0 ac 7c 46 be ee 71 4b 3e 49 d1 31 3d 80 c9 36 3e
       -0.19383496 0.1986768 0.04341248 0.17850304
0002c0 cd 9a 96 bd ba 27 64 bd fc 28 48 bd 68 3a 0b be
       -0.07353745 -0.05570195 -0.04886721 -0.13596499
0002d0 f5 86 ee bc 8b ad 34 3e b1 79 64 be 5b c9 34 3e
       -0.029117087 0.17644326 -0.22312047 0.17654936
0002e0 2c 58 10 bc 22 b9 20 be df 56 50 be c6 0f 59 3e
       -0.008810084 -0.15695623 -0.20345639 0.21197423
0002f0 93 36 4e be f4 7e b2 3c 9e ba 8b bd 57 86 c1 ba
       -0.20138006 0.021789052 -0.06822704 -0.0014764768
000300 70 38 77 3c f6 1a 22 bd ff 70 41 3e 9f b5 7f 3e
       0.015089139 -0.039576493 0.18890761 0.24971627
000310 26 c6 44 3c 49 9a 50 be c1 d1 f1 3d 32 08 8a be
       0.012010133 -0.20371355 0.118075855 -0.26959378
000320 c0 11 7a be 87 c9 b7 3d dc ee d6 3d cb a5 7f 3e
       -0.24420834 0.08973985 0.104947776 0.24965589
000330 94 2c 41 3e bf f6 f6 bb 33 bc 70 be 2d 1d 9f 3e
       0.18864661 -0.0075367386 -0.23509292 0.31076947
000340 bb 5b 21 3e 33 62 76 be 37 bd f9 3d 88 09 f9 bd
       0.15757649 -0.24060898 0.12194293 -0.12160021
000350 9f 1f 8f 3d e0 ae f9 3c d4 a1 5b 3c b9 60 2b 3d
       0.06988453 0.030478895 0.013405282 0.04184029
000360 19 36 6a bd ec 81 a8 3d fc f3 07 be 03 c2 47 be
       -0.057180498 0.08227906 -0.13276666 -0.19507603
000370 04 31 0d be d3 9a 8e 3e bd 8d 2f 3e 9c 8d 87 be
       -0.13788229 0.27852497 0.17143913 -0.26475227
000380 fe 39 0e bd 18 32 03 3e 14 f2 46 be 24 37 20 be
       -0.034723274 0.12812078 -0.19428283 -0.15646034
000390 33 b0 82 be 29 4e 89 3e dc 03 72 be 9b 28 40 be
       -0.25525054 0.26817444 -0.23634285 -0.1876549
0003a0 df 34 11 3d 6b 59 7e 3e 35 08 ac 3e 73 22 c5 3d
       0.035450812 0.24838798 0.3360001 0.09625711
0003b0 31 37 04 be 45 29 30 3e db d0 fa 3c d3 ad 88 be
       -0.12911679 0.17203243 0.030617168 -0.26695117
0003c0 61 06 53 be fa 8a 21 be 77 d1 01 be 73 1c 21 be
       -0.20607902 -0.15775672 -0.12677561 -0.15733509
0003d0 95 a0 e8 bc 9d dc a5 3d 98 e5 9c bc 88 cb 98 bd
       -0.028396884 0.08098719 -0.019152448 -0.074606955
0003e0 57 ff 45 be 51 23 46 be c4 55 0f 3e cb f9 2d 3b
       -0.19335686 -0.1934941 0.1399756 0.0026546593
0003f0 7a 5f 22 be 93 55 57 be 03 aa 71 be 9b 06 80 3e
       -0.15856734 -0.21028738 -0.2360001 0.2500504

fc3.bias f4 [2]
000000 98 ae fa 3b 2d e5 8a bd
       0.0076502077 -0.06781993

bn.weight f4 [256]
000000 7a d6 87 3f e1 30 18 3f 92 58 34 3f e1 1f 86 3f
       1.0612328 0.59449583 0.7044765 1.0478479
000010 da 09 41 3f 2c e9 c4 3e d1 5b 84 3f 0e f3 5f 3e
       0.7540566 0.38459146 1.034052 0.21870062
000020 e8 fb 09 3f ee 63 84 3f 78 4b f3 3e 88 09 0e 3f
       0.53900003 1.0342996 0.47518516 0.55483294
000030 24 5f ac 3e 99 7b d5 3e 27 6b 19 3f 81 9c e1 3e
       0.33666337 0.4169586 0.59929127 0.44064716
000040 fa 7d 19 3f 20 19 26 3f e9 21 89 3e 11 f9 83 3e
       0.5995785 0.6488209 0.26783684 0.2577596
000050 0f 29 f4 3e b6 7b 16 3f ec b4 a8 3e 92 a4 6d 3f
       0.47687575 0.5878252 0.32950532 0.9282924
000060 8a 01 65 3f 6e 14 b0 3e 72 c2 6a 3f d6 11 70 3f
       0.89455473 0.34390587 0.9170295 0.93777215
000070 40 95 4a 3f 81 22 bf 3e f6 54 4e 3f 46 a1 83 3e
       0.7913399 0.37331012 0.8059839 0.2570898
000080 da 5b 1a 3f 60 7e a3 3e 30 9c 87 3f a1 69 8a 3f
       0.60296404 0.31932354 1.059454 1.0813485
000090 5f 07 84 3f 1f c1 51 3f 83 48 08 3f c9 44 34 3e
       1.031475 0.81935304 0.53235644 0.17604364
0000a0 5c f7 db 3e 6f f8 8a 3e 15 9c 7e 3f f1 be 46 3e
       0.42962158 0.27142665 0.9945691 0.19408776
0000b0 0b fb 7b 3f f8 32 56 3f a9 30 f3 3e 3f 06 78 3e
       0.98429936 0.8367152 0.47498062 0.24221133
0000c0 af 9c b1 3e 8f a8 50 3f 38 fe d8 3e ca 52 20 3f
       0.34689853 0.815072 0.42381454 0.62626326
0000d0 5d a8 73 3f 03 9f 87 3f a6 8c 53 3f 95 32 00 3f
       0.95178777 1.0595402 0.8263649 0.5007718
0000e0 6b 07 08 3f 73 f9 43 3f c7 54 46 3f 98 ce 90 3e
       0.5313632 0.76552504 0.7747311 0.2828262
0000f0 6e a1 41 3f a1 b1 2b 3f 2f d3 a6 3e 71 c2 80 3e
       0.7563695 0.67067915 0.32582995 0.25148347
000100 d6 c8 6e 3f 95 e8 00 3f bf fb b8 3e 22 57 31 3f
       0.932752 0.5035489 0.36129567 0.6927358
000110 cc 45 47 3f 65 a7 30 3e d5 c2 7e 3f b5 e3 05 3f
       0.77840877 0.17251356 0.9951604 0.5230058
000120 f9 a0 66 3f a3 d9 79 3f 31 bc de 3e 87 ca f8 3e
       0.90089375 0.9759771 0.43502954 0.48592016
000130 02 88 48 3f 3f b9 04 3f 34 37 3f 3f 88 43 b4 3e
       0.7833253 0.51845163 0.7469361 0.35207772
000140 8a 3c 69 3e ca fa 05 3f b0 2d c6 3e 1e 21 db 3e
       0.22777 0.523358 0.38706732 0.42798704
000150 c2 5a 6c 3f d4 32 19 3f ef 44 3b 3f a9 fb 64 3e
       0.92325985 0.5984318 0.7315206 0.22361626
000160 09 35 a5 3e 84 6a 26 3f 2e f6 e1 3e ff 62 60 3f
       0.32267025 0.6500628 0.44133133 0.87651056
000170 f8 ec 91 3e 0c 5a 6c 3e b1 d9 c4 3e e1 cf 1c 3f
       0.28501105 0.23081225 0.38447335 0.612547
000180 58 65 e3 3e a5 d6 46 3f 7b f8 68 3f 33 d4 8c 3e
       0.44413257 0.7767127 0.9100415 0.27505645
000190 a4 5e 83 3f 8a 8d 76 3f 72 de 02 3f e8 90 d2 3e
       1.0263257 0.9630972 0.51120675 0.4112618
0001a0 1e 24 13 3f 26 fe bf 3e 26 44 2b 3f 1a b6 74 3f
       0.57476985 0.37498587 0.6690086 0.95590365
0001b0 81 32 7f 3f c9 9f 82 3f e0 bd 02 3f b3 9d 54 3f
       0.9968644 1.0205013 0.51070976 0.8305313
0001c0 e7 13 82 3e ef e5 cf 3e 47 fa 88 3f 58 8a c6 3e
       0.2540581 0.40605113 1.0701379 0.38777423
0001d0 94 9c cf 3e e8 02 ec 3e d6 0d 7b 3f 81 c8 88 3f
       0.40549147 0.46095967 0.98067987 1.0686189
0001e0 72 ed 74 3f 08 9a 4c 3f 92 81 87 3f ac 31 88 3f
       0.9567481 0.79922533 1.0586417 1.0640159
0001f0 bf a7 f3 3e f0 8c 5a 3f 26 99 8d 3f c7 2b 6a 3f
       0.47588918 0.85371304 1.1062362 0.9147305
000200 d4 cc ad 3e 30 ef b0 3e 04 3a b6 3e 3e f8 19 3f
       0.33945334 0.34557486 0.35591137 0.6014441
000210 9e 65 83 3f 69 7a 6a 3f b2 88 34 3f dd 54 46 3f
       1.0265386 0.91593033 0.7052108 0.7747324
000220 a6 d5 78 3f b2 94 87 3f 84 2a 8c 3e 8f e7 5d 3f
       0.97201 1.0592253 0.27376187 0.86681455
000230 ec 08 5a 3f 36 e8 32 3f 5b 00 5c 3e 61 37 01 3f
       0.85169864 0.69885576 0.2148451 0.50475127
000240 1c 05 e9 3e 4a bd c5 3e 12 04 b4 3e 54 49 28 3f
       0.4551171 0.3862098 0.35159355 0.6573689
000250 97 3d 7d 3f 2b ff 16 3f be cb c1 3e a3 b6 77 3e
       0.98922104 0.58983105 0.37850755 0.24190764
000260 02 2e 83 3e d2 71 9e 3e 50 5f b8 3e ed a9 7a 3e
       0.2562104 0.30946213 0.36010218 0.24478884
000270 4b e0 57 3f 02 de 25 3f 64 27 15 3f 8e c2 1f 3f
       0.8432662 0.6479188 0.5826323 0.6240624
000280 c7 74 f9 3e f8 60 34 3f fa bb a0 3e 2b 22 73 3f
       0.48721907 0.7046046 0.31393415 0.9497401
000290 3c e4 bf 3e 28 44 2f 3f ed 53 2d 3f ea 45 90 3e
       0.37478817 0.68463373 0.67706186 0.2817834
0002a0 4f 22 30 3f bd 17 a6 3e 14 26 2d 3f a6 03 8e 3f
       0.6880235 0.32439986 0.6763623 1.1094863
0002b0 e2 25 1e 3f 4c 99 61 3f 33 16 5a 3f c7 52 97 3f
       0.61776555 0.8812454 0.85190123 1.1822137
0002c0 12 2e 42 3f 30 4c a5 3f 25 c1 79 3f 16 bd 8b 3f
       0.7585155 1.2913876 0.9756034 1.091708
0002d0 02 8f 15 3e b7 af c2 3e 59 1f eb 3e 90 f9 4f 3f
       0.14605334 0.38024685 0.45922354 0.8124018
0002e0 29 01 99 3e f3 2b 58 3f 4d c3 83 3e 81 51 87 3e
       0.29883698 0.8444206 0.2573494 0.2642937
0002f0 f3 25 c2 3e 71 24 db 3e 9e 49 8f 3f 75 39 4c 3e
       0.37919578 0.4280124 1.1194341 0.19943793
000300 c9 1a 75 3f b8 9c 28 3f 96 4a 8c 3f c7 49 64 3f
       0.95743996 0.65864134 1.0960262 0.89175075
000310 a5 34 56 3f 63 e2 a0 3e 82 04 7c 3f 86 1b 6e 3f
       0.8367408 0.3142272 0.9844438 0.9301075
000320 d8 d8 7c be ac 2d 15 3f 15 fd ed 3e 15 d0 27 3f
       -0.24692094 0.58272815 0.4648215 0.65551883
000330 81 0c 82 3f 49 14 6d 3f e9 a1 7a 3f 62 0a 23 3f
       1.0160066 0.9260908 0.97903305 0.6368772
000340 45 27 63 3f 84 ca 4e 3e aa ee 2d 3f 5d 51 37 3f
       0.88731796 0.20194441 0.679423 0.71608526
000350 63 98 87 3f 02 70 85 3f f6 87 5e 3f 85 f0 cc 3e
       1.059338 1.0424807 0.8692621 0.40027252
000360 8e 99 5b 3f 65 8e ee 3e 02 de 1e 3f 1e 3c 07 3f
       0.8578118 0.46593013 0.6205751 0.52826107
000370 ac 49 2e 3f 7e f3 53 3f f4 f9 9a 3e 74 5b 4a 3f
       0.68081164 0.82793415 0.30268824 0.79045796
000380 79 08 58 3f 12 bc 46 3f b9 50 89 3f cc 1e 11 3f
       0.8438793 0.7763072 1.072776 0.5668762
000390 0d 58 3e 3f d2 fb 87 3f 24 a7 3b 3f 85 7c 83 3f
       0.74353105 1.0623724 0.7330191 1.0272375
0003a0 bf 0b 06 3f e1 dd 8d 3f b5 c4 fa 3e d2 94 1e 3f
       0.52361673 1.1083337 0.489782 0.6194583
0003b0 12 95 32 3f f2 c9 87 3e 47 9d f6 3e 5d 71 5b 3f
       0.69758713 0.2652126 0.48166868 0.85719854
0003c0 e3 5e 61 3e 69 f4 01 3f 00 dd 86 3f bb a3 2a 3f
       0.22008853 0.50763565 1.0536194 0.6665608
0003d0 b1 ad 15 3f e2 05 2c 3f 8a 26 d5 3e 71 ca 85 3f
       0.5846816 0.67196476 0.41630965 1.0452405
0003e0 86 94 75 3e ae 0e 67 3f 33 d7 ee 3e 41 3b f6 3e
       0.23982438 0.90256774 0.4664856 0.48092082
0003f0 5b 56 82 3e 55 09 83 3f 2c 1b 6e 3e 02 d1 77 3e
       0.2545651 1.0237223 0.23252553 0.24200824

bn.bias f4 [256]
000000 d5 44 96 ba 46 4f 7c bc 3f a7 2d bd a6 4b d4 bc
       -0.0011464605 -0.01539976 -0.042395826 -0.025914978
000010 6f 16 30 3c 02 7a ab bc f5 c1 47 bc 83 4d 2b 3e
       0.010747536 -0.020932201 -0.012192239 0.16728787
000020 9f 5b fa bc a6 57 fb bc d3 37 2f bd ac af 3d bc
       -0.030561266 -0.030681442 -0.042777847 -0.011577528
000030 de 5b 1d 3e 9b c9 ad bc 46 77 68 3d 32 81 b1 3d
       0.15367076 -0.021214297 0.056754373 0.0866722
000040 3a 73 49 bd 34 0c 95 bd d8 5f fb bd 8a 0f 55 bd
       -0.049182154 -0.07277718 -0.1227414 -0.052016772
000050 ae cd 32 bc f1 41 8c bc d8 26 f7 bd c7 c7 9e bc
       -0.010913296 -0.017121287 -0.12067956 -0.01938237
000060 78 51 68 bc 79 a6 f7 3b 9c 7e 91 bc 47 58 fb 3c
       -0.01417958 0.007557687 -0.017760567 0.030681742
000070 8a 7a 90 bd 92 c3 07 bc 53 7e 91 3d c1 b5 84 bc
       -0.070546225 -0.008286374 0.071041726 -0.016199948
000080 d8 b4 60 3d 05 f7 93 bd 23 ec c5 bc df ba 86 bc
       0.054859966 -0.072248496 -0.02416045 -0.016446529
000090 b4 83 f6 bc 3b 99 79 bc 51 14 09 bd 4a d5 db bd
       -0.030092098 -0.015234287 -0.03346664 -0.10734041
0000a0 b2 14 e0 bb 69 d2 38 bd 50 66 57 3d f3 eb b3 bd
       -0.0068384046 -0.045122538 0.052587807 -0.08785238
0000b0 44 3e 00 bd 95 1f 90 bc 7f bb 76 bd f5 1a 04 3e
       -0.03130938 -0.017593184 -0.060237404 0.12900908
0000c0 1b 11 14 bd 13 e5 36 bb 7b b5 af bd 5a 38 da bc
       -0.036149126 -0.0027907535 -0.085795365 -0.026638199
0000d0 6a 05 8e bc 1c 84 30 bd 6c 51 0b bd a6 a4 15 bc
       -0.017336566 -0.04309474 -0.034013197 -0.0091334935
0000e0 39 e0 b1 bc e6 92 87 bc 21 a2 8f bd e7 5a a2 bd
       -0.021713363 -0.016549539 -0.070133455 -0.079274945
0000f0 44 76 d2 3a c2 f5 f6 bc 20 d5 8b bd 19 1e e3 bb
       0.0016056974 -0.030146483 -0.0682776 -0.006931078
000100 7a 58 00 3d 7c 45 f8 3c 2d f7 d1 bd dd e1 95 3d
       0.031334378 0.03030657 -0.10252223 0.073184706
000110 1f 2c c8 bc 21 02 62 3e e8 de 0b 3d 17 4f 8b bd
       -0.024435101 0.22071125 0.034148127 -0.068021946
000120 1d e5 de bc c9 a8 4d bc 65 60 0b 3d 35 2b 36 bc
       -0.02720886 -0.012552449 0.034027476 -0.0111187
000130 3e a9 83 bc ff 41 66 bd d0 ad d1 bc 41 59 71 3d
       -0.016071912 -0.056215283 -0.025595576 0.05892301
000140 76 1c a9 3d f7 44 09 bd 81 09 2f 3d 13 a5 a6 3c
       0.082573816 -0.033513036 0.042733673 0.020342385
000150 c8 a1 1e bd b0 22 0c 3d c5 2a 9f 3c f1 f8 ed 3b
       -0.038728505 0.034212768 0.019429574 0.007262342
000160 89 ec c7 bc 10 43 c0 bd a9 b9 5d bc 8c a5 90 bc
       -0.024404781 -0.09387791 -0.013533034 -0.017657064
000170 34 96 10 3e b1 0c df bd 16 02 bc bd 33 93 9c bc
       0.14119798 -0.108910926 -0.09180085 -0.019113159
000180 77 45 15 bd f0 a8 23 bd 51 52 20 bc 0f 60 99 bd
       -0.0364432 -0.039956033 -0.009785251 -0.07489025
000190 4a b5 0d bd 38 06 4d bd 2f 94 53 bd d1 df 80 3d
       -0.03459672 -0.05005476 -0.05165499 0.062926896
0001a0 67 2f 46 bc 7d 38 3f bc 97 c7 9c 3d 77 7b d0 bd
       -0.012096263 -0.011671183 0.07655256 -0.10179799
0001b0 3e d6 d2 3c 8d 20 36 bd f2 7b fa bc 52 bf 0b bd
       0.025736924 -0.044464637 -0.03057668 -0.034118004
0001c0 db 5d d3 3d 78 b6 91 3d 80 1b 1e bc a1 ad 21 ba
       0.10320636 0.07114881 -0.009650111 -0.00061675353
0001d0 b9 86 ae bd e9 4e 52 bd 82 fc 76 bd bc 1f 88 3c
       -0.0852179 -0.051344786 -0.060299404 0.016616695
0001e0 c0 3c 48 bc 28 45 5c bc 05 64 68 bd 1a 1c 5b 3d
       -0.012221515 -0.0134442225 -0.05673601 0.053493597
0001f0 55 cc 94 3d 94 82 e5 3c 7a fa 20 3d fa f7 18 bd
       0.07265536 0.028016366 0.039301373 -0.037345864
000200 bb 7b b2 3d 97 50 c6 bd 32 ea 26 bc d8 f4 51 bd
       0.08715006 -0.0968334 -0.010187672 -0.05125889
000210 ee ff 3c bd b7 44 c6 3c 95 0c 80 3d 15 dc 99 bc
       -0.04614251 0.024202688 0.062524 -0.018781701
000220 c4 67 eb 3c c6 83 13 bd 35 8a 0b be f7 b9 5a bd
       0.028736003 -0.03601434 -0.1362694 -0.053400006
000230 8b ec 29 bd c6 92 82 bd 56 e1 b4 3d 84 df 32 bd
       -0.04148535 -0.06375651 0.08832042 -0.043670192
000240 9a 58 a5 3d a3 1d 7c bc a3 c7 9f 3d 04 97 b2 bc
       0.0807354 -0.015387925 0.078017496 -0.021800525
000250 cb fc e9 3c ec 03 02 bd 94 ab e2 bc 91 23 de bd
       0.028562924 -0.03174202 -0.027669705 -0.108466275
000260 6a dc ca bd ac 22 4d bd 5f d7 04 bd 8f 7b 55 3c
       -0.09905322 -0.050081894 -0.032431956 0.013029947
000270 d8 e5 ac bc 48 41 15 3a 4d ce d7 3b a5 7c 1e 3b
       -0.021105692 0.00056936266 0.0065858723 0.002418318
000280 0b 77 50 bd 86 df 66 3d 32 1a 61 be 01 61 35 bd
       -0.05089478 0.056365512 -0.21982649 -0.044281963
000290 34 a8 96 bd ab 5f 53 3c 4c 23 1a bd f4 b5 b3 bd
       -0.07356301 0.012901227 -0.037631318 -0.08774939
0002a0 ff 58 09 bd 0e e7 40 bd 4a 21 ce bc c6 75 36 bd
       -0.03353214 -0.04709535 -0.025162358 -0.04454591
0002b0 8c 50 12 bd 4e 6a d5 bc d2 5c 1a 3c 85 6d 6b bc
       -0.035721347 -0.026051667 0.009421544 -0.014369373
0002c0 bf b6 1f 3d e1 61 37 bd 28 d8 db bc d2 c5 98 bc
       0.03899264 -0.04477108 -0.02683647 -0.018649016
0002d0 b0 e5 df bd e3 aa 80 bd 31 28 84 bd ab 2b 26 bd
       -0.10932481 -0.06282594 -0.064529784 -0.04056899
0002e0 22 0f 8a bc 91 ed 13 bd 90 4e 93 bb c4 22 5b bd
       -0.016852919 -0.036115233 -0.0044954494 -0.053499952
0002f0 04 a0 db bc 97 1b 78 bd 90 00 34 bd 74 f5 08 3e
       -0.0268097 -0.060573187 -0.04394585 0.13374883
000300 6d 20 54 bc d4 86 80 bc 04 6e 27 bd 4a 0a 36 bd
       -0.012947184 -0.015689291 -0.040876403 -0.044443406
000310 48 bc 02 3c a2 52 57 bd 2e 96 79 bd 06 3a 3e bd
       0.00797946 -0.05256904 -0.060934238 -0.046442054
000320 3e 31 5f 3e aa 62 89 bb ee af 76 bd 32 6a 50 3c
       0.21796128 -0.00419267 -0.060226373 0.012720631
000330 99 2b 31 bd 3f 92 d4 ba f2 85 64 bd b8 92 e3 bc
       -0.04325447 -0.0016217901 -0.055791803 -0.027779922
000340 5f a4 2f bc c8 62 68 bc f5 76 8e bb 95 fc 46 3d
       -0.0107203415 -0.014183708 -0.004347677 0.048580725
000350 5e 46 ba 3b 1b b2 8a 3d 5f 26 62 3c 11 42 4a bd
       0.005684658 0.06772252 0.013803094 -0.049379412
000360 68 a9 de bc f4 e7 24 bd fb 2f 7d bd a5 b8 85 3c
       -0.027180389 -0.04026027 -0.061813336 0.016323397
000370 5d a3 05 3d ce 08 2c 3d 4b 93 71 bc ad 60 e7 bc
       0.0326265 0.042000584 -0.01474459 -0.02824434
000380 84 6f 0e ba 59 56 4c 3d d7 e2 d4 bc 39 77 a8 bc
       -0.0005433487 0.049887035 -0.025987072 -0.020564662
000390 8f dd c5 bc b9 58 f3 bc 7b a2 35 bd 67 d9 fe 3c
       -0.024153499 -0.029705392 -0.044344407 0.031109525
0003a0 4b 75 8a 3c c3 93 92 3c e5 6f 27 bd e6 d2 81 3d
       0.016901633 0.017892724 -0.040878195 0.06339054
0003b0 09 74 18 bd bd 8f aa 3d 5b 5a bc bc 73 68 56 bd
       -0.037220035 0.08328197 -0.022992304 -0.052345704
0003c0 9b 56 c9 bd 1f 31 95 bd e4 89 32 3d 97 a8 9e 3c
       -0.09830972 -0.0728476 0.043588534 0.0193675
0003d0 a1 72 38 3c ec 5c 90 3d 0a 97 88 bc cc 3a 86 3b
       0.011257798 0.070489734 -0.016673584 0.0040963646
0003e0 4d 6f 7d bd ea a4 1a bb b1 28 56 3d 7c b9 8b bd
       -0.061873723 -0.0023596832 0.0522849 -0.06822488
0003f0 54 42 34 be d8 3f 54 bc ba ee d7 3d 8d 72 4e 3e
       -0.17603427 -0.012954675 0.1054358 0.20160885
