checkpoint_critic_agent_1.pth (torch_old, 324018 bytes, 9 tensors)

fc1.weight f4 [256, 52]
0	0xbd29740d	-0.04137044
1	0xbe59e26c	-0.2127778
2	0xbb8ba1a7	-0.004261214
3	0xbde11ed5	-0.10992209
4	0xbf105a30	-0.56387615
5	0x3ea1278f	0.31475493
6	0xbc8e2f8c	-0.017356656
7	0xbdd2ea2a	-0.102985695
8	0x3e83b3a3	0.2572299
9	0xbe5b1ab6	-0.21396908
10	0x3b8e484f	0.004342116
11	0xbd5f5646	-0.054525636
12	0xbeb0662d	-0.34452954
13	0x3ed995d6	0.42497128
14	0xbd6eccf2	-0.05830092
15	0xbcc2aec9	-0.023764985
16	0x3f240a57	0.6407828
17	0xbeaef3c1	-0.34170344
18	0x3c6a7eb2	0.014312433
19	0xbe03211f	-0.12805603
20	0xbd41d77e	-0.04732465
21	0x3f0da624	0.55331635
22	0xbd18df3d	-0.03732227
23	0xbe73b7c0	-0.23800564
24	0xbdf254a0	-0.11832547
25	0x3f211488	0.62921953
26	0xbb607cff	-0.003425419
27	0xbef92681	-0.4866219
28	0x3f24156f	0.64095205
29	0x3ea5e58e	0.324017
30	0x3d0e2432	0.034702487
31	0xbefecd64	-0.49766076
32	0xbd9878ed	-0.0744494
33	0x3eeb48ab	0.4595388
34	0xbd5f9c15	-0.05459221
35	0xbefd6c0b	-0.49496493
36	0x3eb93dea	0.3618005
37	0x3ecb7d22	0.39743906
38	0xbded4c79	-0.115868516
39	0xbf05f340	-0.52324295
40	0xbdcdb00e	-0.100433454
41	0x3e0d3e15	0.13793214
42	0xbe3ac3c3	-0.1823874
43	0xbf518c71	-0.8185492
44	0x3e155fcf	0.1458733
45	0x3f07fb7a	0.531181
46	0xbe36eb27	-0.17863141
47	0xbf3f899f	-0.7481937
48	0xbde8cffb	-0.11367794
49	0x3f5b53d3	0.8567478
50	0xc014614f	-2.3184392
51	0x3d0206bc	0.031744704
52	0x3f419ae6	0.7562698
53	0xbf072b2c	-0.5280025
54	0x3cbc7fb8	0.02301012
55	0x3dc7ad9a	0.09749909
56	0x3e00ff83	0.1259747
57	0xbec2dd35	-0.38059393
58	0xba8b3f6b	-0.0010623758
59	0x3dbf8afe	0.093526825
60	0x3efdfdcc	0.49607694
61	0xbf4b99d2	-0.79531586
62	0xbd8ebb72	-0.06969346
63	0x3cfb9c09	0.030714052
64	0x3e599e27	0.21251737
65	0xbec9ce6c	-0.394153
66	0xbd62588a	-0.05526022
67	0x3d797d9d	0.06091081
68	0x3f073c7e	0.5282668
69	0xbf605aae	-0.87638366
70	0xbc69d49f	-0.014271884
71	0xbeaac1dd	-0.3335103
72	0xbd560e98	-0.05226001
73	0xbf4088fd	-0.7520903
74	0xbc5ab45b	-0.013348664
75	0xbebcea22	-0.3689738
76	0x3ebe99e4	0.37226784
77	0xbe0a0264	-0.13477474
78	0xbe81ddf0	-0.25364637
79	0xbdd94de1	-0.10610557
80	0xbe0310ca	-0.12799373
81	0xbee0e508	-0.43924737
82	0xbe85e3ff	-0.2615051
83	0xbdf19d27	-0.117975526
84	0x3e86424b	0.26222453
85	0xbe8c13db	-0.273589
86	0x3d3cbf01	0.046080593
87	0xbf084cba	-0.53242075
88	0xbe6ece9a	-0.23321
89	0xbeb2e2d5	-0.34938684
90	0x3b369776	0.0027861274
91	0xbf0f6cdf	-0.560255
92	0x3d8192f5	0.06326858
93	0xbee3da9b	-0.4450272
94	0xbf04d426	-0.5188621
95	0xbdda108f	-0.106476896
96	0x3d5fe1f2	0.054658838
97	0xbf2c8f86	-0.674065
98	0xbf009904	-0.50233483
99	0xbe0cde0c	-0.13756579
100	0xbde6f278	-0.11276716
101	0x3ee8ff10	0.45507097
102	0x3f30b857	0.6903128
103	0xbf80d046	-1.006356
104	0x3e3a8228	0.18213713
105	0xbe2061b5	-0.15662272
106	0xbc6b4f0a	-0.014362106
107	0x3c944bd7	0.01810257
108	0xbf1b2e5a	-0.606176
109	0xbe2fddf1	-0.17174508
110	0x3c9b3af0	0.018949002
111	0x3d0b8836	0.034065448
112	0xbd5d45e9	-0.05402175
113	0xbe939eb2	-0.28832012
114	0x3ba61362	0.0050682286
115	0x3d696ae4	0.056986704
116	0xc02a5b1f	-2.6618116
117	0xbe723095	-0.23651345
118	0xbbe6ce95	-0.0070436695
119	0x3daf1efe	0.08550833
120	0xbe35b9a6	-0.177466
121	0xbf127e1b	-0.5722367
122	0x3bbe288c	0.0058031734
123	0x3c9cadab	0.01912578
124	0xc019de9b	-2.4042118
125	0x3dc4a76d	0.096022464
126	0x3cc5cdb9	0.024145948
127	0xbb19ead3	-0.0023485913
128	0xbda05597	-0.07828825
129	0x3edfdf59	0.43725088
130	0xbc80c521	-0.015718998
131	0x3d0afd19	0.03393278
132	0x3f1e3613	0.6180126
133	0xbe4555db	-0.19271033
134	0x3c98eac1	0.018666627
135	0x3e0327d5	0.12808163
136	0x3e5dffcd	0.21679612
137	0x3d8c6b7f	0.06856441
138	0x3c3d0dcc	0.011538934
139	0x3da44526	0.080210015
140	0x402d14a6	2.7043853
141	0xbe694d6e	-0.22783443
142	0xbd60631a	-0.05478201
143	0x3c907945	0.01763595
144	0x3d6af1d5	0.057359535
145	0xbec80495	-0.39065996
146	0x3d3899c1	0.045068506
147	0xbe5b4ce0	-0.21416044
148	0x401a792d	2.413646
149	0x3d697cf3	0.057003926
150	0xbc937259	-0.017998861
151	0xbe103be0	-0.1408534
152	0xbefa0786	-0.48833865
153	0x3cd76909	0.026295202
154	0x3f0ac032	0.54199517
155	0xbeddff72	-0.43358952
156	0x3d2d9409	0.042377505
157	0xbe848aaf	-0.25887057
158	0x3d076e1c	0.033063993
159	0xbd81c269	-0.06335909
160	0x3d0d04de	0.03442847
161	0x3d5c79c1	0.05382705
162	0xbbf82c41	-0.007573635
163	0xbd397b85	-0.045283813
164	0x3d975972	0.07390107
165	0xbd303978	-0.043023556
166	0x3d210179	0.039308045
167	0xbd6e764b	-0.05821828
168	0xbf7a5717	-0.9778914
169	0xbda620f1	-0.08111752
170	0xbd7473a9	-0.059680615
171	0x3c208d82	0.009799363
172	0x3d56b72f	0.05242079
173	0xbc72e933	-0.014826107
174	0x3bb5b484	0.005545201
175	0x3d6d85a3	0.057988774
176	0xc01fd110	-2.4971352
177	0xbe059858	-0.13046396
178	0xbc7a3800	-0.0152721405
179	0xbcb9d2f4	-0.022683598
180	0x3eae1555	0.3400065
181	0x3e6cc3f0	0.23121619
182	0x3c935891	0.017986568
183	0x3d0e9c02	0.03481675
184	0xbc9d0489	-0.019167202
185	0xbbdfe33b	-0.006832508
186	0xbd4f1a10	-0.050561965
187	0xbd44a568	-0.048009306
188	0x3e9fe10f	0.31226394
189	0x3dd73ce9	0.105096646
190	0x392aef87	0.00016301694
191	0xbdc8ccc4	-0.09804681
192	0x3f892cce	1.0716798
193	0xbce1b185	-0.027550468
194	0xbd222b08	-0.03959182
195	0xba383ba2	-0.0007027929
196	0x3e4b6986	0.19864473
197	0xbe391073	-0.18072681
198	0xbc74321d	-0.014904526
199	0x3d817a23	0.06322124
200	0x40221f42	2.5331578
201	0xbe447cfe	-0.19188306
202	0xbc0a4825	-0.008440052
203	0x3e0a9e91	0.13537051
204	0xbee91cdd	-0.45529833
205	0x3ecf1b5d	0.40450564
206	0x3f37cf9f	0.7180118
207	0x3d1951c1	0.037431482
208	0x3f7a37c5	0.9774135
209	0xbe181092	-0.14850071
210	0x3d86b356	0.06577174
211	0x3db0a5fa	0.086254075
212	0xbd2d5e18	-0.042326063
213	0xbf00fe35	-0.5038789
214	0x3c5b8996	0.013399502
215	0x3ca77b57	0.020444555
216	0x3f2b0f97	0.66820663
217	0xbe6c676e	-0.2308633
218	0xbe180a2c	-0.1484763
219	0xbe5f4fb6	-0.21807751
220	0xbe023716	-0.12716326
221	0xbf0be79b	-0.54650277
222	0xbe27c5e0	-0.16384077
223	0xbe07d088	-0.13263142
224	0x3f511334	0.81669927
225	0xbe240247	-0.16016494
226	0xbd2f3e39	-0.04278395
227	0x3e344b1a	0.17606774
228	0xbe1e867e	-0.15480992
229	0xbf2faa31	-0.68619066
230	0xbdefd48b	-0.11710461
231	0x3e60a03c	0.21936125
232	0x3ef3f47f	0.47647473
233	0x3ec7d8e1	0.39032653
234	0xbdfae682	-0.12250997
235	0xbe10cc3a	-0.14140406
236	0x3d390fe4	0.04518117
237	0xbf084c52	-0.53241456
238	0xbe23384c	-0.15939444
239	0xbd6a8959	-0.05725989
240	0x3ef64908	0.48102593
241	0x3ef1a5b1	0.47196725
242	0xbe33005f	-0.1748061
243	0xbea45808	-0.32098413
244	0x3dd1533e	0.10220955
245	0xbef74630	-0.48295736
246	0xbe30d3d4	-0.17268306
247	0xbea3dbe4	-0.320037
248	0x3ee700e5	0.4511787
249	0x3edf2bc9	0.43588093
250	0xbd761a7a	-0.060083844
251	0x3e457e87	0.19286548
252	0x3e012116	0.12610278
253	0xbf211a1f	-0.6293048
254	0xbdccaf63	-0.0999439
255	0x3e532af3	0.20621853

fc1.bias f4 [256]
0	0xbf1ec104	-0.6201327
1	0xbe8224cf	-0.25418708
2	0x3e3c2a01	0.18375398
3	0xbe8d1d15	-0.2756125
4	0xbf673cce	-0.90327156
5	0xbef67f05	-0.48143783
6	0xbf8a1b87	-1.0789651
7	0xbee4c7da	-0.44683725
8	0xbef9f3be	-0.48818773
9	0xbf4dba49	-0.80362374
10	0xbefdca0a	-0.49568206
11	0xbce51f89	-0.027969139
12	0xbf46e3fe	-0.7769164
13	0xbeb476cd	-0.35246888
14	0xbe62394d	-0.22092171
15	0x3ceaac26	0.02864654
16	0xbd304108	-0.04303077
17	0xbe65c38c	-0.22437876
18	0xbea898e3	-0.32929143
19	0xbe1c6185	-0.15271576
20	0xbe387a24	-0.18015343
21	0xbe8f544c	-0.27994
22	0xbe18dce5	-0.14928015
23	0xbf26ac9f	-0.6510715
24	0xbf4b99a3	-0.79531306
25	0x3deb8ba1	0.115012415
26	0xbe255fa7	-0.1614977
27	0xbf3691f7	-0.71316475
28	0xbf28a17a	-0.65871394
29	0xbe2dc0dc	-0.16968101
30	0xbe0bedd4	-0.13664943
31	0xbd9085d5	-0.070567764
32	0xbecc8f8b	-0.39953265
33	0xbe467ba3	-0.19383101
34	0xbf548066	-0.8300842
35	0xbeb2a884	-0.34894192
36	0xbf06c6c5	-0.5264705
37	0xbf01c774	-0.50694966
38	0xbee458cd	-0.44599
39	0xbd1cd3a3	-0.03828777
40	0x3d9e6a89	0.07735164
41	0x3e378b8c	0.17924327
42	0xbe269f10	-0.16271615
43	0xc000fb0f	-2.0153234
44	0x3e5eb312	0.21747997
45	0x3d19cc5b	0.037548404
46	0xbf16e317	-0.5894026
47	0xbe7d9035	-0.24762042
48	0xbf7bb38f	-0.9832086
49	0xbe0680bc	-0.13135046
50	0xbe493f8c	-0.19653147
51	0xbecf5181	-0.4049187
52	0xbec9e53c	-0.39432704
53	0xbe80ef0f	-0.25182387
54	0xbf0ad367	-0.54228824
55	0xbe421252	-0.18952301
56	0xbef0de2d	-0.47044507
57	0xbf0546f3	-0.52061385
58	0xbe60ba59	-0.21946086
59	0xbf76a7c6	-0.9634975
60	0xbee4037d	-0.4453391
61	0xbf0b43cd	-0.5440033
62	0xbeb75c79	-0.3581274
63	0xbe646e0e	-0.22307608
64	0xbef8bcfe	-0.4858169
65	0xbc9e78d1	-0.01934472
66	0x3e2f9cee	0.17149708
67	0xbe95952a	-0.29215366
68	0xbeb7604c	-0.35815656
69	0xbde3d02e	-0.111236915
70	0xbf4e5d78	-0.8061137
71	0xbeae4ec3	-0.34044465
72	0xbeacc3f6	-0.33743256
73	0x3e367e76	0.17821679
74	0xbf5f7873	-0.87293166
75	0xbde9cee5	-0.11416415
76	0xbed25cfc	-0.41086566
77	0xbedd31d7	-0.43202087
78	0xbf15339d	-0.5828188
79	0xbe10b91f	-0.14133118
80	0xbf4f6b24	-0.8102286
81	0xbdd65a3e	-0.10466431
82	0xbed4c121	-0.41553596
83	0xbf13bb45	-0.57707626
84	0xbe461f0a	-0.19347778
85	0xbee6441b	-0.44973835
86	0xbcae03a7	-0.021241976
87	0xbeb2b1a2	-0.34901148
88	0xbe145eb5	-0.14489253
89	0xbf5c6626	-0.86093366
90	0xbe2a2d92	-0.16618946
91	0xbe834d2b	-0.25644812
92	0xbec65d6b	-0.38743147
93	0xbe84ee12	-0.25962883
94	0xbfc97afc	-1.5740657
95	0xbec91fa2	-0.39281946
96	0xbe904fd7	-0.28185913
97	0x3f253504	0.6453402
98	0x3c824253	0.015900766
99	0xbe8863d6	-0.2663867
100	0xbee5a7ea	-0.4485467
101	0xbf9bf5d7	-1.2184399
102	0x3d9eddec	0.07757172
103	0xbeae4ca1	-0.34042838
104	0xbe0c4dd4	-0.13701564
105	0xbf3e3fda	-0.7431618
106	0x3e899306	0.26869982
107	0xbe6b8829	-0.2300116
108	0xbdb1de06	-0.08684926
109	0xbf4e70b2	-0.8064071
110	0x3e113635	0.14180835
111	0xbf164353	-0.5869648
112	0x3e07dcd1	0.13267829
113	0xbf3f8cfd	-0.74824506
114	0xbeb046c0	-0.34428978
115	0xbed6eebb	-0.41979012
116	0x3dc51481	0.096230514
117	0x3d0e1069	0.03468362
118	0x3ce589a1	0.028019728
119	0xbf5c4647	-0.86044735
120	0xbed31be8	-0.41232228
121	0xbeb832ea	-0.35976344
122	0xbe8efdc3	-0.2792798
123	0xbe1d69f5	-0.1537245
124	0xbe8df55a	-0.2772625
125	0xbefcdfd7	-0.49389526
126	0xbe9ba349	-0.30398014
127	0xbea611a1	-0.32435325
128	0xbf5cdd0c	-0.8627479
129	0xbf689f69	-0.9086824
130	0xbf044de3	-0.51681346
131	0xbf5d0965	-0.8634246
132	0xbf350867	-0.70715946
133	0xbf154999	-0.58315426
134	0xbea28e27	-0.3174908
135	0xbec49da5	-0.38401523
136	0xbeafcf3b	-0.34337792
137	0xbe87603c	-0.26440609
138	0xbf02b7ec	-0.5106189
139	0xbd2a2fb2	-0.041549392
140	0xbeec49fd	-0.461502
141	0xbf8632a1	-1.0484201
142	0xbf136044	-0.57568765
143	0xbea29cc5	-0.3176023
144	0xbf9e18b1	-1.2351285
145	0xbde3e550	-0.11127722
146	0xbf65aa6c	-0.8971317
147	0xbf4993f0	-0.7874136
148	0xbf1fa6f5	-0.6236413
149	0xbf3cd652	-0.73764527
150	0xbf900ab2	-1.1253264
151	0xbe83a5cf	-0.2571244
152	0xbef57561	-0.47941115
153	0xbea39264	-0.31947625
154	0x3ee8b1c2	0.45448118
155	0xbeafdb5c	-0.34347045
156	0xbea00896	-0.3125655
157	0xbea670c9	-0.32507923
158	0xbe05e25d	-0.13074632
159	0xbede866c	-0.4346193
160	0xbd854e91	-0.06509126
161	0xbe550b22	-0.20805028
162	0xbe8c1d97	-0.27366325
163	0xbf26ae1b	-0.65109414
164	0xbef09daa	-0.46995288
165	0xbf0650b6	-0.52466905
166	0xbeb68bf2	-0.35653645
167	0xbe551d4b	-0.20811956
168	0xbd9b586b	-0.07585224
169	0xbe7de8c0	-0.24795818
170	0xbe15487d	-0.14578433
171	0xbecda158	-0.40162158
172	0xbefd3a04	-0.49458325
173	0xbe84b730	-0.2592101
174	0xbec9c062	-0.3940459
175	0xbe2143e8	-0.1574856
176	0xbf3e3ba1	-0.74309736
177	0xbf2eb1ec	-0.6824024
178	0xbf276a11	-0.6539622
179	0x3dae2522	0.08503176
180	0xbecff99d	-0.40620127
181	0xbec30900	-0.38092804
182	0xbef5e991	-0.4802976
183	0xbe50efdb	-0.20403998
184	0xbecb2712	-0.39678246
185	0x3d886093	0.06659045
186	0xbe2b718f	-0.16742538
187	0x3e1f9eef	0.15587972
188	0xbf3cfede	-0.73826396
189	0xbebd397e	-0.36957926
190	0x3e44da3b	0.19223873
191	0xbf11511a	-0.56764376
192	0xbea3e37c	-0.32009494
193	0xbf3d4f9c	-0.739496
194	0x3db5a2f4	0.088689715
195	0xbd5e192f	-0.054223236
196	0xbeb686bc	-0.3564967
197	0xbeb2711a	-0.34851915
198	0xbe03d0fc	-0.1287269
199	0xbf374b3d	-0.7159918
200	0xbecab954	-0.3959452
201	0xbe838d44	-0.25693715
202	0xbee07faa	-0.438474
203	0xbec4e686	-0.38457125
204	0x3bdaa66e	0.006672672
205	0xbef1aa9d	-0.4720048
206	0xbeb82ad0	-0.35970163
207	0xbe42bdc8	-0.19017708
208	0xbe910e21	-0.28331092
209	0xbec8fe93	-0.39256725
210	0xbbd71bbe	-0.0065645864
211	0xbf174603	-0.59091204
212	0xbeee2980	-0.46516037
213	0xbf12c06e	-0.57324874
214	0xbf3a43bf	-0.7275962
215	0xbd99363c	-0.074810475
216	0xbe4a1f8d	-0.19738598
217	0xbe545dbe	-0.20738885
218	0xbed6ee95	-0.419789
219	0xbf004f26	-0.5012077
220	0xbf94f2b7	-1.1636571
221	0xbd5799ff	-0.052637096
222	0xbed37d3f	-0.41306493
223	0xbe176e45	-0.14788158
224	0xbeca7fdc	-0.39550674
225	0x3f1e6138	0.61867094
226	0xbdfc0e2c	-0.123073906
227	0xbe0ade01	-0.1356125
228	0xbf2bb99b	-0.67080086
229	0xbf8cd031	-1.1001035
230	0xbea52583	-0.32255182
231	0x3e3c9c50	0.18419003
232	0xbe638015	-0.22216828
233	0x3e4c1330	0.19929194
234	0xbe939b9f	-0.28829667
235	0xbefe31b2	-0.4964729
236	0xbf57c8fa	-0.8429104
237	0xbeaead64	-0.34116662
238	0xbeb3cd7a	-0.35117704
239	0xbf1ed2dc	-0.62040496
240	0xbf0f3088	-0.5593343
241	0xbed6bf29	-0.4194272
242	0xbc0b3fd9	-0.008499109
243	0x3d12e665	0.035864253
244	0xbec3891d	-0.38190547
245	0xbef05cbb	-0.46945748
246	0xbe681b83	-0.22666745
247	0xbfd2adf7	-1.645934
248	0xbf647d91	-0.892541
249	0xbf1f28de	-0.62171733
250	0xbef59175	-0.47962537
251	0xbe37b914	-0.17941695
252	0xbf758891	-0.9591151
253	0xbd468ccb	-0.048474114
254	0xbf86828a	-1.0508587
255	0xbee1e38b	-0.44118914

fc2.weight f4 [256, 256]
0	0xbca23902	-0.019802574
1	0x3d15ff02	0.036620148
2	0x3c218ca3	0.009860191
3	0xbcfce9b3	-0.030873155
4	0xbd61d055	-0.05513032
5	0x3c33a99a	0.010965729
6	0xbde67690	-0.11253083
7	0xbc1466e2	-0.009057732
8	0x3d3a3d1b	0.04546843
9	0x3c9ef0a6	0.01940186
10	0xbb619e87	-0.0034426765
11	0xbc9f5dae	-0.01945385
12	0xbd3242e6	-0.04352083
13	0xbc47fb98	-0.012205981
14	0x3cac79a0	0.02105409
15	0xbcacd5d1	-0.02109805
16	0xbd052567	-0.032506373
17	0xbd15eecf	-0.0366047
18	0xbd0963bb	-0.033542376
19	0xbcaf6731	-0.02141151
20	0xbe07c0ce	-0.13257143
21	0x3d00b15a	0.031419136
22	0xbc3a157b	-0.01135766
23	0x3ca13a91	0.019681247
24	0xbdbb7b6f	-0.091544025
25	0xbc7e0056	-0.01550301
26	0xbd6f278d	-0.058387328
27	0x3d88576b	0.06657299
28	0x3d3268eb	0.04355709
29	0x3d14cf8f	0.036330756
30	0x3d5a0a97	0.053232756
31	0xbc1e281a	-0.009653116
32	0xbde6a0b8	-0.112611234
33	0xbd5ab24a	-0.053392686
34	0xbe11f59e	-0.14253852
35	0xbe06e90f	-0.13174842
36	0x3d489b9d	0.04897653
37	0x3a5ab771	0.0008343375
38	0x3cb4c4f5	0.022066573
39	0xbd8e7385	-0.06955627
40	0xbd526d88	-0.05137399
41	0x3b44f14f	0.0030051058
42	0xbc8cb15e	-0.017174419
43	0x3d232c7d	0.03983735
44	0xbd2e1504	-0.04250051
45	0xbc65f1e3	-0.014034721
46	0x3c8c7964	0.017147727
47	0xbcbc3300	-0.022973537
48	0x3d663e16	0.056211554
49	0xbd118eb8	-0.035536498
50	0x3d9dd317	0.07706278
51	0xbd52bf53	-0.051451992
52	0xbd0d6897	-0.034523573
53	0x3cabc93a	0.020969976
54	0x3d95dc43	0.07317402
55	0xbdecc267	-0.11560517
56	0xbd935a17	-0.07194918
57	0x3cff1446	0.031137597
58	0x3d64e704	0.055884376
59	0xbd99b0b9	-0.0750441
60	0xbdedd4d7	-0.116128616
61	0xb9c93afd	-0.00038381657
62	0x3c0a0cbd	0.008425889
63	0xbd23941d	-0.039936174
64	0x3d6381a1	0.055543546
65	0x3d92ee1a	0.071743205
66	0x3d9d5f02	0.07684137
67	0xbd5071f2	-0.050889917
68	0x3cf9c14e	0.030487683
69	0xbd2219e9	-0.03957549
70	0x3d7571d2	0.059923
71	0xbc6039f8	-0.013685696
72	0xbd986e1e	-0.07442878
73	0x3d9599ab	0.073047005
74	0x3c06197c	0.008184787
75	0xbd0ae786	-0.033912204
76	0xbc08f1a9	-0.0083583975
77	0x3d821f10	0.06353581
78	0xbc9e0836	-0.019291025
79	0xbd8133a6	-0.06308679
80	0x3ca137f3	0.019679999
81	0xbd1cf811	-0.038322512
82	0xbcccd57e	-0.025004145
83	0xbd6b51cd	-0.05745106
84	0xbd2d2220	-0.042268872
85	0xbd0e8813	-0.03479774
86	0x3c97506a	0.018470962
87	0x3baedcc3	0.0053363754
88	0xbcd6c645	-0.02621759
89	0xbd3db58d	-0.04631572
90	0xbd1ec0b6	-0.038758002
91	0xbd060463	-0.032719027
92	0xbda4eb9e	-0.08052753
93	0x3da37c3c	0.0798268
94	0xbdf2785e	-0.118393645
95	0xbe12e341	-0.14344503
96	0x3c2333b0	0.009961054
97	0xbd80612d	-0.06268535
98	0xbd14eddd	-0.036359657
99	0x3debf548	0.11521393
100	0xbe123b52	-0.14280441
101	0x3d351828	0.04421249
102	0xbd4a2f39	-0.04936144
103	0xbd8153fa	-0.063148454
104	0xbd52a928	-0.05143085
105	0x3c379e57	0.011207185
106	0xbd43e287	-0.047823455
107	0xbdf6950c	-0.12040147
108	0x3d60e0eb	0.054902
109	0x3dfb0355	0.12256495
110	0xbd4ef04a	-0.050522126
111	0xb8685598	-5.5392826e-05
112	0x3e0a8f3e	0.13531205
113	0xbcd3790c	-0.025814556
114	0xbda78b8c	-0.08180913
115	0x3c8e54ae	0.017374363
116	0x3c1de7e0	0.009637803
117	0xbd6fff05	-0.058592815
118	0xbc09625f	-0.00838527
119	0x3cd0e646	0.025500428
120	0x3d089d0f	0.033352908
121	0xbd146ca7	-0.03623643
122	0x3d8ab2b4	0.06772366
123	0x3a85f5ed	0.0010220386
124	0xbd12d1d5	-0.035844643
125	0xbd304b84	-0.043040767
126	0xbdc80775	-0.09767047
127	0xbda68d2e	-0.08132397
128	0xbd1471b0	-0.036241233
129	0xbd8c71b0	-0.06857622
130	0xbdb899f5	-0.0901374
131	0x3ca87c24	0.020567007
132	0xbd902eac	-0.07040152
133	0x3d4b858a	0.0496879
134	0x3b5650e7	0.003270203
135	0xbde6c0a1	-0.1126721
136	0xbd432b9d	-0.047649015
137	0x3bc77e1b	0.006088031
138	0xbcd37259	-0.025811361
139	0x3b8c1322	0.0042747417
140	0xbd7d2176	-0.06179949
141	0x3d1d983f	0.03847527
142	0x3ba6fb88	0.005095903
143	0x3e333ebb	0.17504399
144	0xbd469af7	-0.04848763
145	0xbd925bbb	-0.071464024
146	0x3c8b1bb3	0.016980981
147	0x3c87c2ef	0.016572444
148	0x3b19b023	0.0023450933
149	0xbddb5ef3	-0.107114695
150	0xbd4adfae	-0.049529724
151	0xbcfb810d	-0.030701185
152	0xbc35dbd5	-0.011099775
153	0xbddd02fa	-0.10791583
154	0xbdb25772	-0.08708085
155	0xbd88221f	-0.06647133
156	0xbd4c8f05	-0.04994108
157	0xbd66566b	-0.05623476
158	0xbcafee84	-0.021476038
159	0x3e208a90	0.15677857
160	0x3cef2470	0.02919218
161	0x3c4e22b5	0.012581517
162	0x3da088af	0.0783857
163	0xbc30fa09	-0.0108018005
164	0xbdc0c7ea	-0.094131306
165	0xbc57aac0	-0.013163269
166	0x3c90a000	0.017654419
167	0xbd27555b	-0.040852886
168	0xbd1fd61b	-0.039022546
169	0xbd002c7d	-0.031292427
170	0xbd286af0	-0.04111761
171	0xbc833553	-0.016016638
172	0xbd83cc31	-0.06435431
173	0xbdd013dd	-0.101600386
174	0x3d71643d	0.058933485
175	0xbbe87b4b	-0.007094776
176	0x3d871c16	0.06597154
177	0xbd89fdc8	-0.06737858
178	0xbaa24b74	-0.0012382106
179	0xbd9f3635	-0.07774011
180	0xbd3b4372	-0.045718618
181	0xbd130673	-0.035894822
182	0xbd6f45ff	-0.058416363
183	0x3da20742	0.079115406
184	0xbca1b16c	-0.019737922
185	0xbbb5578c	-0.005534118
186	0xbe0af477	-0.13569818
187	0xbd8951f4	-0.067050844
188	0xbca53980	-0.02016902
189	0x3b2354f0	0.0024922453
190	0xbd11fc08	-0.035640746
191	0xbcf175e4	-0.02947516
192	0xbc83b74d	-0.016078616
193	0x3d6eb96d	0.058282305
194	0xbcd9adb5	-0.026572088
195	0xbdd251e5	-0.102695264
196	0xbd95ebbe	-0.07320355
197	0x3d346b63	0.044047724
198	0x3d23ee2f	0.04002207
199	0x3c1a7889	0.009428152
200	0x3c373fac	0.011184614
201	0x3d120cb0	0.03565663
202	0xbc02ad20	-0.0079758465
203	0x3bab9cec	0.0052372124
204	0xbd59ffbd	-0.053222407
205	0xbe07830b	-0.13233583
206	0xbd3142c0	-0.04327655
207	0xbdab1a05	-0.08354572
208	0xbdab649a	-0.083687976
209	0x3c1c5803	0.009542468
210	0xbd166bd9	-0.036723945
211	0xbe2df493	-0.16987829
212	0x3ab161bf	0.0013533159
213	0xbe1b75d8	-0.15181673
214	0x3cd79846	0.026317727
215	0x3c14ee5f	0.009090035
216	0xbda6492e	-0.08119427
217	0x3d2365b7	0.039891925
218	0x3d4d718e	0.050157122
219	0xbd250823	-0.040290963
220	0xbd8e9195	-0.06961361
221	0x3d03e015	0.032196123
222	0xbd8f5d6b	-0.0700024
223	0xbd221e65	-0.039579768
224	0xbcbd8e1d	-0.023139054
225	0xbb922573	-0.0044600307
226	0x3d0d804e	0.03454619
227	0xbb21b67a	-0.0024675415
228	0xbd739c39	-0.059475157
229	0xbc546917	-0.0129645085
230	0x3d0ae2f0	0.03390783
231	0xbd45befc	-0.04827784
232	0xbdefcc5f	-0.117089026
233	0x3d12178b	0.035666984
234	0x3cb3562c	0.021891676
235	0xbd1554af	-0.036457714
236	0xbc73dc83	-0.014884117
237	0xbc6ecb79	-0.014574879
238	0x3d43222e	0.04764002
239	0xbd0daa23	-0.034586083
240	0xbc171562	-0.009221407
241	0x3c2d94d2	0.010594564
242	0x3ddd29b5	0.107989706
243	0xbc80689a	-0.015674878
244	0xbc3a8995	-0.011385341
245	0xbe59ac04	-0.21257025
246	0xbc912c94	-0.017721452
247	0xbc78c763	-0.015184256
248	0xbcc9ff89	-0.024657981
249	0xbd5b356c	-0.053517744
250	0x3c37eb67	0.011225558
251	0x3d997e46	0.07494788
252	0xbceb6a81	-0.028737308
253	0xbd35e4c3	-0.044407617
254	0x3d7438df	0.05962455
255	0x3b871bc4	0.004123183

fc2.bias f4 [256]
0	0xbdc00147	-0.09375244
1	0xbe15c778	-0.14626873
2	0xbe0731e7	-0.1320263
3	0xbdcbe9ed	-0.09956727
4	0xbe5f168f	-0.21785949
5	0xbded36a4	-0.115826875
6	0xbe4d9bfd	-0.20079036
7	0xbe1affa9	-0.15136589
8	0xbe0abf23	-0.13549475
9	0x3dc30919	0.095232196
10	0xbe1d81b8	-0.15381515
11	0xbd7fda61	-0.06246412
12	0xbe50e042	-0.20398048
13	0xbe090c4c	-0.13383597
14	0xbe3b1367	-0.1826912
15	0xbe85c823	-0.26129255
16	0xbe1cd6ae	-0.15316269
17	0xbe2bcd7b	-0.16777603
18	0xbdb1c8e1	-0.08680893
19	0xbd8a559a	-0.067546085
20	0xbe6b9545	-0.2300616
21	0xbdc502ee	-0.096196994
22	0xbe08eb3d	-0.13370986
23	0xbe55db26	-0.2088438
24	0xbe7b45ab	-0.24538295
25	0xbe4d0889	-0.20022787
26	0xbe44c3b4	-0.1921528
27	0xbe2e5a76	-0.17026696
28	0xbe7b2ffd	-0.24530025
29	0xbe5f053f	-0.21779345
30	0xbe31fa75	-0.17380698
31	0xbe84e58c	-0.2595638
32	0xbd059a5b	-0.032617908
33	0xbdeac023	-0.114624284
34	0xbdd14a5d	-0.10219262
35	0xbd93b2a3	-0.072118066
36	0xbe69cfe2	-0.22833207
37	0xbe0bb0d5	-0.13641675
38	0xbe587e2c	-0.21141881
39	0xbe6f59ae	-0.23374054
40	0xbe02dbd8	-0.12779176
41	0xbe1567af	-0.14590333
42	0xbe397d7a	-0.18114272
43	0xbe8936ec	-0.26799715
44	0xbe2f3bfc	-0.17112726
45	0xbe2567ef	-0.16152929
46	0xbe982fbf	-0.29723927
47	0xbd8a4dbb	-0.06753107
48	0xbe825f58	-0.25463367
49	0xbdebac4b	-0.11507472
50	0xbdeac2d9	-0.114629455
51	0xbe824d43	-0.2544957
52	0xbe3295af	-0.17439912
53	0xbe519ebc	-0.20470709
54	0xbe1d4169	-0.15356983
55	0xbe680edf	-0.22661923
56	0xbe1906af	-0.14943956
57	0xbeb6158f	-0.35563323
58	0xbe7df0c0	-0.2479887
59	0xbe8ffb26	-0.281213
60	0x3dcbb061	0.09945751
61	0xbe429b9a	-0.1900467
62	0xbe955204	-0.29164135
63	0xbeb0a19c	-0.34498298
64	0xbe8c0414	-0.2734686
65	0xbe111e5f	-0.14171742
66	0xbe999273	-0.29994544
67	0xbe040894	-0.12893897
68	0xbe22eb37	-0.1591004
69	0xbe195bb0	-0.14976382
70	0xbe0b08ec	-0.13577622
71	0xbe1c33f8	-0.152542
72	0xbe6233af	-0.22090028
73	0xbe373444	-0.17891032
74	0xbe42d412	-0.19026211
75	0xbe185491	-0.1487601
76	0xbe326f60	-0.17425299
77	0xbe853c04	-0.2602235
78	0xbdd7665c	-0.105175704
79	0xbea0d82a	-0.3141492
80	0xbe1ba92e	-0.15201256
81	0xbe1daabb	-0.1539716
82	0xbe54218b	-0.2071592
83	0xbd73ec25	-0.059551377
84	0xbe74a8f7	-0.2389258
85	0xbe44dd05	-0.19224937
86	0xbdc80520	-0.097666025
87	0xbe858c76	-0.26083726
88	0xbd4962de	-0.049166553
89	0xbe07ff9e	-0.13281104
90	0xbe30da6f	-0.17270826
91	0xbe8446a6	-0.2583515
92	0xbe5a1f70	-0.21301055
93	0xbe890fa6	-0.2676975
94	0xbea8ed81	-0.329937
95	0xbdb6ed7a	-0.08932014
96	0xbe1e3da9	-0.15453209
97	0xbe808b8c	-0.25106466
98	0xbec8eb39	-0.3924196
99	0xbe5c2d45	-0.21501644
100	0xbe0fbac4	-0.14036089
101	0xbdc7c1c3	-0.09753754
102	0xbe26f5b1	-0.16304661
103	0xbe2a9969	-0.16660084
104	0xbe8a57dd	-0.2702016
105	0xbe677801	-0.22604372
106	0xbe51dac0	-0.20493603
107	0xbdb5d397	-0.08878248
108	0xbe34d130	-0.17657924
109	0xbdff0176	-0.124514505
110	0xbe554e3d	-0.20830627
111	0xbe485399	-0.1956314
112	0xbe2a1b98	-0.16612089
113	0xbe3b8033	-0.18310623
114	0xbe02ea9f	-0.12784813
115	0xbe72cb1d	-0.23710294
116	0xbe765ddd	-0.24059244
117	0xbe68c7ca	-0.22732463
118	0xbd967218	-0.073459804
119	0xbe254fb4	-0.16143686
120	0xbdcc296a	-0.099688366
121	0xbe174449	-0.14772142
122	0xbe4bd585	-0.1990567
123	0xbe81425a	-0.25245935
124	0xbddd3842	-0.10801746
125	0xbe3bf77c	-0.18356127
126	0xbdc5e88f	-0.09663498
127	0xbe149054	-0.14508182
128	0xbe51f092	-0.20501927
129	0xbe5c3361	-0.21503974
130	0xbe0c2272	-0.13685015
131	0xbddf73d1	-0.10910762
132	0xbe13e5d8	-0.14443147
133	0xbe0cef45	-0.13763149
134	0xbe7b9b93	-0.24571066
135	0xbe559580	-0.20857811
136	0xbeab762c	-0.33488595
137	0xbe25c618	-0.16188848
138	0xbe379010	-0.17926049
139	0xbe0d3ef3	-0.13793544
140	0xbcd04242	-0.02542222
141	0xbe2b4f91	-0.16729571
142	0xbe397f90	-0.18115067
143	0xbe2cb645	-0.16866405
144	0xbe09f4cd	-0.1347229
145	0xbd8b3a7b	-0.06798264
146	0xbe3a7630	-0.18209147
147	0xbea08e72	-0.31358677
148	0xbdea60d8	-0.11444253
149	0xbe093c3f	-0.13401888
150	0xbe288c1d	-0.16459699
151	0xbea535a5	-0.3226749
152	0xbe00c7f5	-0.12576278
153	0xbde0712d	-0.109590866
154	0xbdc0333f	-0.093847744
155	0xbebc1cbf	-0.36740682
156	0xbe091371	-0.13386323
157	0xbe614935	-0.22000583
158	0xbdf2a4e1	-0.118478544
159	0xbe4901ec	-0.1962964
160	0xbe4e3165	-0.2013603
161	0xbdad8325	-0.084722795
162	0xbe4bfe06	-0.19921121
163	0xbe3fca2b	-0.18729465
164	0xbdefd521	-0.11710573
165	0xbdacb92a	-0.08433755
166	0xbe06987a	-0.13144103
167	0xbe0001ae	-0.12500641
168	0xbe4474ca	-0.19185176
169	0xbe55a7de	-0.20864818
170	0xbeb57be3	-0.3544608
171	0xbe344e09	-0.17607893
172	0xbdfc1157	-0.12307995
173	0xbe9efaed	-0.31050816
174	0xbdd4dfa2	-0.10394217
175	0xbe46957e	-0.19392964
176	0xbe676f98	-0.22601163
177	0xbdc1bf44	-0.09460309
178	0xbe81c069	-0.2534211
179	0xbe55d7c7	-0.20883094
180	0xbe18adea	-0.14910093
181	0xbe4d5956	-0.2005361
182	0xbdde131d	-0.10843489
183	0xbdea860f	-0.11451351
184	0xbe152583	-0.14565091
185	0xbe0b82e3	-0.13624148
186	0xbe032a9b	-0.12809221
187	0xbdf13dbb	-0.11779352
188	0xbdf98cbd	-0.12185047
189	0xbda2d766	-0.0795124
190	0xbdcbf77e	-0.09959315
191	0xbe20445a	-0.15651074
192	0xbe021bf1	-0.12705971
193	0xbe625f4e	-0.22106668
194	0xbe3cb39d	-0.18427892
195	0xbe3af268	-0.18256533
196	0xbe27390b	-0.16330354
197	0xbe6a35d0	-0.2287209
198	0xbe7c7070	-0.24652267
199	0xbe5ab4d2	-0.2135804
200	0xbd498808	-0.049201995
201	0xbde8f2e0	-0.1137445
202	0xbde951d8	-0.113925636
203	0xbeb9c9b1	-0.3628669
204	0xbe6bf852	-0.23043945
205	0xbe47e3dd	-0.19520517
206	0xbe218591	-0.15773608
207	0xbe0a6895	-0.13516457
208	0xbe48264b	-0.19545858
209	0xbdfd36a1	-0.12363935
210	0xbd8f6a62	-0.07002713
211	0xbe466257	-0.19373451
212	0xbe813f99	-0.25243834
213	0xbe297085	-0.16546829
214	0xbe05ff60	-0.13085699
215	0xbe785785	-0.24252136
216	0xbe0ed859	-0.13949718
217	0xbd4d4ba7	-0.050120976
218	0xbe036ce5	-0.12834509
219	0xbe8a0daf	-0.26963565
220	0xbe2c0943	-0.16800408
221	0xbe01a8ed	-0.12662096
222	0xbe5255ec	-0.20540589
223	0xbe088f23	-0.13335852
224	0xbed0c8ba	-0.40778142
225	0xbe894140	-0.26807594
226	0xbe634fb3	-0.22198372
227	0xbe17efbe	-0.14837548
228	0xbe636ccb	-0.2220947
229	0xbe84e163	-0.25953206
230	0xbe2509e5	-0.16117056
231	0xbe5d347a	-0.2160205
232	0xbe0c9775	-0.13729651
233	0xbe655ff8	-0.2239989
234	0xbe81c3a7	-0.25344583
235	0xbe5d470a	-0.2160913
236	0xbdef3b8f	-0.11681282
237	0xbe072893	-0.13199072
238	0xbe0af449	-0.1356975
239	0xbe005296	-0.12531504
240	0xbe2607bd	-0.1621389
241	0xbe54eb0a	-0.20792785
242	0xbe5204f6	-0.20509705
243	0xbe71ea2a	-0.23624483
244	0xbe48af47	-0.19598113
245	0xbe6ba400	-0.2301178
246	0xbda6f3e4	-0.08151987
247	0xbe35ba61	-0.17746879
248	0xbe063071	-0.13104416
249	0xbe08f160	-0.13373327
250	0xbe015dc1	-0.1263342
251	0xbe252a0d	-0.16129322
252	0xbd5f5be3	-0.05453099
253	0xbdb667a1	-0.089064844
254	0xbe3bfbf3	-0.1835783
255	0xbde8f29e	-0.113744006

fc3.weight f4 [1, 256]
0	0x3bcd6e17	0.0062692272
1	0xbc37cbf1	-0.011218057
2	0xbd45f6ab	-0.048330944
3	0x3c35520b	0.011066924
4	0x3a6dfd81	0.00090786075
5	0xbcc0b406	-0.023523342
6	0xbc7ba950	-0.015360191
7	0x3c113bad	0.0088643255
8	0xbbb52112	-0.005527624
9	0x3d19fd0d	0.037594844
10	0xbcd15407	-0.025552763
11	0x3d0e71a1	0.034776334
12	0x3b8c9449	0.004290138
13	0x39594dcc	0.00020723714
14	0x3b7a1057	0.0038156712
15	0x3cf905b6	0.030398231
16	0xbc596b69	-0.0132702375
17	0x3c935471	0.0179846
18	0x3ca4ece6	0.020132493
19	0x3a8b4307	0.0010624834
20	0x3c6b9bbe	0.014380394
21	0x3cc1a641	0.023638846
22	0xbbcb3858	-0.006201785
23	0xba841d0a	-0.0010079455
24	0x3aa8d54e	0.0012880953
25	0x3dee6de0	0.11642051
26	0x389d582a	7.502765e-05
27	0xbc7e0628	-0.015504397
28	0xbbcd7920	-0.0062705427
29	0xbbc6d6ab	-0.006068071
30	0x3ce7c4cb	0.02829208
31	0x38f039f1	0.00011454884
32	0xbc80f586	-0.015742075
33	0xbd21b30b	-0.03947739
34	0xb9c55f7d	-0.00037645912
35	0x3a7c5b54	0.0009626646
36	0x3cee5921	0.029095234
37	0x3d31adb7	0.043378558
38	0x3c993071	0.018699856
39	0xbc5e66da	-0.013574326
40	0xbd3349e2	-0.043771632
41	0xbd466e57	-0.048445072
42	0x3c583d36	0.013198188
43	0x3ccc98da	0.024975229
44	0x3cfd766a	0.030940253
45	0xbc588929	-0.013216295
46	0x3cd56731	0.026050182
47	0xbc973ebe	-0.018462535
48	0xbb8abdc8	-0.0042340495
49	0x3b9ed78c	0.0048474725
50	0x3c7f908c	0.0155984275
51	0xbd8e2a1a	-0.06941624
52	0xbdd53888	-0.10411173
53	0x3bcad3eb	0.0061898134
54	0x3c8b5ac2	0.01701105
55	0xbb9daa44	-0.004811557
56	0x3cea62c4	0.028611548
57	0xbbbab5c3	-0.005697937
58	0xbd1698f7	-0.036766972
59	0xbcd99f3c	-0.026565187
60	0xbccec322	-0.025239531
61	0x3b857905	0.0040732645
62	0xbcb53f3c	-0.022124879
63	0xbc6c449a	-0.014420653
64	0x3b5d2b01	0.0033747556
65	0xbc464aff	-0.012102841
66	0x3c59a08c	0.013282906
67	0x3c8cf58e	0.017206933
68	0x3cf763fa	0.03019904
69	0x3c5e428b	0.01356567
70	0xbc251530	-0.010075852
71	0x3c38741d	0.011258152
72	0x3cdeaa44	0.027180798
73	0xbb1b13de	-0.0023662965
74	0xbe260ed2	-0.16216591
75	0x3c4368a1	0.011926801
76	0xbc8d14c6	-0.01722182
77	0xbbf48129	-0.007461686
78	0x3c249af9	0.010046714
79	0x3d41db88	0.047328502
80	0xbb6a7c52	-0.0035779667
81	0xbbbe891a	-0.0058146836
82	0xbcef0b00	-0.02918005
83	0xbc5e71ef	-0.013576969
84	0x3c500ace	0.012697889
85	0xbd5fced9	-0.054640625
86	0xbc099887	-0.008398182
87	0x3b6b14d9	0.003587058
88	0x3caaaebd	0.020835275
89	0x3d051327	0.03248897
90	0xbbc4542b	-0.005991479
91	0x3c7d149c	0.015446808
92	0x3b08d33d	0.002087786
93	0x3bb4c1c2	0.005516262
94	0x3cc2876b	0.023746213
95	0x3c2d8e81	0.010593058
96	0xbb4c3633	-0.0031160235
97	0xbc7f5582	-0.0155843515
98	0xbc81e9b5	-0.01585851
99	0xbc1d7325	-0.009609972
100	0x3bbfa440	0.0058484375
101	0xbbe11d62	-0.006869958
102	0x3cc57759	0.024104761
103	0x3beae270	0.0071681067
104	0x3ccc40e4	0.024933286
105	0x3b3301f5	0.00273144
106	0xbe1ba238	-0.151986
107	0xbbf4ce67	-0.007470894
108	0x3b897ad6	0.0041955514
109	0x3c24fed2	0.0100705195
110	0xbc3bf1e0	-0.011471242
111	0x3ce52faf	0.027976839
112	0xbb7900cb	-0.0037994857
113	0xbcdc259e	-0.026873406
114	0xbc625a00	-0.013815403
115	0xb9ac77ff	-0.000328958
116	0x3d0db982	0.034600742
117	0xbc90016a	-0.0175788
118	0xbc9cd450	-0.019144207
119	0xb926ed45	-0.00015919383
120	0x3ca00dbd	0.0195378
121	0x3d16109c	0.036636934
122	0x3bd13cac	0.0063854065
123	0x3c6a1007	0.014286048
124	0x3be0bca4	0.006858425
125	0xbcce480f	-0.025180845
126	0xbbcfc62c	-0.0063407626
127	0xbcf7b95a	-0.03023975
128	0xbd823095	-0.063569225
129	0x3b36c886	0.0027890517
130	0x3b16b814	0.0022997903
131	0xbc1818a8	-0.009283222
132	0x3cc83719	0.024440335
133	0xbc442157	-0.011970839
134	0xbc6586f9	-0.014009231
135	0x3b24b24f	0.0025130694
136	0xbcfa7d2c	-0.030577265
137	0xbd000283	-0.031252395
138	0x3bbe9bb1	0.0058168997
139	0x3c4d3f04	0.012527231
140	0x3d02e962	0.031960852
141	0x3b4aab66	0.0030924915
142	0x3c283ddc	0.010268655
143	0xbc579ef9	-0.013160461
144	0xbcb782e8	-0.022401288
145	0xbc0ed9df	-0.008718937
146	0xbbb42a8c	-0.005498236
147	0xbd1cb7ac	-0.0382611
148	0xbb8ec4c8	-0.0043569542
149	0xbc14ea01	-0.009088994
150	0x3d1063a6	0.035251282
151	0x3e0773fa	0.13227835
152	0xbbea335b	-0.0071472353
153	0x3c084658	0.0083175525
154	0xbbf24b7e	-0.0073942533
155	0xbc668586	-0.01406992
156	0xbb1c4bb2	-0.002384883
157	0x3cb77e48	0.022399083
158	0x3c8e1a25	0.017346451
159	0x3ddf518f	0.10904228
160	0xbc29a0c2	-0.010353269
161	0x3c26e6fa	0.010186905
162	0x3c0433fc	0.008069035
163	0x3bbc49ad	0.0057460875
164	0xbcad4fcc	-0.021156214
165	0xbdffc1e0	-0.124881506
166	0xbbd08263	-0.0063631996
167	0x3c51aa47	0.012796945
168	0x3d0ab188	0.033860713
169	0xbb691fd5	-0.0035571952
170	0xbb2457b0	-0.002507668
171	0x3cc5eb97	0.02416019
172	0xbbd496e5	-0.0064877146
173	0xbd6c03fc	-0.057620987
174	0x3ccdfe8c	0.025145791
175	0xbc208adc	-0.009798732
176	0x3c2df38a	0.010617146
177	0x3cdd2883	0.026996857
178	0xbc96a551	-0.018389376
179	0x3c81a3b8	0.015825137
180	0xbc2e919e	-0.010654835
181	0xbc9a55cc	-0.01883974
182	0x3b1337ee	0.0022463757
183	0xbc9057a8	-0.017619923
184	0x3cb1e6df	0.021716533
185	0xbc6465ed	-0.013940317
186	0xbc97a3ce	-0.018510725
187	0xbc289bc6	-0.0102910455
188	0xbc4a3c92	-0.012343543
189	0x3b2b9deb	0.0026186656
190	0xbc363d70	-0.011123046
191	0xbcadd887	-0.021221412
192	0xb910a87d	-0.00013795677
193	0x3ce246d2	0.02762166
194	0x3bc4b000	0.006002426
195	0xbbdac141	-0.0066758697
196	0xbc4fa030	-0.012672469
197	0x3c0cbd9c	0.008590128
198	0x3c5e585e	0.013570873
199	0x3c16f790	0.009214297
200	0x3ce7c71b	0.028293183
201	0xbc8d2968	-0.017231658
202	0x3d4c837d	0.049930084
203	0xbcd7a7ee	-0.026325192
204	0x3be9f018	0.007139217
205	0x3b95a43a	0.0045666965
206	0xbccc90d9	-0.024971412
207	0x3ca63705	0.020289907
208	0x3ba11862	0.0049162367
209	0x3c5709f0	0.013124928
210	0xbc3168da	-0.010828221
211	0x39faa917	0.00047809698
212	0xbd91d204	-0.071201354
213	0x3c22805b	0.009918298
214	0x3c16d952	0.009207087
215	0xbb4a874a	-0.0030903392
216	0xbd0924dc	-0.033482417
217	0xbcf21254	-0.029549755
218	0xbbdfa248	-0.0068247654
219	0x3a34dd3c	0.00068994216
220	0xbc02bf5b	-0.007980193
221	0x3c6a842f	0.014313742
222	0x3b8cb7ff	0.004294395
223	0xbb32ff5d	-0.0027312853
224	0xbcd4f787	-0.025996936
225	0xbab779e6	-0.001399812
226	0x3cab0adf	0.020879207
227	0xbc28f52f	-0.010312363
228	0xbd02333b	-0.03178714
229	0xbbcfbab3	-0.006339395
230	0xbc6cbbe6	-0.014449095
231	0xbc8187eb	-0.015811881
232	0xbca8a570	-0.0205867
233	0xbc193552	-0.009351091
234	0xbc491344	-0.01227266
235	0x3bcb768e	0.006209201
236	0x3c468355	0.012116273
237	0x3cf515d6	0.029917639
238	0xbb30150b	-0.0026868011
239	0x3e023d2b	0.12718646
240	0xbbadb0a3	-0.0053005978
241	0x3d365f8f	0.044524726
242	0xbd3dd2e8	-0.046343714
243	0x3c44bc46	0.0120077785
244	0x3cb33452	0.021875534
245	0x3b103f8f	0.002201054
246	0xbc342880	-0.010995984
247	0xbc9871c3	-0.018608933
248	0xbc37b922	-0.011213573
249	0x3cf84bd6	0.030309599
250	0x3bcbc8b6	0.006218995
251	0x3b27a5d0	0.002558101
252	0xbb0549b3	-0.0020338118
253	0x3c81a614	0.015826263
254	0xbc1a5c37	-0.0094214
255	0x3caae24d	0.020859862

bn1.weight f4 [256]
0	0x3edc95c6	0.43083018
1	0x3d54adb6	0.051923476
2	0x3f557d25	0.8339408
3	0x3f8301b7	1.0234898
4	0xbd62ec15	-0.055400927
5	0x3d8cacc7	0.06868892
6	0x3e3218f9	0.17392339
7	0x3eeebcee	0.46628517
8	0x3d77a39d	0.06045877
9	0x3e9369b5	0.28791586
10	0x3eb2c72e	0.34917587
11	0x3d825f33	0.06365814
12	0x3eb848e7	0.3599312
13	0x3e12dbc7	0.14341651
14	0x3cf799ef	0.030224768
15	0x3e2a6313	0.16639356
16	0x3b660674	0.0035099061
17	0x3da119fb	0.078662835
18	0x3ecf3996	0.40473622
19	0x3df7d07d	0.12100313
20	0x3cf14108	0.029449955
21	0x3e0ea343	0.13929467
22	0x3d685367	0.056720164
23	0x3e677cb6	0.22606167
24	0x3ed4bd7d	0.41550818
25	0x3e18078b	0.14846627
26	0x3f805f45	1.0029074
27	0x3e15f861	0.1464553
28	0x3e1b12ea	0.15143934
29	0x3e48673d	0.19570632
30	0x3e44e6f8	0.19228733
31	0x3db62ffb	0.0889587
32	0x3e08a975	0.13345893
33	0x3ed1068f	0.40825316
34	0x3e29eec0	0.16594982
35	0x3e0d530f	0.13801216
36	0x3e4890fa	0.19586554
37	0x3e437994	0.19089347
38	0x3e06e96e	0.13174984
39	0x3e505702	0.20345691
40	0x3d40dc37	0.047085013
41	0x3eef066f	0.46684596
42	0xbe0371a5	-0.1283632
43	0x3f502ff6	0.8132318
44	0x3e287489	0.16450705
45	0x3ec9164a	0.39274818
46	0x3e0cdd6d	0.13756342
47	0x3e268f2c	0.16265553
48	0x3dd69025	0.10476712
49	0x3d4fe0db	0.05075155
50	0x3de8202a	0.1133426
51	0xbd953f71	-0.07287491
52	0x3dec0429	0.11524231
53	0x3e39f86d	0.18161173
54	0x3ecae4e2	0.3962775
55	0xbe28eac5	-0.16495807
56	0x3de8a960	0.11360431
57	0x3eae0936	0.33991402
58	0x3e6d456f	0.23171018
59	0x3e1fa90e	0.15591833
60	0x3e4abd8f	0.19798873
61	0x3de81106	0.11331372
62	0x3dcdc054	0.10046449
63	0xbd76f145	-0.060288686
64	0x3e4b6fe3	0.198669
65	0x3e4e6b12	0.20158032
66	0x3e8f41e7	0.27979967
67	0x3e289770	0.16464019
68	0x3d49ac18	0.049236387
69	0xbe017fcd	-0.12646408
70	0x3e60a022	0.21936086
71	0x3d691257	0.056902256
72	0x3f00df21	0.5034047
73	0x3e99e50b	0.30057558
74	0x3e0e4da2	0.13896802
75	0x3d801894	0.06254688
76	0x3e1bf2b2	0.152293
77	0x3f512043	0.8168985
78	0x3de7e4cc	0.113229364
79	0x3ebc4697	0.36772606
80	0x3e543536	0.20723423
81	0x3e6993b3	0.22810249
82	0x3e24fe39	0.16112603
83	0x3e44edcf	0.19231342
84	0x3e6e9076	0.23297295
85	0x3f146db5	0.579799
86	0x3b969bda	0.0045962157
87	0x3d846314	0.0646421
88	0x3e34e773	0.17666416
89	0x3f0fc0f1	0.5615378
90	0xbd90ace4	-0.07064226
91	0x3df360a1	0.11883665
92	0x3e940d46	0.28916377
93	0xbe1edc16	-0.15513644
94	0x3f2abe52	0.66696656
95	0x3e750f27	0.23931561
96	0x3e0ef2e2	0.1395984
97	0x3e760a65	0.24027403
98	0xbd39ff9f	-0.045409795
99	0x3ec574ea	0.3856576
100	0x3e1cb66f	0.15303968
101	0x3ea736b3	0.3265892
102	0x3e6fcbff	0.23417662
103	0x3e22e3e6	0.15907249
104	0x3e3d1801	0.18466188
105	0x3d86b383	0.06577208
106	0x3ec90bef	0.39266917
107	0x3e486d5a	0.19572964
108	0x3f85953d	1.0436169
109	0x3d956529	0.072946854
110	0x3f03718d	0.5134514
111	0x3e15950e	0.14607641
112	0xbbf18694	-0.0073707793
113	0x3e022f10	0.12713265
114	0x3e4edc18	0.20201147
115	0x3e76e218	0.24109685
116	0x3e820068	0.25390935
117	0x3dabb910	0.08384907
118	0x3da4c1ad	0.08044753
119	0x3da3d40a	0.079994276
120	0x3e369d12	0.17833355
121	0x3db573be	0.08859967
122	0x3e16c020	0.14721727
123	0x3d9ed647	0.07755714
124	0x3e323026	0.1740118
125	0x3e8cdacd	0.27510682
126	0x3e2f6b85	0.17130859
127	0x3d99d06a	0.07510455
128	0x3eaba3c9	0.33523396
129	0x3ed47bf2	0.41500813
130	0x3e24a804	0.16079718
131	0x3e449624	0.19197899
132	0x3e00dd24	0.12584358
133	0x3d8c857c	0.068613976
134	0x3e1c9230	0.15290141
135	0x3e0849c5	0.13309391
136	0x3dd5984a	0.104294375
137	0x3e9a05eb	0.3008264
138	0x3e14cc63	0.14531092
139	0x3e676362	0.22596505
140	0x3e4877df	0.19576977
141	0x3e5030b9	0.20331086
142	0x3df7cbe1	0.12099434
143	0x3d20d533	0.039265823
144	0x3ec0e56e	0.3767504
145	0x3db1e818	0.086868465
146	0x3e637d30	0.22215724
147	0x3f398f64	0.7248442
148	0x3e62ac67	0.22136079
149	0x3e8992e1	0.26869872
150	0x3e7fd1eb	0.24982421
151	0x3e8892f6	0.26674622
152	0x3e258b55	0.16166432
153	0xbcc15e5e	-0.023604568
154	0x3e4ced2a	0.20012346
155	0x3eb602c1	0.35548976
156	0x3c627e83	0.013824108
157	0x3f63ef10	0.89036655
158	0x3e6272ea	0.22114149
159	0x3d4eafc0	0.050460577
160	0x3f89b5ea	1.0758641
161	0x3e5251a3	0.20538954
162	0x3d1a2562	0.037633307
163	0x3f00ccbe	0.5031241
164	0x3d98dc88	0.07463938
165	0x3dc36286	0.09540276
166	0x3ec91f6d	0.39281788
167	0x3f40cce2	0.75312626
168	0x3f150323	0.5820791
169	0x3e8c40d5	0.27393213
170	0x3e9e657a	0.30936795
171	0x3d88dfcd	0.066833116
172	0x3e188cae	0.14897415
173	0x3da76186	0.08172898
174	0xbc4c6cb1	-0.012477086
175	0x3dc1cae1	0.09462524
176	0x3dc36587	0.09540849
177	0x3e15060a	0.14553085
178	0x3e77ec0a	0.24211136
179	0x3de2d1e8	0.11075193
180	0x3e074f6d	0.13213892
181	0x3de49af5	0.11162368
182	0x3e9389a3	0.28815946
183	0xbe94fa1e	-0.29097074
184	0x3e8a6625	0.27031055
185	0x3e3e44b3	0.18580894
186	0x3e865021	0.26233009
187	0x3d54dfba	0.051971175
188	0x3ea796b3	0.32732162
189	0x3ec6eec2	0.38854033
190	0x3e9976b6	0.29973382
191	0x3e3f607b	0.18689148
192	0x3e23eed6	0.16009077
193	0x3e9d17ad	0.30682126
194	0x3e69da01	0.22837068
195	0x3ea0ffdb	0.31445202
196	0x3d8ffbfb	0.07030483
197	0x3e8bb9b0	0.27290106
198	0x3d10a907	0.035317447
199	0x3e3cdbd6	0.18443236
200	0x3e247ea6	0.16063938
201	0x3ddaf5c0	0.10691404
202	0x3dcfd77b	0.101485215
203	0x3df00077	0.11718839
204	0x3ea27363	0.31728658
205	0x3df8d66b	0.12150272
206	0x3e26cdc9	0.16289438
207	0x3d971403	0.07376864
208	0x3dfd31af	0.12362992
209	0x3eecccad	0.46249905
210	0x3e0154df	0.12630032
211	0x3e27c768	0.16384661
212	0x3e767cc3	0.2407103
213	0x3e427be0	0.18992567
214	0x3e31cab5	0.17362483
215	0x3e2727f7	0.16323839
216	0x3e84fce2	0.25974184
217	0x3e8aa02d	0.2707533
218	0x3e45a6ca	0.19301906
219	0x3d92946b	0.07157215
220	0x3e0af41f	0.13569687
221	0x3da1f039	0.07907147
222	0xbd9c8fd5	-0.07644621
223	0x3e7fa386	0.24964723
224	0x3e07effe	0.13275144
225	0x3ec198b0	0.37811804
226	0x3d38dd28	0.045132786
227	0x3e39d33f	0.1814699
228	0x3e49b0b3	0.19696312
229	0x3ea98617	0.33110115
230	0x3ec31630	0.38102865
231	0x3e83dcea	0.25754482
232	0x3e773342	0.24140647
233	0x3dce4c53	0.100731514
234	0x3f667957	0.900289
235	0x3e1727de	0.14761302
236	0x3eebd566	0.46061248
237	0x3d7ae7fb	0.06125639
238	0x3e2acf69	0.16680683
239	0x3ec74618	0.38920665
240	0x3d8966a8	0.06709033
241	0x3e1a1a78	0.1504916
242	0x3d830cfb	0.0639896
243	0x3e0b7a56	0.13620886
244	0x3e0875f4	0.13326246
245	0x3daefd4b	0.085444055
246	0x3e2f375f	0.17110966
247	0x3f2751c0	0.65359116
248	0x3ed4786d	0.41498128
249	0x3dfd86fe	0.12379263
250	0x3e325e3a	0.17418757
251	0x3d6c025f	0.05761945
252	0x3edbedb8	0.42954803
253	0x3e2622cf	0.16224216
254	0x3e09121b	0.13385813
255	0x3e519edd	0.20470758

bn1.bias f4 [256]
0	0x3e5f8e97	0.21831737
1	0x3c137bfe	0.00900173
2	0x3e8af16a	0.2713731
3	0x3eabd5a5	0.33561435
4	0xbbdf1ccd	-0.0068088532
5	0x3d434adf	0.047678825
6	0x3d45b4df	0.048268195
7	0x3d805ceb	0.06267723
8	0x3d32f70e	0.04369264
9	0x3e41d3e6	0.18928489
10	0x3da3bea4	0.07995346
11	0x3cc6ef6e	0.02428409
12	0x3e1e7e88	0.15477955
13	0xbd5c9e35	-0.053861815
14	0x3c0ac96c	0.008470874
15	0x3d367b06	0.044550918
16	0xb708f537	-8.163325e-06
17	0x3d0ef2b8	0.034899443
18	0x3e81d336	0.25356454
19	0x3d560314	0.05224903
20	0x3db9f105	0.09079174
21	0x3d7cbe9e	0.061705224
22	0x3bc707b9	0.0060739187
23	0x3dc38484	0.0954676
24	0x3d548ed9	0.051894043
25	0x3d91b9a8	0.07115489
26	0x3ee688e1	0.45026305
27	0x3b9ca5b2	0.0047804946
28	0x3ccb3af1	0.024808379
29	0x3d46b7c6	0.048515104
30	0x3c9dd882	0.019268278
31	0x3d7cb495	0.061695654
32	0x3d74b751	0.059745137
33	0x3d6d85f8	0.05798909
34	0x3da10b21	0.07863451
35	0x3d92f796	0.071761295
36	0x3d40f0a1	0.04710448
37	0x3d84effe	0.064910874
38	0xbcbb2f28	-0.022849634
39	0x3e05b535	0.13057406
40	0x3d02b333	0.03190918
41	0x3d9d416f	0.07678496
42	0x3cfc3e5f	0.03079146
43	0x3dd9fad7	0.10643547
44	0x3bc59ec8	0.006030891
45	0x3dd1a2dd	0.10236142
46	0x3ce91ab7	0.028455121
47	0x3dac4cf3	0.084131144
48	0xbe3e7893	-0.18600683
49	0x3c877c97	0.016538901
50	0xbb7d2897	-0.003862893
51	0x3e2ca336	0.16859135
52	0x3cd17a66	0.02557106
53	0x3d263ef9	0.0405874
54	0x3e04f7fb	0.12985222
55	0x3dfdbd3d	0.1238961
56	0x3d6e0dc2	0.05811859
57	0x3e621142	0.22076896
58	0x3e4482bd	0.19190498
59	0x3d391ca2	0.045193322
60	0x3cac5601	0.021037104
61	0x3d43a71c	0.04776679
62	0xbc4a84d4	-0.01236077
63	0x3be560b3	0.007000053
64	0x3d628124	0.05529894
65	0x3df2137d	0.11820123
66	0xbd54f72b	-0.05199353
67	0x3ce93e3f	0.028472064
68	0xbcc7e827	-0.024402691
69	0xbd279c9d	-0.040920842
70	0x3dd986c7	0.1062141
71	0x3c9f82d3	0.019471562
72	0x3d5d27f4	0.05399318
73	0x3e26e7ef	0.16299413
74	0x3d96cf17	0.07363718
75	0xbc91d85a	-0.01780336
76	0x3cedc5ed	0.029025042
77	0x3d7b2b1c	0.06132041
78	0x3d5c0f31	0.053725425
79	0x3da49b61	0.08037449
80	0x3e19f27d	0.15033908
81	0x3d1fc3c0	0.03900504
82	0x3d4a45fd	0.049383152
83	0x3d7e1d2c	0.06203954
84	0x3d56db0a	0.052454986
85	0x3e7f6f3a	0.24944773
86	0xba794fc3	-0.00095104816
87	0x3c5a2fd8	0.013317071
88	0x3d5868d3	0.052834343
89	0x3dcddfc8	0.100524485
90	0xbb980dfd	-0.0046403394
91	0x3ce51031	0.027961822
92	0x3e024102	0.12720111
93	0xbcfa4723	-0.030551499
94	0x3d7eed64	0.062238112
95	0x3d79fd8e	0.061032824
96	0x3d5ebbb3	0.054378223
97	0x3db8945e	0.09012674
98	0xbcaa2c26	-0.020773005
99	0x3e527dbf	0.20555781
100	0x3d9baad5	0.07600943
101	0x3debb37f	0.115088455
102	0x3df675e4	0.120342046
103	0x3a9e23c4	0.0012065102
104	0x3daba42b	0.08380922
105	0xbb837afc	-0.0040124636
106	0x3e4caf44	0.19988734
107	0x3ccb5db7	0.02482496
108	0x3ed45c32	0.4147659
109	0xbc36d0a0	-0.0111581385
110	0x3e86d198	0.26331782
111	0x3d15d2ee	0.03657811
112	0xba079273	-0.0005171664
113	0x3d106b1c	0.035258397
114	0x3d33f64c	0.04393606
115	0x3d925893	0.071458004
116	0x3e124cb8	0.14287078
117	0x3cd8ca9c	0.0264638
118	0x3cf13a54	0.029446758
119	0x3c4fa56f	0.01267372
120	0x3d5c9ad0	0.05385858
121	0x3ccfa999	0.025349425
122	0x3d1eb108	0.03874305
123	0x3ccc700a	0.024955768
124	0x3db25cf6	0.08709137
125	0x3e3005bb	0.17189686
126	0x3d61d770	0.055137098
127	0x3d033c6d	0.03204005
128	0x3d8a70ef	0.067598216
129	0x3ded3bf7	0.11583703
130	0x3d288209	0.041139636
131	0x3da28ce5	0.0793703
132	0x3d656892	0.05600793
133	0xbc282a8a	-0.010264048
134	0x3d915d65	0.07097892
135	0x3cd352d8	0.025796339
136	0x3b888f4b	0.0041674725
137	0x3dcb15ec	0.09916291
138	0x3d523209	0.05131725
139	0x3d9dbf7f	0.077025406
140	0x3d6af4b7	0.057362285
141	0xbcecbebe	-0.028899547
142	0x3ca3a916	0.019978087
143	0xbe223746	-0.15841398
144	0x3d39c284	0.04535152
145	0x3cf14ea8	0.029456452
146	0x3c9050ea	0.017616708
147	0x3e83a06b	0.25708327
148	0x3d80d37a	0.06290336
149	0x3d612acc	0.054972455
150	0x3d1e1b64	0.03860034
151	0x3d86a2dc	0.06574032
152	0x3da11a9d	0.07866404
153	0x3e030d51	0.12798049
154	0x3dfc8b2f	0.12331235
155	0x3e1c5100	0.15265274
156	0xb9a33291	-0.00031127458
157	0x3e4caf54	0.19988757
158	0x3e1ba329	0.1519896
159	0xbe29e9a7	-0.16593038
160	0x3d23fb8c	0.040034816
161	0x3e060b59	0.13090266
162	0x3ad1a32d	0.0015994065
163	0x3e05f136	0.13080296
164	0x3caefb61	0.021360101
165	0x3cb5b91c	0.022182994
166	0x3e338611	0.17531611
167	0x3db3cd67	0.08779412
168	0x3e9cd4eb	0.30631194
169	0x3da38005	0.07983402
170	0x3d83f7e5	0.064437665
171	0x3c7fc296	0.015610358
172	0x3d3ad0a4	0.04560913
173	0x3c233a07	0.009962565
174	0xbbaa9683	-0.0052059307
175	0x3d213dd1	0.039365593
176	0xbc38df83	-0.011283758
177	0x3d6043a3	0.054752003
178	0x3e147d6f	0.14500974
179	0x3dd08ce2	0.10183121
180	0x3d2f6eec	0.042830393
181	0x3d189f05	0.037261028
182	0x3dc163c2	0.094428554
183	0xbd59237a	-0.05301235
184	0x3de67a22	0.11253764
185	0x3d79dd4b	0.061002057
186	0x3c3e652f	0.011620804
187	0x3cdab87d	0.026699299
188	0xbd616ec2	-0.055037268
189	0x3e344cc2	0.17607406
190	0x3e7e446a	0.24830785
191	0x3db508de	0.08839582
192	0x3daa3643	0.08311131
193	0x3d9b78a4	0.0759137
194	0x3d431e56	0.047636352
195	0x3e17f096	0.1483787
196	0x3c36776d	0.011136872
197	0x3dc29ee8	0.09502965
198	0x3b485b59	0.0030572026
199	0x3d0adc11	0.033901278
200	0x3d337224	0.043810025
201	0xbcb7acd3	-0.022421276
202	0x3c89972a	0.016795713
203	0x3d881a44	0.06645635
204	0x3e376c76	0.17912468
205	0x3dc580dd	0.09643719
206	0x3d073197	0.033006277
207	0x3c1d9457	0.0096178865
208	0x3cdfe8ed	0.027332747
209	0x3e893ad1	0.26802686
210	0x3cefbc8a	0.029264707
211	0x3d2fa915	0.04288586
212	0x3d001aff	0.031275745
213	0x3e66fc7e	0.22557256
214	0x3cd37857	0.025814218
215	0x3d932ab2	0.07185878
216	0x3d480300	0.048830986
217	0x3d79bc26	0.060970448
218	0x3d0b6e75	0.034040887
219	0xbcc50c09	-0.02405359
220	0x3d954cfb	0.072900735
221	0x3c9c12c7	0.019051922
222	0xbca0259e	-0.019549187
223	0x3deade2f	0.114681594
224	0x3d0549e0	0.032541156
225	0x3e35dace	0.17759249
226	0x3cf6a756	0.030109089
227	0x3d7a6874	0.06113477
228	0x3dbdb921	0.09263826
229	0x3ddc0451	0.10743011
230	0x3ded217b	0.115786515
231	0x3de3ea36	0.111286566
232	0x3e033e1a	0.12816659
233	0x3c83e0c4	0.016098388
234	0x3e4bbe69	0.19896854
235	0x3d6221d7	0.055208053
236	0x3e19d8be	0.15024087
237	0xbc3fb4dc	-0.011700835
238	0x3d940c74	0.07228938
239	0x3e198c3a	0.14994898
240	0x3b3e3216	0.0029021553
241	0x3d5685c2	0.052373655
242	0x3cb984b3	0.022646284
243	0x3c9e3c10	0.01931575
244	0x3d5491a4	0.051896706
245	0x3e5a2438	0.21302879
246	0x3dc9a5a8	0.098460495
247	0x3e8be511	0.273232
248	0x3c7c0eac	0.015384357
249	0x3c0cb9eb	0.008589248
250	0x3d078b1b	0.033091646
251	0xbc72edeb	-0.014827232
252	0x3c9a2a71	0.018819066
253	0x3d7c9839	0.06166861
254	0xbd1c87a8	-0.03821531
255	0x3d04d917	0.032433596
