checkpoint_actor_agent_0.pth (torch_old, 296357 bytes, 10 tensors)

fc1.weight f4 [256, 24]
00000000: 2d9d 15bb da7d dd3d 7fdb f9bc 7855 7e3c
00000010: 8e93 a33d e84a 20be d5b7 c03b 86a2 92bc
00000020: d478 2ebc abe8 c83d 5ae5 abbc 8632 f8bc
00000030: f0e6 6c3d a54e 9abd c638 4bbc 4597 f9bb
00000040: 952d 3ebc cbdb 843d 49a4 dcbc 5759 e83c
00000050: 2a6e 9a3d c48c b43c 9efd ba3c aff4 003d
00000060: 23bd 263c 5013 3d3d 296c 413d e6b0 8fbd
00000070: 1352 12bd 4df3 d0bd 68f1 21bd 72bc 563c
00000080: f4a4 31bd fd73 8b3d 0a13 643b 31b7 c5bd
00000090: 9b4e d8bc acb1 6a3c 96b9 493a 97f1 35bd
000000a0: 5931 a3bd f0d9 8b3d 666c 8e3d be9e d13b
000000b0: fdab d9bc 9bb2 60bd 25ea c53d bb8d 86bb
000000c0: 6b6b 683d 921d 18bd 4648 87bc 2496 413d
000000d0: a6f6 453c af49 1bbc 1610 db3c e1c9 76bc
000000e0: 5b2c 773d 8019 2dbd 9310 bc3c 34e8 f93c
000000f0: 96a3 603d 7347 533e 052b 54bc 5e64 a03c
00000100: 7336 403d 00a0 83bc 6642 19bd cb35 1f3d
00000110: a9cb 0c3d 7ae0 693e e146 733c 06a7 983d
00000120: 63f2 933c ee30 e63d 5b4d 273b 9cc3 863b
00000130: 6477 a13b 4bee 8cbd 6150 803b 91bb bb3d
00000140: 90d9 b33b 8e16 c93d e502 9bbb 3ee0 24bd
00000150: 1755 e8bc 565c 26be d563 8ebd 7109 073d
00000160: 5c1a d43d c5a6 443e 809f 173d 9554 033c
00000170: 9b09 863d 3e2c b5bd 923d 0ebc 4172 d2bc
00000180: bafd e2bc 4edf 14be 67a4 a53c 69a2 f2bd
00000190: 65f7 71bc a189 013d 6034 733d 4892 10be
000001a0: b6e1 fc3c 6a16 f9bd a47c af3c 3d7e 953c
000001b0: a570 f7bc 270c a73d 324d 0dbd 2b51 d5bb
000001c0: 09f3 1abd 43dc 57bd 61ca 88bc e8e7 353c
000001d0: 7bd0 be3d 3dd5 c83d 08ef 03bd ca53 15bc
000001e0: 5778 653d 7e79 04bd c532 bfbd f70f b0bc
000001f0: 2b17 63bd 56a7 a93c dc21 fcbc d128 323c
00000200: 1763 803d 596b 523d d0bf 1dbc f49a fe3c
00000210: 6115 2e3d c404 a83c b72b aebb 8708 d2bc
00000220: a55f 723d b804 173d 8e1e 0c3c b6ec 8fbd
00000230: 6ace 7dbc 2345 a93d 1d00 80bd cf1d 0fbe
00000240: 9e72 4a3d 5175 9abd 2d0f ccbc 4329 153c
00000250: 37b4 8abd 95a9 2bbd c63f 143d e9f2 14bc
00000260: 3655 803c 9d4e 8dbd 1b2b dd3b e617 b03b
00000270: 736a 15bd 94b7 f0bd 01b5 10bb 7ed8 12bd
00000280: 3f4f c63d 3f3d 8a3b 767e 373d fbbb 1d3d
00000290: 718d c4bd f971 44be f0c8 1fbd 6088 4ebc
000002a0: a4c1 173d c9af 603d 3350 153c 03d8 113d
000002b0: 5391 363d e109 12be 8712 b73c 8992 fdbc
000002c0: edd9 153d 8448 86bd 3a70 e93c 00b2 3cbd
000002d0: d2f3 d83c 41fe 16be 2f69 9abc 564d 21bd
000002e0: d082 a6bc 7449 9bbd a1ea 5ebd 3b6c 99bc
000002f0: 62c0 773d 4549 22be 1f28 4f3d b87e 1b3d
00000300: def8 07bd 3b4b 86bd ad9d 60bd 827b c33c
00000310: 553c 36bd be2c 8dbd b349 333d 63d3 563d
00000320: bae0 02bd 8c51 abbd 96b8 32bd 8bee f23c
00000330: 9dcf 773c 561e 04be 7e16 b43c f065 a83c
00000340: d7b0 d83c 1371 a7bc 7bcf 043c 06f2 f63d
00000350: ddd4 9b3c dd8c afbd 4698 2dbb 4ff5 ff3d
00000360: 6906 9fbd c4cd a8bb 869b c53c 7bca fb3a
00000370: e1c8 233d 5cb2 1dbd 4b5b d6bc d8cc cf3c
00000380: 90d6 d03c 595d 93bd a6b7 ef3c 1136 233d
00000390: 40dd 5d3c cc61 acbd 33a7 5abc f98e 39bd
000003a0: ffe7 a53d 8c51 963c 946c b73c 9023 e23c
000003b0: 7f62 bd3c 7763 b1be eccf 8fbc c4d7 c5bb
000003c0: 60a9 293b 18d2 353d 7362 46bc 00e7 1c3c
000003d0: 4e78 d93d 5b18 f83b fa25 99bc ac64 133d
000003e0: a5b2 bcbd d246 a43c da0a 08bd c012 b73b
000003f0: 46bc e43d 1fa3 9a3c 8e6f 463d 2b70 70bc
-0.002282928 0.1081502 -0.030500172 0.015523307 0.07987128 -0.15653574 0.0058812895 -0.017899763
-0.010648925 0.09810003 -0.020983387 -0.030297529 0.057837427 -0.075345315 -0.012403673 -0.0076169097
-0.011607547 0.06487235 -0.026933806 0.028362913 0.075405434 0.022039779 0.022826012 0.03148335
0.01017693 0.046160996 0.04722229 -0.070161626 -0.035722803 -0.10202656 -0.039536864 0.013106452
-0.043370202 0.068092324 0.0034801387 -0.096540816 -0.02640467 0.014324587 0.0007695196 -0.04441985
-0.07968397 0.06828678 0.06954269 0.0063970974 -0.026571268 -0.05485783 0.096638 -0.004106251
0.056743067 -0.037137575 -0.016513955 0.047262326 0.012082731 -0.009478017 0.026741069 -0.01506278
0.060345035 -0.042260647 0.022957122 0.03050623 0.054843508 0.20632724 -0.01294971 0.019579109
0.046926927 -0.016067505 -0.037416838 0.03886966 0.034373913 0.22839537 0.014848442 0.07453732
0.018059915 0.11239801 0.0025528285 0.004112674 0.0049275625 -0.06881388 0.003915832 0.09166635
0.005488582 0.09818755 -0.0047305697 -0.040252917 -0.028360886 -0.16246161 -0.06952635 0.03296799
0.1035659 0.19204243 0.037017345 0.008015771 0.06544801 -0.08846329 -0.008681672 -0.025689246
-0.027708877 -0.14538309 0.020219995 -0.118473835 -0.014768456 0.031625394 0.05937612 -0.14118302
0.030869346 -0.12162478 0.021421738 0.018248672 -0.03020508 0.08156615 -0.034497447 -0.00650992
-0.037829433 -0.052700292 -0.016698064 0.011102654 0.09317108 0.09806297 -0.03221038 -0.009114215
0.05602297 -0.032342426 -0.093358554 -0.021491988 -0.055442017 0.020709675 -0.030777864 0.010873989
0.062689 0.051371906 -0.009628251 0.031079747 0.042500857 0.020510085 -0.00531527 -0.025638832
0.059173245 0.036869735 0.008552207 -0.07027571 -0.0154911075 0.0826514 -0.062500216 -0.13976215
0.049425714 -0.075419076 -0.02490958 0.009104076 -0.067726545 -0.041909773 0.03619363 -0.009091117
0.015665632 -0.0689976 0.0067495233 0.0053739427 -0.03647847 -0.11753765 -0.0022080543 -0.035850994
0.09683084 0.004218727 0.044798337 0.03850935 -0.0959729 -0.19184102 -0.03900999 -0.0126057565
0.037049904 0.05485514 0.009113359 0.035606395 0.044572186 -0.14261581 0.022347702 -0.030953662
0.036584783 -0.065568 0.028495897 -0.04606819 0.02648345 -0.14745428 -0.018848984 -0.039380394
-0.020326048 -0.075823694 -0.05442298 -0.018728366 0.060486205 -0.15848263 0.05057537 0.037962645
-0.033196323 -0.06557318 -0.05483787 0.023862604 -0.04449113 -0.068932995 0.043771457 0.052447688
-0.031952597 -0.08365163 -0.043633066 0.029654762 0.015125182 -0.12902197 0.021983381 0.02055642
0.026451511 -0.02043966 0.008106108 0.12057881 0.0190224 -0.085717894 -0.0026488467 0.12497961
-0.077648945 -0.0051514823 0.02412201 0.0019210124 0.039986495 -0.038500175 -0.026166579 0.025366232
0.025492936 -0.07195539 0.029262375 0.039846484 0.01354152 -0.08417091 -0.013345527 -0.045302365
0.0810089 0.018349431 0.022390641 0.027604848 0.023118256 -0.34646198 -0.0175552 -0.006037684
0.002588831 0.044389814 -0.012108433 0.009576559 0.106186494 0.007571263 -0.018694866 0.03598468
-0.09213761 0.020053301 -0.033213474 0.005586952 0.11168723 0.01887661 0.04844623 -0.01467518

fc1.bias f4 [256]
00000000: bc32 47be 12d5 073e 0a4f 213d 4d97 5b3d
00000010: a620 41bd 731d 6abe 8556 69be 2468 b7bd
00000020: 7825 80be 7bfe 80be d9fc b23d 17d2 21be
00000030: 2f6d dabc 11e6 62be 07d4 003d fb47 033e
00000040: b03a 09be 5fd5 e13c 6da2 f7bd f8c3 68be
00000050: da0f c73d 55dc 64be 2516 f9bd b4c2 90be
00000060: e50f 67bd e558 c1be a1c9 8f3d 2f46 c3bd
00000070: ea2d 74be bee3 07be 5a5c c6bd c36d 24be
00000080: 5e33 b4bd 28e4 23bd 6121 01be 5b8b fb3c
00000090: 1fe2 52be 0363 5e3e 3a55 7fbc 2a15 933d
000000a0: e1eb dcbd 3772 37be afbd 20bd df95 3fbe
000000b0: cf9b 00be c17e 0dbe 6075 2abd 64b8 5dbe
000000c0: 1e9e 083e 22b5 2f3e aa5a 5fbe 0560 0c3d
000000d0: cea9 76bd cc6b 33be 006f 4dbd 72b8 00be
000000e0: dd1a 6e3d aae5 28be e28d 27be 4f87 a23d
000000f0: b164 8539 1dd7 503d bb50 5ebd e9ad 2dbe
00000100: fe2e 19bc a130 a2bd 6154 83be 047f 593c
00000110: 2531 38be e2a1 5abe 3711 2fbe 65d4 2bbe
00000120: 23aa 3dbe 246b 2ebe 1cdf 0ebe 2cc9 e83c
00000130: c468 9a3d 0851 203e 6173 dd3c 4e63 b43b
00000140: 7ebe ccbd ba86 d5bd 587d 38be dd51 86be
00000150: 638b 843d 0c7e 32be 8023 34be 5f4b dcbd
00000160: 5f0d 0dbe 4bd0 a93d 0f37 33bd c1ef 0fbd
00000170: 23f7 9abe f783 123d a9e5 80be 3897 10be
00000180: 8dc9 c43d f9f7 79be 24de 8b3e bcad 57bd
00000190: 04d6 0d3e 8104 82bc 8af7 8b3d 15a1 783c
000001a0: 9fd6 0bbe 2b88 873d 591e a73d 0f47 adbc
000001b0: 5470 0bbd b716 34be 2eb3 12be e20b 6fbe
000001c0: a518 26be 3ab4 7ebe f136 1fbe 12d7 803d
000001d0: d0b1 753d 6ce9 8abe 2d29 8ebe ca7b 573d
000001e0: c9e4 79bd fbbb 57bd cae7 83bd a774 0e3e
000001f0: 63bb 973d 96c9 41bd ed0a 89bd 5330 32bb
00000200: d2b4 b93d 6dfb 85be 84f6 4ebe efc5 f23d
00000210: 9bf4 84be 374a 0b3e 16a8 8a3c f622 873c
00000220: 819f 373d c63b 3d3d fa51 023e a9d4 7d3d
00000230: 5e4c bfbd a4e0 55be aec5 e63d 7711 6ebd
00000240: 54cc f03d 4732 50be 9ccc 3abe 2fc0 2ebe
00000250: f0fa c2bc 3066 263e 5d2e 3fbd 0fb7 9f3d
00000260: d98a 943c 273d efbd e008 b23d 9a91 e93b
00000270: f88b da3d 9a60 b5bd f606 e3bc 8e0a e1bc
00000280: a3f2 00be 60a9 ae3d 9c3c 2ebe 4074 33bd
00000290: 114f 2dbe b20a c13d f3e8 c5bc dde5 d13d
000002a0: 362a df3d 6ea3 383e c85f 9cbd 64d4 83be
000002b0: 4510 80be c3ca 5cbe 71d1 67be 77e9 3abe
000002c0: d24e b9bd a3c9 eb3d 8019 b9bd 1cde 29bd
000002d0: d7b0 34be ce1b ec3c 52f6 ce3d 129d 9bbc
000002e0: 6f95 e53d 898e 80be 1e49 61be ce59 06be
000002f0: c1ca e9bd 2014 383d 58f0 a83d fddf 9b3c
00000300: f1f2 8fbd 7f58 1cbe c45f 673e b641 84be
00000310: 97ee 6dbe 3e1a cf3d eb5a 203c 93fb bb3b
00000320: 02e8 27bc 54f5 17be 3b21 0cbe c674 bcbd
00000330: 9261 293e 97b8 1e3e 4422 01bd 3c5e 2c3d
00000340: 7e61 b3bd 2899 8bbe 14ac f1bd 0c46 a2bd
00000350: 8714 093e 9b44 fbbd 12d1 52be 8be6 2cbe
00000360: b0c2 043e 8fba 603a b348 4f3d 5055 51bd
00000370: a98b 15be fbca 5dbd 8ffc 393e dda1 16be
00000380: 32da 3abd fda8 6abe 80fb 043d 14d9 0fbe
00000390: 6c62 d8bb 12d5 60be 3687 f43d 8ded fc3d
000003a0: 987d 3bbe a0e8 eabd b5cb 0c3e 1399 9fbd
000003b0: b7e3 93be b252 00bc 6fc3 efbb 8958 36bc
000003c0: af03 5ebe 34dc 9fbe 4b7c dd3d 9701 24bd
000003d0: 210b 02be b3a6 3b3e 59ca d0bd 6ff1 22be
000003e0: c6e0 e8bd 4766 2dbe dbde 22be b9b1 19be
000003f0: 3bc7 9f3d 2296 153e bdad 73be d2db 233e
-0.19452947 0.13264874 0.03938202 0.05361109 -0.047150277 -0.22862796 -0.22786911 -0.0895541
-0.25028586 -0.25194153 0.08739633 -0.15802799 -0.02666339 -0.22158076 0.031452205 0.12820427
-0.13401294 0.027567564 -0.12091527 -0.22731006 0.0971982 -0.22349675 -0.12162427 -0.28273547
-0.056411643 -0.37763134 0.070208795 -0.09534871 -0.2384564 -0.1327047 -0.096855834 -0.16057496
-0.0879886 -0.04001251 -0.1261039 0.030706098 -0.20594071 0.21717457 -0.015584284 0.07181771
-0.10787178 -0.17914663 -0.039243396 -0.18709515 -0.12559436 -0.13817884 -0.041615844 -0.2165237
0.13341567 0.1715894 -0.2181193 0.03427126 -0.060220532 -0.1752159 -0.050154686 -0.1257036
0.058131088 -0.1649386 -0.16362718 0.07935964 0.00025442758 0.050986398 -0.05427621 -0.16960873
-0.009349583 -0.079194315 -0.25650313 0.013274912 -0.17987497 -0.21350816 -0.1709641 -0.16780241
-0.18521933 -0.17033058 -0.13952297 0.028416239 0.07539514 0.15655911 0.027032556 0.005505002
-0.09997271 -0.10426088 -0.18016565 -0.26234332 0.064718984 -0.17430896 -0.17591667 -0.107565634
-0.13774632 0.08291682 -0.04375368 -0.035140757 -0.30266675 0.035770383 -0.25175217 -0.14120185
0.09608755 -0.24411 0.27317917 -0.05265592 0.13851172 -0.015871288 0.06834324 0.015175124
-0.1365609 0.06617769 0.08160085 -0.021152047 -0.03404267 -0.1758679 -0.14326164 -0.23344377
-0.16220339 -0.24873438 -0.15548302 0.062910214 0.05998403 -0.27131212 -0.2776579 0.05260829
-0.061009202 -0.052669507 -0.06440695 0.13911687 0.07408788 -0.047311388 -0.06691537 -0.0027189448
0.09067692 -0.26168385 -0.20211226 0.11854159 -0.2596787 0.1360253 0.016925853 0.016496163
0.04482985 0.046199583 0.12726584 0.061970387 -0.09340738 -0.20886475 0.11268173 -0.058122125
0.117577225 -0.2033168 -0.18242115 -0.170655 -0.023801297 0.16249919 -0.046675075 0.077985875
0.018132614 -0.11681586 0.08693099 0.0071279528 0.10671228 -0.08856316 -0.02771328 -0.027470853
-0.12592559 0.085283995 -0.17015308 -0.043812037 -0.16924693 0.09425868 -0.02415893 0.10248921
0.10896723 0.18031093 -0.07635456 -0.2574798 -0.25012413 -0.21561722 -0.2263849 -0.18253122
-0.09048237 0.115130685 -0.09038067 -0.041471586 -0.17645584 0.028821852 0.101055756 -0.018995795
0.11210143 -0.25108746 -0.22000548 -0.13120195 -0.11415625 0.044941068 0.08248967 0.019027704
-0.07028759 -0.15268134 0.22595125 -0.25831383 -0.23235546 0.10112427 0.0097873015 0.005736777
-0.010248186 -0.14839679 -0.13684551 -0.0920196 0.16541126 0.15500103 -0.03152682 0.042082056
-0.087588295 -0.27265286 -0.118003994 -0.07923517 0.13386737 -0.12268945 -0.20587566 -0.1688482
0.12964892 0.0008572721 0.05060644 -0.05110675 -0.14604057 -0.054148655 0.1816275 -0.14710183
-0.045618244 -0.22916026 0.03246641 -0.14047652 -0.0066035297 -0.2195628 0.11939852 0.12349997
-0.18309629 -0.11470151 0.13749583 -0.077928685 -0.2888467 -0.007832216 -0.0073169987 -0.011129507
-0.21681093 -0.3122269 0.108147226 -0.04004058 -0.12699558 0.1832531 -0.10194845 -0.15912412
-0.11370997 -0.16933547 -0.15905325 -0.15009202 0.07801672 0.14608052 -0.23796745 0.16001824

fc2.weight f4 [256, 256]
00000000: 5bef 5d3d d94e 7b3c 7a6d f03c f41d 353d
00000010: 0cb6 963d 054a 883d c819 84bc 4734 c73c
00000020: 8c6d 12be d510 07bd a789 cbbd 0f39 ee3d
00000030: 4673 b93c 8599 863d 05c8 7bbe 2b90 d73d
00000040: ec8c e63d 3381 af3d 03a7 d6bd 084c c53d
00000050: fbd2 a3bc ab0e 2b3d 2239 85be d022 483a
00000060: c356 d2bd f3a2 81be b647 b7bd 4b15 843c
00000070: acb0 e03c e3b4 9d3d fb6d 843d 9c04 403e
00000080: 8e1d 9b3d 2cc3 4e3d 4cc7 b6bd 2175 b13d
00000090: e4f8 6b3c f134 3fbd 4b05 5a3b fbbc b6bd
000000a0: 60c7 173c 0158 14bd 198a 9d3d 61bb 233e
000000b0: 4fb6 af3c b157 723d 9e7b 9b3b 4d03 453e
000000c0: 59fa 1cbd f7f1 823c d846 293d 2a1f acbc
000000d0: af3e a43d e1da 93bd 5cb3 d03c 9dc8 f03c
000000e0: d453 66bb 4154 be3b 9233 133d cd18 51bd
000000f0: d9fa 313b c8ee a33b a387 90bd f45d 3e3d
00000100: a2eb 7d3d 0296 873d 82f0 dd3d 5ef7 69bd
00000110: 67bf 00bd 09c9 3e3d d717 ddbc 9eee 223d
00000120: dad6 663d 71e2 433d 82b9 fabd c626 33be
00000130: 0a2e 833c a65a f0bc c3ea 9ebd 5016 7ebd
00000140: e019 b4bd 2e37 b93d 7551 fc3c 9c3e 1dbd
00000150: 60bb ab3d e05e 8c3d e157 63bd 0004 973d
00000160: aeec 803d ea24 dcbc 006f 07bd 2bb5 c73c
00000170: b12b 63be b2f7 edbd a8c4 003d ec50 b0bd
00000180: ba20 68bc 5f58 b0bb daee 0e3d b63b d23b
00000190: 17d6 543c 1905 103c 2003 babd f9ff e33d
000001a0: 5d89 14be 4ad8 f1ba a6e2 853d 0a61 fbbb
000001b0: b2c2 b9bd cd03 7bbd 81a5 823d 12d5 ecbb
000001c0: e9f3 653e 75c1 0abd 8a6e 36bd 5222 433d
000001d0: ff90 dc3b 8824 f5bd 05f6 cc3c 5aa0 963b
000001e0: aaaf 343d 204d e2bd 6cbf dc3d 1d7f 99be
000001f0: e85c 8abe 0f24 debd 5c98 ed3d cfc9 f33d
00000200: a79f a63d b77b 393d f700 0cbc d65f f1bb
00000210: 6e64 18bd 82cc a43c 10ad 91bd cb40 31be
00000220: d3a1 8c3d 4a77 c83c 4dcb 623d 9fb1 c5bb
00000230: aa63 df3d 608b 593d 99d7 59bc aa9c 643d
00000240: 05bb 61bb 76e9 a93d d7ad 82bd 942e 61bd
00000250: af9a b53c f6b3 813c 2f45 383d 052f b03d
00000260: b254 0ebe 99c2 8abd e903 863c 370f 2e3d
00000270: 9411 ab3c ba7d b33d a5cc e9bd 1bdb 603d
00000280: 5b65 413d fad5 2abd 494d a0bd f065 fb3c
00000290: f979 983c a3f9 613d dd16 7cbe 2d66 9fbe
000002a0: ad98 1abe ddcf 74bd a507 f83b 8f80 bc3c
000002b0: 6d4f 743d 8db6 2dbe cdb3 463d d280 6e3d
000002c0: 2027 873d 9778 2abd b03f cabb e8f6 ac3d
000002d0: b039 e0bd f98f f53d 4197 55bd c712 c03d
000002e0: 66e6 a63d d083 2e3d b6ed 00be a5a1 7d3d
000002f0: bc55 b23d a8c3 05be c254 4f3e 9578 4c3e
00000300: d8c7 adbd c2a8 743d a7ce 40bc 8816 683d
00000310: 5010 2f3d 1deb d3bc e16d 563d bec6 653d
00000320: a20a 643e 2a3d 753d 19e7 ee3c 3041 dc3d
00000330: 48d1 63bd 355c 2b3e 30a9 bb3b 2c04 23bd
00000340: 7841 ac3c 0460 2fbe 9dc3 773d fcb8 0abe
00000350: a708 b9bd f8c0 6fbd d6a7 eb3d 3ad1 463d
00000360: 5c19 503d ea20 bd3b 5f79 0cbc 0f40 21be
00000370: f03a 5ebd 6b7a 0cbe 9d88 623d e07a 153c
00000380: 6fc6 17bd 124f 93bd 0e36 713d d841 6f3d
00000390: b3bd 47bd 4ba4 c6bd 53d5 453d ca49 083d
000003a0: 8418 28be b5ea ef3c b6d6 9bbb 4c19 85bd
000003b0: 25c1 94bd a698 a83d e12d fb3b 3991 a63a
000003c0: 2306 c13d 0b59 ee3b c0a4 0cbd 0d86 383d
000003d0: 42cd 84bd d461 b3bd 3c20 90bc 918b d9bc
000003e0: de9f 0fbd 004e 9d3d e37c cf3d 91d1 573d
000003f0: 6a29 ceba 49d6 0f3d 9448 1f3e 1c51 523d
0.054183345 0.015338623 0.029349077 0.04421802 0.073589414 0.06654743 -0.016125575 0.02431692
-0.14299601 -0.032975037 -0.099383645 0.11631977 0.022637974 0.0657225 -0.2458802 0.10525545
0.112573475 0.08569565 -0.10481074 0.096336424 -0.019998064 0.041762035 -0.2602015 0.0007634582
-0.10270455 -0.25319633 -0.08949225 0.016123435 0.027427994 0.07700517 0.064662896 0.18751758
0.075739965 0.0504791 -0.089247316 0.08664919 0.014402602 -0.04668135 0.0033267315 -0.08922764
0.009263843 -0.03621674 0.07692356 0.15989448 0.021449236 0.05916566 0.004744961 0.1923954
-0.038324688 0.015984518 0.041327327 -0.021010954 0.080197684 -0.07219482 0.02547615 0.029392535
-0.003514518 0.0058083837 0.035937853 -0.051049042 0.0027157573 0.00500283 -0.07057121 0.04647632
0.061992295 0.066204086 0.10836889 -0.057120673 -0.031432535 0.04657844 -0.026988907 0.039778344
0.056357242 0.047823373 -0.12242414 -0.1749526 0.016013164 -0.0293401 -0.07759621 -0.062032998
-0.08793998 0.09043728 0.03080056 -0.038389787 0.08385348 0.068540335 -0.05550373 0.0737381
0.06295143 -0.02687307 -0.033064842 0.02437838 -0.22184636 -0.1161951 0.031437546 -0.086091846
-0.014167959 -0.0053816284 0.034895755 0.0064158095 0.012990496 0.008790278 -0.09082627 0.11132807
-0.14505525 -0.00184513 0.065373704 -0.00767148 -0.09070338 -0.06128292 0.063792236 -0.0072275484
0.22456326 -0.0338759 -0.044539012 0.047640152 0.006731152 -0.119698584 0.025019655 0.004596752
0.04411284 -0.11049867 0.10778698 -0.29979792 -0.27024007 -0.108467214 0.11601326 0.11903726
0.0813592 0.045284 -0.008545152 -0.007366161 -0.037205152 0.020117048 -0.07113087 -0.17309873
0.06866803 0.024470944 0.055369664 -0.006033137 0.10907681 0.053111434 -0.013296031 0.05581347
-0.0034443748 0.08296482 -0.063808136 -0.05497606 0.022168485 0.015832882 0.044987854 0.08602718
-0.13899496 -0.06775398 0.016359286 0.04249498 0.020882405 0.08764215 -0.11415986 0.054896455
0.0472158 -0.04170797 -0.07827241 0.030688256 0.018612849 0.055169713 -0.24618097 -0.3113264
-0.15097304 -0.059768546 0.0075692707 0.02301052 0.05964606 -0.16964169 0.048511315 0.05822832
0.065992594 -0.04161891 -0.006172143 0.08445531 -0.10948503 0.11990351 -0.0521462 0.093785815
0.08149414 0.042606175 -0.1259068 0.061921734 0.08707759 -0.13062918 0.20247176 0.19967873
-0.08485383 0.059731252 -0.01176802 0.056662112 0.042740166 -0.025868947 0.052350882 0.05609774
0.22269681 0.059872784 0.02916293 0.10754621 -0.055619508 0.16734393 0.005726956 -0.0397989
0.021027312 -0.17126471 0.060489286 -0.13547128 -0.090348534 -0.05853364 0.115066215 0.048539378
0.050805435 0.005771746 -0.008573859 -0.15747093 -0.054255426 -0.13718574 0.055306066 0.009123534
-0.037054475 -0.07192816 0.05888944 0.058412403 -0.048764896 -0.09699305 0.048299145 0.033273496
-0.16415602 0.029286722 -0.00475582 -0.064989656 -0.07263402 0.082322404 0.0076653813 0.0012708075
0.094249986 0.0072737983 -0.034336805 0.045049716 -0.06484462 -0.087588936 -0.017593496 -0.026555808
-0.03506457 0.07680893 0.10131242 0.052690092 -0.0015728895 0.035116468 0.1555503 0.051346883

fc2.bias f4 [256]
00000000: ae72 3e3e 1f45 513d 8cda 333e 6c0f 833c
00000010: 1c11 2e3d cb95 ae3d 0d5f c63d 783a 4f3c
00000020: e821 4b3d f15a 2e3d f3c1 9a3d d30f cd3d
00000030: b049 103e a821 a23d 1a45 dd3c e9f8 9abd
00000040: a313 003e ee4f 4b3d 1e6a 873d 3915 993d
00000050: 0ee4 c03a f240 293e bc93 48bb 26b7 743d
00000060: c68c 943d 0ffc 5d3d 087e b03d 5991 553d
00000070: 21c9 d03c da7d 88bd 6385 753d e652 17bc
00000080: e62f 5d3d 272a fb3c e06e 403c 5be6 cc3d
00000090: c100 5f3d 71f4 fe3c cb54 da3a 73e0 273e
000000a0: 5f68 603d 51b2 1d3d d182 653d ee4a 903d
000000b0: 2e01 7abd 3702 f53d d003 be3c 7aae 303d
000000c0: ae51 2a3d 469f a63d dab5 7f3d 1937 823d
000000d0: 0f1c 89bc 5f63 003d 7fa8 113e 8046 893d
000000e0: 2019 c13c 20ff 35bc a05e 163e 5bdd a13d
000000f0: 4d6d 983d fd7e 953d 2e0b ee3d b0e8 e73d
00000100: 7386 1e3d 10c1 8d3d eaad 613d 0090 e43d
00000110: 4b41 e93d 6127 c93d 5e2b 783d 518b 243e
00000120: c86b 82bc f757 473d 7866 9bbd d806 033e
00000130: 3dd9 053e 041b 883d 8c5f 033e 1570 523d
00000140: 87f3 39bb c45c a43c 96c4 b9bc 4e93 3d3d
00000150: eac1 a03d 6d22 ba3d 7968 843d e8a1 063e
00000160: a572 b93c a335 c73c 8c67 49bd c1b2 da3d
00000170: ec32 b63c b1a6 5b3d 098e 2cbc 8fd1 ec3d
00000180: 4bca 5abc bb9f ae3c ffe7 773d 51eb 2abd
00000190: c0fb 7c3d 3edb 673d 30aa ac3d 3aaf 2f3c
000001a0: 0246 283c 93ac 2c3d 8bd8 b23c 4842 05bc
000001b0: 5b41 f83c b549 69bc dd3b ac3d a70e ad3d
000001c0: 6e47 803d c382 8b3d 7406 503c ed11 923d
000001d0: e99b cd3d b97e b73d 09c5 083e 743d 193e
000001e0: 86be 4a3d 5294 8dbb 6797 003d 738f 34bd
000001f0: b371 e43d bcd2 16bc a1c3 253d 95f6 d93d
00000200: 170d 5bbd 48b1 f2ba 997c 68ba 13a5 dc3d
00000210: 724b 433d c017 f03c e6b0 993d c430 d13d
00000220: b152 de3d 20ca 0a3e eb7d aa3d 5ea0 2c3e
00000230: 4e5f e93b d5b1 29ba 58f5 253d 580e 863c
00000240: 914f d63d f4f7 f7bc 6439 5c3d 2b72 9f3d
00000250: 9ca0 c4bc 6e14 8e3d ce3e fe3d 4b13 273c
00000260: cdb4 523d 0fa7 023a ab73 593d b0cf 413e
00000270: aa86 823d 4208 2d3d 7b3e b13d de9b 013e
00000280: b3e8 a73d 57a9 2b3e 82a7 e43c adf9 9b3c
00000290: c8bd 60bc a3ac f33c ad88 183e 56a5 443d
000002a0: e6de 043e 3150 e83d cc54 113e 376a d03c
000002b0: d444 393d eb8a 443d f85b 083d 5ad1 213d
000002c0: 5e62 5cbc 434f b13c 6a50 f23d 1ab4 4ebc
000002d0: 4686 263d bcb2 5d3d 928f 0b3e b359 af3d
000002e0: 3716 e03c 71c0 ff3c ff82 003d 94f5 92bc
000002f0: 4cb2 e93d 8e39 af3d c9e5 673c 333f 133d
00000300: 2888 7c3d 14f4 0f3c 1132 b63d b376 9b3d
00000310: ce32 623e 46cc 703c 38c1 0c3a 3f04 cd3d
00000320: 732f c13d 63aa cd3d 03b4 bc3d 33a4 6c3d
00000330: 7499 83bd 08ac bcbc cafb 893d 027a fb3d
00000340: bddd d7bc 013c 313e 7e86 fe3d beaa a4bc
00000350: 5d05 993d 643b 993d 64a6 de3d 3b03 8f3d
00000360: da93 f03d b658 aabc 6f91 463d 1f82 ea3d
00000370: 084f 2cbc ee12 463d e057 bb3b 6dab 6b3d
00000380: d0e0 64bc 7aba 1b3e 4652 a03d 66d9 ba3d
00000390: aa9b ac3d 948d ee3d 8e1c 903d 9ef7 5e3c
000003a0: e85e a23d 8200 153e d7aa 183d 9b93 093e
000003b0: 148c 1b3d f473 5e3d 3776 0a3e 35b5 eb3d
000003c0: fc0a 123d dadd a13d 8922 e83d d5ed d53d
000003d0: d4b7 ce3d 1437 833d 6a2d 423d 98c4 893d
000003e0: e3b7 ef3b c4a9 763d 623f b13d 54a9 bb3d
000003f0: e718 9d3a ff63 313d 0d1e 0f3e 91b3 223e
0.18598434 0.05109131 0.17563838 0.015998565 0.042496786 0.085246645 0.09686098 0.012648217
0.049592882 0.042567197 0.07556524 0.10012784 0.1409061 0.07916576 0.02701049 -0.07567007
0.12507491 0.049636774 0.06612037 0.07474751 0.0014716403 0.16528681 -0.0030605635 0.059744976
0.07253413 0.05419546 0.086177886 0.052140567 0.02548653 -0.06664629 0.05994166 -0.009236073
0.054000758 0.030659748 0.011745185 0.10004874 0.05444408 0.031122418 0.001665735 0.16394214
0.054787036 0.038500134 0.05603296 0.07045542 -0.06103628 0.11963313 0.023195177 0.043135144
0.041581802 0.08135848 0.062429287 0.06358165 -0.016737012 0.031344768 0.14224432 0.067029
0.02357155 -0.01110819 0.14684534 0.07903548 0.074427225 0.07299612 0.11623226 0.113236785
0.03870244 0.069215894 0.055097498 0.11160278 0.11389407 0.09821964 0.060588233 0.1606877
-0.015920535 0.048667874 -0.07587904 0.1279558 0.13071151 0.06645778 0.12829417 0.05137642
-0.0028373913 0.020063765 -0.022676747 0.04628306 0.07849486 0.090885974 0.06465239 0.131477
0.022637675 0.024317568 -0.049171016 0.10678626 0.022241078 0.053625766 -0.010531911 0.11563408
-0.013353894 0.0213164 0.060523983 -0.04172832 0.061763525 0.05660557 0.08430898 0.01072293
0.010270597 0.042156767 0.021831771 -0.008133478 0.030304601 -0.0142387645 0.084098555 0.0845006
0.06263624 0.0681205 0.012696851 0.07132325 0.10039503 0.08959717 0.13356413 0.14964849
0.049498104 -0.0043206597 0.03139439 -0.044082116 0.11154499 -0.009205516 0.04046977 0.10642735
-0.05347928 -0.0018515969 -0.0008868664 0.10773673 0.047679372 0.0293082 0.07504444 0.102143794
0.10855616 0.13553667 0.08324798 0.1685805 0.007121957 -0.00064733374 0.04051718 0.016364262
0.10464395 -0.0302696 0.05376567 0.07785448 -0.024002366 0.069374904 0.12414323 0.010197471
0.051441956 0.0004984 0.053088825 0.18926883 0.063733414 0.042244203 0.08654495 0.12657115
0.08198681 0.16763817 0.027911905 0.019039953 -0.013717122 0.029745406 0.14895888 0.04800924
0.12975654 0.1134342 0.14192504 0.025441272 0.045231655 0.047984045 0.033290833 0.039506294
-0.013451187 0.02164424 0.11831744 -0.012616182 0.040655397 0.054125533 0.13628986 0.08562031
0.027354343 0.031219693 0.031374928 -0.017939366 0.114109606 0.085558996 0.014153906 0.035948943
0.061653286 0.00878622 0.08896268 0.075909995 0.22089693 0.01469714 0.0005369368 0.100105755
0.09432878 0.10042264 0.09214022 0.05777378 -0.06425753 -0.02303125 0.06737478 0.122791305
-0.02635085 0.17308046 0.12427996 -0.020100947 0.07471726 0.07482031 0.1087158 0.06983038
0.117469504 -0.020794254 0.04847854 0.114506 -0.010516889 0.048357897 0.0057172626 0.05753653
-0.013969615 0.15207854 0.078281924 0.09123497 0.08428128 0.11648098 0.070366964 0.013608841
0.07928258 0.14550975 0.0372723 0.13435213 0.037975386 0.0543098 0.13521658 0.11509172
0.035655007 0.07903643 0.11334712 0.104457535 0.10093656 0.0640699 0.04740659 0.067269504
0.007315622 0.060220495 0.086546674 0.09163156 0.0011985571 0.043308254 0.13976307 0.15888812

fc3.weight f4 [2, 256]
00000000: 984b 94be 5d2a d83e 0b1e 89be 1b25 fd3e
00000010: cc70 73bd 96ad 8abd b68c 9a3e 1cfb e43d
00000020: 4c61 25be 584d 1ebe 690a 54be 3d26 623d
00000030: 14df 82be d4f6 8b3e 2791 833e 6e72 cd3d
00000040: 696a 8fbe 1402 29be 5040 3d3e c360 1e3e
00000050: c9fb d03d 2400 b9bd ed0d 1f3e 5815 ec3d
00000060: 7da4 1f3e 1a55 6a3d d9e8 fdbd fa5a d4bd
00000070: a1ad db3e e8a6 cc3e 09f3 fabd 21ed be3d
00000080: 969b 6c3d 81ee ef3e 6460 0cbe f1d7 a63d
00000090: 0187 9d3e 5076 563e 2e37 7f3d 8d5a 28be
000000a0: 937e b83e c639 b8bd 72b7 a33d b15e b6bd
000000b0: 306a a03e 3568 b63d 02b2 143d c52f 543e
000000c0: 6ab9 cd3d e0a6 c7bd a4ee 773e c3cb 8e3e
000000d0: 6649 5b3e 19fb a83e 6ccd 9ebd 52aa 473e
000000e0: 14fe cc3e f5a0 8e3d be39 81be ecbd 17be
000000f0: 04ec 2dbe a913 873d db56 83be d2c7 9dbe
00000100: cf9c b33e 8f0c 233e 6895 16be b6ae 12be
00000110: 8a3d 453e 11c4 bc3e c229 8a3e 3da5 47be
00000120: 9286 ec3d 185a 183e bc6e bf3e 0b78 3d3e
00000130: 4dce 3a3e c7d1 8f3e 55d2 55be ba8c 903d
00000140: 2cc5 c43e f43f 763e c14b a83e 3778 60be
00000150: 0669 d33d 683d 593e 9fff 2abe f8af 763d
00000160: fc38 a43d 470b d43d e9d8 753e 3492 ad3d
00000170: 8408 b43e 4157 3b3e 9a26 883e 4f93 41bd
00000180: 82fd 823e c174 03be 666b 12be 30a5 013f
00000190: e9b7 f8bd e962 12bd c11a 7cbe 9776 5f3e
000001a0: 5e0b e53e 009f 2abe aec9 023e 33ac 643d
000001b0: 928e de3d 3a8a b03e 327f bfbd bf64 523e
000001c0: 5b14 5b3e 79c8 103e 2e1d 21be 3837 b53e
000001d0: 57bd 05be ff10 93be d1e2 7dbe 10c4 4abe
000001e0: bbc1 923e e20b 933e b2a4 363e c265 993c
000001f0: 3467 d83d ce85 b83e 4c18 153a 6b3b a2bd
00000200: 1bca 913e f32d 1dbe f572 d33e a510 be3e
00000210: 3307 9f3e 3f72 393e 5596 093e 4c19 c5bd
00000220: 1704 79be 3127 c7bd 031f 823e f1b1 403c
00000230: d8c4 293e 9713 cd3c 90f9 94bd 7d2a 483e
00000240: 7b68 803e d7ad 5f3e 3b06 5f3e 12ef 28be
00000250: b040 32be b4fa 823e 10f1 5c3d 8baa 7c3e
00000260: 0442 e0bd 1ebc c83e d6dd 953e a394 37be
00000270: 5e75 5a3e 8982 863e 1611 bb3d d1a9 653d
00000280: 48df 543e 30f7 49be f46c 8b3e 8734 6a3e
00000290: 703e 483e 9820 6e3e cf54 02be 5061 a43d
000002a0: 7331 27be 01bf 83be 1ea6 54be 9730 263e
000002b0: 2150 00be 512a bdbd b9f1 2abe c66c a43d
000002c0: 4f49 423e f019 da3d ce33 13be ccb7 3b3e
000002d0: f3a2 893d 242e 833e 909d a73e f41f b13e
000002e0: 6d21 a13e 5c8e 2e3e ca37 193e 477e 483e
000002f0: d64a ccbd b89d 813d fad5 2e3e 1d18 5f3e
00000300: ac31 07be 1d30 64bd 50d8 493d 7c03 23bd
00000310: e489 16be 10a0 a13e 9539 af3d 7b4e c13e
00000320: 3f4d 44be 49fb 6ebe f7f1 83bd cb86 10be
00000330: ea2e 87bb fdc3 b13e dc72 afbd 6caf 663d
00000340: 5285 963e 695b 89be 111d 9f3e 6863 943d
00000350: 0236 c53d 3c22 76be a14f 97bd 3f26 93bd
00000360: c78f 8f3e 858b 2d3e df14 913d 9e94 943e
00000370: 4794 16be fb7c fdbd 7eac bd3e 6196 2c3e
00000380: 8098 b23e f61c a6bb 0e27 9f3d 1412 72bd
00000390: 4a68 ac3e 7e3f 12be 9f46 7e3e 2150 a03d
000003a0: aeef b0bd a0a1 17be c2cc 543e cfc0 24be
000003b0: b44a c0bd a73d 003d 25cb e0bb 4206 4fbe
000003c0: 7c5d 67bd 55a2 a9bd 5680 973e acf9 3e3e
000003d0: 3d9e 3b3e c015 2dbe a9bd 45bd 099c 423e
000003e0: e817 243e a43f aa3e a18d dabd 76ef 6d3d
000003f0: 60ff 643e 75a0 813e bb8f ddbd a762 3fbd
-0.28963923 0.4221982 -0.26780733 0.49442372 -0.059433743 -0.0677139 0.3018548 0.11180708
-0.16150397 -0.15459192 -0.20707096 0.055212248 -0.2556082 0.27336752 0.2569668 0.10031591
-0.28010872 -0.16504699 0.18481565 0.15466599 0.10204274 -0.0903323 0.15532656 0.115275085
0.15590091 0.057210065 -0.12397928 -0.10368915 0.42905906 0.3997109 -0.122533865 0.093225725
0.057765566 0.46861652 -0.13708645 0.08146656 0.30767062 0.2094357 0.062308483 -0.16440792
0.36034068 -0.089953944 0.07993974 -0.0890478 0.31331015 0.08906595 0.036302574 0.20721348
0.100451306 -0.09748626 0.24212128 0.27889833 0.21414718 0.33004072 -0.07754025 0.19498566
0.40037596 0.06964294 -0.25239366 -0.14818543 -0.16984564 0.06595547 -0.25652203 -0.30816513
0.35080573 0.1592276 -0.14705431 -0.1432446 0.19261757 0.36868337 0.26984984 -0.19496627
0.11549105 0.14878118 0.3738917 0.18502824 0.1824276 0.28089735 -0.20881017 0.070580915
0.3843168 0.24047834 0.32870296 -0.21920858 0.10322766 0.21214831 -0.16699074 0.06022641
0.080186814 0.103537135 0.24008526 0.08475152 0.35162747 0.18295003 0.2659195 -0.047259625
0.25584036 -0.12837507 -0.14298782 0.5064268 -0.12144453 -0.03573886 -0.24619581 0.21822582
0.44735235 -0.16662216 0.12772247 0.055828284 0.10867037 0.34480458 -0.093504325 0.20546244
0.21394484 0.14138974 -0.15733787 0.3539369 -0.13060509 -0.28723904 -0.24793555 -0.19801354
0.2866343 0.28720003 0.17836264 0.01872528 0.105665594 0.36039585 0.00056875194 -0.07921489
0.28474507 -0.1534956 0.41298643 0.37122074 0.3106018 0.18109988 0.13436253 -0.096239656
-0.24317966 -0.09724272 0.25414285 0.011761175 0.16578996 0.025033755 -0.07274163 0.19547458
0.25079712 0.21843658 0.2177972 -0.16497448 -0.17407489 0.25581896 0.053940833 0.24674432
-0.109500915 0.39206022 0.2927081 -0.17927794 0.21333835 0.26271465 0.09134118 0.056070153
0.207883 -0.19723201 0.27231562 0.228716 0.19555068 0.23254621 -0.12727664 0.080263734
-0.16327457 -0.25731662 -0.20766494 0.16229473 -0.12530567 -0.09236587 -0.16693772 0.080285594
0.18973278 0.106494784 -0.1437523 0.18331832 0.06720533 0.2562114 0.32737398 0.3459469
0.31470814 0.17046493 0.14962688 0.19579421 -0.09975211 0.063289106 0.17073813 0.21786542
-0.13202542 -0.055709947 0.049278557 -0.039798245 -0.14701039 0.3156743 0.08555905 0.37755188
-0.19170092 -0.23338045 -0.064426355 -0.1411392 -0.0041254656 0.3471984 -0.085668296 0.05631964
0.2939859 -0.26827553 0.31076863 0.07245523 0.09629442 -0.24036497 -0.07388235 -0.07185029
0.2803938 0.16947754 0.07084059 0.29019636 -0.14705001 -0.12377354 0.37045664 0.1685424
0.34881973 -0.0050693704 0.07771121 -0.059099272 0.33673316 -0.14282033 0.24831627 0.078277834
-0.08639465 -0.14807749 0.20781234 -0.16089176 -0.093892485 0.031308796 -0.006860154 -0.20217231
-0.056485638 -0.082829155 0.295901 0.1864993 0.18322082 -0.16902828 -0.048276577 0.19004835
0.16024745 0.3325168 -0.10671545 0.058089696 0.22363043 0.25317731 -0.1081843 -0.04672494

fc3.bias f4 [2]
00000000: 524c 3f3c a190 7dbb
0.011675911 -0.0038690942

bn.weight f4 [256]
00000000: fc71 8a3f 1c76 e13e c7ef 3c3f cbdc 803f
00000010: e259 2f3f 80e2 a13e c48e 8b3f 0390 983e
00000020: a6d4 213f e17a 8a3f d429 da3e f060 143f
00000030: 6f36 b93e 442d ad3e 7d20 2a3f f076 bc3e
00000040: b90c 1b3f 7f06 3e3f 754e bd3e 06c4 ae3e
00000050: cf11 d43e d63c 343f 7a76 b53e 0f89 683f
00000060: 3a7f 483f 37ea 133f f879 753f 09bd 7b3f
00000070: f795 473f 31d5 d23e 1f5b 3e3f 3ed4 933e
00000080: 3918 2c3f ea64 8c3e e4d4 783f 6d05 893f
00000090: dfc6 843f e93a 4d3f dd99 033f 54c0 5b3e
000000a0: 1336 053f e96f a23e 669a 913f daff 1b3e
000000b0: 0984 8f3f f4ff 663f 7305 003f d2bf a73e
000000c0: 6785 ff3e 4a68 483f 8215 eb3e 6e15 103f
000000d0: d868 763f aa24 743f c52d 5f3f b42d ec3e
000000e0: 14ec 073f 1973 553f 314f 4b3f 47f5 703e
000000f0: 9120 323f a546 f13e 7242 333e 96c5 843e
00000100: 68b9 5f3f c32d cd3e 05d8 c23e cb69 333f
00000110: 370c 2c3f b4e1 b33e f240 8f3f 4322 103f
00000120: 74a0 6a3f 004e 8a3f 0f2e 5d3e ddd0 0c3f
00000130: fbf5 3d3f bced f43e fc94 493f 88ec 9f3e
00000140: 67dc 9d3e 12da c23e 6b65 c23e 2ecc d93e
00000150: 1972 693f d6c8 203f 2824 6c3f 2821 fc3e
00000160: a520 b63e 9401 333f 44ee c63e 049c 653f
00000170: 9a57 d93e 5009 5f3e ad2b 9d3e 9b81 243f
00000180: d62a 933e 3fe7 2d3f 913f 733f e606 ce3e
00000190: 6ecf 863f b689 553f 694a 083f 872d b63e
000001a0: a64a 253f f143 a13e c97a 303f e45f 863f
000001b0: 1351 7c3f e229 953f 58c1 0c3f c882 593f
000001c0: 1c5c b23e 27d5 e73e 840b 8c3f b54d f43e
000001d0: c8ee 9b3e d436 0e3f caf3 703f 52b9 8a3f
000001e0: 7bd1 773f 1f6f 453f 5962 883f d99e 873f
000001f0: 11d7 ee3e 3d4e 653f 1706 643f 587d 623f
00000200: 148b a33e 74f9 bf3e e717 d23e 9049 d83e
00000210: 7217 953f ca46 703f 9b5b 423f fdfb 503f
00000220: f9ed 5f3f a76b 7e3f 59f8 3a3e 555f 3f3f
00000230: 454d 5e3f 4e60 1f3f 09f7 573e 5c3f f43e
00000240: 50eb c53e e112 f63e 595d df3e 50b0 113f
00000250: 7877 853f f1b5 3f3f 106f 8d3e c3cb b63e
00000260: 179d b33e 0f3b 9e3e 23ba c53e 23a3 ce3e
00000270: 4f48 5a3f 2614 463f 07fa 1d3f 0fd5 2e3f
00000280: 70ce 133f 0a63 283f efee 9b3e b897 4d3f
00000290: 6942 8b3e e471 223f 244e 2b3f 8a1a ba3e
000002a0: 6fe4 413f 0f38 ac3e cfc2 403f 501b 843f
000002b0: a1f2 ff3e ddeb 723f bbe2 563f 5bd6 8d3f
000002c0: 094d 463f f769 8b3f 5fc0 8c3f 5af3 7c3f
000002d0: 0e7a 953e aebf c63e 4972 d73e 00c2 563f
000002e0: c807 9a3e 3de3 7a3f 4269 b93e 4588 d93e
000002f0: 40ea 9c3e 66e1 c43e 402c 953f 02fe d13e
00000300: cfe8 643f 8362 303f 7527 7a3f 35c7 443f
00000310: a36e 453f 0682 823e 76d1 6e3f 7b49 503f
00000320: db38 9cbe be16 153f da52 183f 02b6 253f
00000330: 83b3 6e3f 5895 7f3f e667 763f 6b5e 093f
00000340: 8734 513f 14b6 aa3e 0b72 223f 0eff 223f
00000350: 2531 853f 395c 843f a63c 643f d5ef b83e
00000360: d554 6f3f 80c2 de3e e306 0c3f 7d9a 133f
00000370: be71 203f ed28 5c3f 7bf3 bc3e ff37 463f
00000380: 8ff6 583f fef4 463f 64e1 ad3f fbbe 1f3f
00000390: 1a2f 3f3f 0ca7 943f da37 583f 2046 8d3f
000003a0: f48f 2b3f 42b1 863f ae5c e43e faf9 3e3f
000003b0: b13b 543f ca7e d53e b6fa eb3e 3219 2f3f
000003c0: 8e32 c43e 82f9 183f 9619 803f de5c 213f
000003d0: bca9 e23e fb5f 053f ab9d cf3e 9447 973f
000003e0: f6ac 8d3e 26ec 6c3f e5e8 003f 93ef d33e
000003f0: eeec ad3e 6691 6b3f 7498 893e 5897 5b3e
1.0816035 0.44035423 0.7380337 1.0067381 0.68496525 0.31618118 1.0902944 0.29797372
0.632151 1.081875 0.42610037 0.57960415 0.36174342 0.33823597 0.66455823 0.36809492
0.6056629 0.7422866 0.3697392 0.3413393 0.41419837 0.7040533 0.35441953 0.90834135
0.7831913 0.5777926 0.95889235 0.9833532 0.77963203 0.41178277 0.7435779 0.28872865
0.6722446 0.2742074 0.97199845 1.0704781 1.0373191 0.80168015 0.5140665 0.21460086
0.52035636 0.31726006 1.1375244 0.15234318 1.1212169 0.90234303 0.50008315 0.32763535
0.49906465 0.7828413 0.45914847 0.562827 0.9625373 0.95368445 0.87179214 0.4612862
0.530946 0.8337875 0.7941771 0.23531066 0.6958094 0.4712421 0.17505816 0.25931996
0.8739228 0.40073976 0.38055435 0.700833 0.6720614 0.35133135 1.1191695 0.5630228
0.9165108 1.0805054 0.21599601 0.550062 0.7420346 0.47837627 0.7874296 0.31235147
0.30832216 0.38057 0.37968 0.4253859 0.91189724 0.6280645 0.9224267 0.49244046
0.3557178 0.69924283 0.38853657 0.89691186 0.42449647 0.21780896 0.30697384 0.6426026
0.2874362 0.6793098 0.9501887 0.40239638 1.0532053 0.83413255 0.5323854 0.3558161
0.6456703 0.31497148 0.68937355 1.0498013 0.9856121 1.1653407 0.5498252 0.8496518
0.348359 0.4527981 1.0941014 0.47715536 0.30455613 0.5555241 0.9412199 1.0837805
0.96804017 0.7712268 1.0655013 1.0595351 0.46648458 0.8957251 0.8907179 0.8847251
0.31942046 0.37495005 0.4103386 0.42243624 1.164778 0.93858016 0.7592103 0.81634504
0.8747249 0.99383014 0.182588 0.7475484 0.86836654 0.62256324 0.2109033 0.4770459
0.38656092 0.48061278 0.43625906 0.56909657 1.0427084 0.74886996 0.27623796 0.35702333
0.35080788 0.30904433 0.38618574 0.40358838 0.85266584 0.77374494 0.61709636 0.6829385
0.57736874 0.6577612 0.3045573 0.8030963 0.27199104 0.63455033 0.6691611 0.36348373
0.75739187 0.3363652 0.75297254 1.0320835 0.499898 0.9489115 0.83939713 1.1081041
0.77461296 1.0891713 1.0996207 0.98808825 0.29194683 0.38818115 0.4207938 0.8388977
0.30084062 0.9800299 0.36213118 0.42486778 0.3064747 0.38453215 1.1654129 0.41014105
0.8941774 0.68900317 0.97716457 0.76866466 0.77121943 0.25489825 0.9328836 0.8136212
-0.30512127 0.58237827 0.5950142 0.64730847 0.93242663 0.99837255 0.96252286 0.53659695
0.81720775 0.3334204 0.63455266 0.6367043 1.0405623 1.0340644 0.8915504 0.36120477
0.9348882 0.43507767 0.5469801 0.57657605 0.62673557 0.8599995 0.3690451 0.77429193
0.8475122 0.7771758 1.3584409 0.6240079 0.74681246 1.1613479 0.8446022 1.1037025
0.6701653 1.0522845 0.4460196 0.74600184 0.8290358 0.41698295 0.46089715 0.6839782
0.3831982 0.5975572 1.0007808 0.6303233 0.44270122 0.5209958 0.4054998 1.1818719
0.2767102 0.92547834 0.5035537 0.41393718 0.33969826 0.92018735 0.26874125 0.21444452

bn.bias f4 [256]
00000000: ba1c 003c d767 dcbc f0b6 62bd 8c82 e2bc
00000010: af5e 193d 3973 2c3d 0ea7 9bbc 910f 1f3e
00000020: af79 c6bd a792 b4bc db26 f8bc afc3 863c
00000030: 1c87 8e3d 9177 0a3d a562 2cbd 470c f23d
00000040: dd64 92ba a084 45bd db2d 94bd 5939 62bd
00000050: abb9 b63b abdb b2bc 4ea2 0abe 03cd 2a3d
00000060: d0b1 123c 3b78 69bd 8f05 b83a ccce 083d
00000070: 69ee 0ebc 34e6 033d 9a44 713d 1232 df3d
00000080: d901 e7bb 947c c6bd d4fc bdbc 78e6 983d
00000090: fc2f a3bd f351 913c 77fd e93c 8407 fdbd
000000a0: 6438 943d 0368 e3bc 5bee c13d 6bc2 363e
000000b0: 5289 f73a f03c 8bbc fb26 cdbc aa49 f03d
000000c0: a960 63bc d561 2e3d 8e38 0ebd accf 193d
000000d0: 9c4b 263d c941 103c 505b 8cbd 7910 923b
000000e0: f72d 17ba 4b30 c43c 036d 28bb aac0 a2bd
000000f0: 8208 8c3d 9eba 0b3d 4bf1 04bd b11e 0b3d
00000100: e8db a03c 5c3b 7c3c 4247 52bd 3b81 443c
00000110: f02a 733c 062b e2bd 4166 7a3d ea8c 4abd
00000120: 0641 143d b2a2 ebbc 8b27 2fbd 3c54 7abd
00000130: 3f3d d13c 2bc5 e1b9 9f7a 2cbd c210 0dbd
00000140: 3a20 d9bc c60d 67bc d122 a03c 4f1e 9cbc
00000150: 5ea6 45bc 7835 f03c 50ea b8bd d78d 743d
00000160: fdee b0bc 7ca5 3ebd dfc5 a7bc 33ae 7c3d
00000170: c109 ad3d 9f69 edbd 1a4e c1bc 503c ac3c
00000180: f30c dc3b 9faa 9bbd 9549 a73d c5c0 52bd
00000190: 68d8 75bb 3514 aebc 9971 9ebd 93e6 e43d
000001a0: b264 cb3c 284f 3c3c 107e 643c 3990 593c
000001b0: 4686 bbbc c2a7 83bc f8bc e7bc 10f0 dcbc
000001c0: c363 ed3d cffe 1b3d db26 20bc 5d0c f73d
000001d0: 044b b8bd 3cc1 eebd 6858 4c3b 507f ec3c
000001e0: 381b 35bc 2ebf d1bc 2289 84bd 1519 45bd
000001f0: fb2e 30bd a2c3 6fbc e05d a83d 1349 c83d
00000200: a75a 2f3e ef9c cbbc b49d 533c 518d 49bd
00000210: 5136 60bd 8362 3e3c c764 51bc f14e febb
00000220: daee 183c 0b5b b13c 3326 94bd eac1 afbc
00000230: 533e 8a3d 870c f3ba fed9 823d 756d f5bb
00000240: 1d84 e7bc 8b0b 373a a74b 373d 0d4b a0bd
00000250: 33c6 1e3d 09ac ebbc 2760 11bc f0b3 d5bc
00000260: 5d8f 10be fcd5 76bc 4caa 59bd cd8c cc3d
00000270: 9bce 91ba 6ce5 583d 60de c3bd 9cac 3f3d
00000280: 25e9 8c3c 7129 a7bc b3b1 e8bd 3942 28bd
00000290: b185 1abb 9f95 db3c eac9 26bd d192 bbbd
000002a0: a5e3 943c e0c4 60bd f3fa 163b 4217 8a3c
000002b0: 5fcb 523c 246d 2ebd 775e 893d ad8d 963c
000002c0: 13ed 5c3d 7a19 1a3d 0134 d9bd 72f4 e7bc
000002d0: b3a8 d7bd 35b4 f1bc 7ee2 7bbc 22b2 683c
000002e0: eb91 1abc 023a 2e3c 7a26 88bd 20b3 ae3d
000002f0: 83e2 64bd a29d 18bd 72b2 6bbc 4415 083e
00000300: 71d6 77bc 9419 e7bc 7737 bcbd 7c28 00bd
00000310: d1ef 443d dac2 ddbc 452f e8bc c5f7 79bd
00000320: 47f5 0d3e df78 193d c9b5 8fbd 8082 a23d
00000330: cea8 16bd 840a 1bbc af03 723c 533b 9abd
00000340: 7349 bbbd c4c6 e939 c00c d03c 8b8d 10bd
00000350: b1b5 48bd 9f46 893c 1f33 a1bb 9282 2ebc
00000360: 2c40 623c 1211 6ebd 936d 38bb 58d8 a4bc
00000370: e59c 89bc 027e cb3c 0091 b23c 2c60 80bc
00000380: 5dd0 65bd 480a 743c 71ff f7bc c688 513d
00000390: 62ca afbc b6a6 92bc cb26 9f3c 7725 6a3d
000003a0: dcbd 31bd e2b9 2b3d 5caf c03c a229 24bd
000003b0: fcee 983d 3159 b23d 3c97 97bc 55ff 32bd
000003c0: 2a14 2e3c f617 28bc 14a9 003c 3728 993c
000003d0: 0c2e 03be c356 e63c 50ba 5f3c 72a2 41bb
000003e0: 1f1b 50bd 9b8d 39bc b48e b53d f8bc 96bc
000003f0: 8611 cdbd 6ff2 25bc 66d1 3f3e a36a 213e
0.007819349 -0.026904983 -0.055350244 -0.02765014 0.037443813 0.042102072 -0.019000556 0.15533282
-0.09691178 -0.022042586 -0.030291965 0.016450731 0.06959364 0.033805434 -0.042086262 0.11818748
-0.0011168976 -0.048222184 -0.07235309 -0.055230472 0.0055763326 -0.021833261 -0.13538477 0.04169942
0.008953527 -0.056999426 0.0014039743 0.033400342 -0.008723834 0.03220196 0.058903314 0.10898222
-0.007049781 -0.0969173 -0.023191847 0.074658334 -0.07968137 0.017739272 0.028563244 -0.12354949
0.07237318 -0.027759558 0.09469291 0.17847602 0.0018885529 -0.01699683 -0.025043001 0.117328
-0.013878026 0.04257377 -0.034721904 0.037551567 0.04059945 0.008804747 -0.06853354 0.00445753
-0.0005767042 0.02394881 -0.0025699742 -0.07946904 0.0683756 0.03411352 -0.032456677 0.033964816
0.01963611 0.015395012 -0.051337488 0.011993702 0.01484178 -0.11043362 0.061132673 -0.049450792
0.036194824 -0.028764103 -0.04276232 -0.06111549 0.0255419 -0.00043062246 -0.042109128 -0.03443981
-0.026504625 -0.014102405 0.019547852 -0.019057421 -0.012063591 0.02932237 -0.090290666 0.05970558
-0.021598333 -0.046544537 -0.020480094 0.061689567 0.08449126 -0.11592411 -0.023596812 0.021024853
0.006715411 -0.07600903 0.081683315 -0.05145337 -0.0037513021 -0.02124987 -0.07736511 0.11176791
0.024828289 0.011493482 0.013946071 0.013279014 -0.022891175 -0.016071204 -0.02828835 -0.02696994
0.11591294 0.0380848 -0.009774889 0.12062905 -0.08998683 -0.1165795 0.0031180624 0.028869301
-0.011053853 -0.025603857 -0.064714685 -0.048119623 -0.043013554 -0.014634045 0.0822103 0.09779563
0.17124425 -0.024855105 0.012916017 -0.049207035 -0.0547393 0.011620167 -0.012780375 -0.0077608754
0.00933429 0.021649858 -0.072338484 -0.02145477 0.06750169 -0.0018543162 0.06389235 -0.007489855
-0.028261239 0.0006982616 0.044749882 -0.07826815 0.038763236 -0.028768556 -0.008873022 -0.026086777
-0.14117189 -0.015065666 -0.053140923 0.09987793 -0.0011124195 0.05295317 -0.09563899 0.046795473
0.017201016 -0.020405503 -0.113620184 -0.04107878 -0.0023578221 0.026804743 -0.040719904 -0.091588624
0.018174956 -0.054875255 0.002303776 0.016856793 0.01286587 -0.042584553 0.06707471 0.018378103
0.05393703 0.037621953 -0.10605622 -0.028314803 -0.10530224 -0.029504875 -0.015373824 0.014202626
-0.009434204 0.010633947 -0.06647964 0.08530259 -0.05588008 -0.037259705 -0.014385806 0.13289362
-0.01512681 -0.028210439 -0.091902666 -0.03128861 0.04808027 -0.027070452 -0.028342852 -0.061027307
0.13863097 0.037468787 -0.07017095 0.07935047 -0.03678208 -0.009462956 0.014771386 -0.075308464
-0.09144869 0.00044589315 0.025396705 -0.035291236 -0.0490014 0.016757308 -0.004919424 -0.010651248
0.013809245 -0.05812175 -0.0028141483 -0.020122692 -0.016798446 0.024840359 0.021797657 -0.015670858
-0.056106914 0.014895029 -0.030273171 0.051155828 -0.021458808 -0.01790176 0.019427678 0.057164636
-0.043393955 0.04192532 0.023521118 -0.040078767 0.07467458 0.08708418 -0.018504731 -0.043700535
0.010624925 -0.010259619 0.007852811 0.018695934 -0.12810534 0.028117543 0.01365526 -0.0029546288
-0.050807115 -0.011325265 0.08865109 -0.018400654 -0.10013108 -0.010128601 0.18732223 0.15763335

bn.running_mean f4 [256]
00000000: 0b96 403e 501d 4240 b311 b33f 773c 093e
00000010: 63ce e93f 8bab bd3e 8b8a 493c 4246 503e
00000020: 6d2c 653e 0f07 ee3c bf54 ab3f abc3 203e
00000030: 2a3d 443f b8e1 ba3f 28bd 6a3e ff57 2d3b
00000040: 1af0 f93d 4439 ed3f 0822 663e 814e 813e
00000050: 60f2 963f 072a a03d f8b9 d73f 54be 1d3f
00000060: f28b ef3e bd52 963c e494 e33f 2147 b53d
00000070: 0400 0000 cd70 b63e b9a1 963e 3347 003e
00000080: 47c9 2f3f e1f4 153d 7478 6f3f 0400 0000
00000090: 0480 343e 1a7e 1440 1bfb 7140 9d7e 593e
000000a0: a507 523f e0df 5340 ec91 113f 5a57 3f3d
000000b0: fa86 873f 0456 b53f 9420 bd3f b2c4 f43d
000000c0: da17 933f 4c37 e13f 8b92 463e 3ce0 c13d
000000d0: bdda 3e3f 022b 0f40 9bae 1d3e b4a8 c93c
000000e0: fd5e 0b3f e46e bc3c 64fd 133e 7e98 613e
000000f0: e1b6 c33e b473 3540 0cf8 9840 c04e db3f
00000100: f7a5 6a3f b998 b33f 312e 823f 2c46 1c3f
00000110: 6352 813f 55d1 f33e 13b6 683e 0cdf c73e
00000120: a21e 913f 600b 073e 6fb0 843e 5958 0e3d
00000130: 4153 5440 cae7 643f cb29 933e b343 0b40
00000140: 24f1 293f 40d1 1d3e 6d0b 8a3f 27a2 4a3e
00000150: 3fe9 373f 7f71 bc3f 6b70 053d 9b6e 163e
00000160: a7da 8c3f 7ee9 5f40 ad88 d43e a079 3d3e
00000170: ff31 473c 0400 0000 2406 eb3d 380a 1940
00000180: e331 943e 6306 793e eeac 7d3f 1459 da3d
00000190: be4a 603f e0b0 1f40 cfd9 973e 0408 ab3e
000001a0: f762 403d 63c8 0240 41a2 833e fc77 aa3f
000001b0: fecc 583f f84c 063e 449f a33d 910a f33f
000001c0: 00d0 a33e 9d2d 973f 72df 8b3e d1c2 cb3f
000001d0: 7bf0 213f 9ff1 433f 8b5f f63d bc88 be3f
000001e0: ab4e 8b3e c21b a13f 4fc1 ca3e 7f1b 9d3e
000001f0: 4f6b 753e 0400 0000 a639 913e a1c0 c43f
00000200: b0cf cd3f d358 903d 53f9 7a3f 9530 ed3f
00000210: 00f8 213f f81a 0c3e f511 f23e ea65 713e
00000220: 8c12 7b3f 2572 153f 7e39 c93e 6f26 513e
00000230: a349 863e 2c1c 043f 9cd0 be3f 7194 9439
00000240: 2773 9f3f ebd6 c13d 0400 0000 9255 3a40
00000250: 1a77 493f 9eed bc3d 06af c53f f5d7 f83d
00000260: 6a6f c43e ee33 0f3f 9f7c 843d f9a3 ed3e
00000270: e448 fb3e c2ca 1e3f f344 c43f 9f65 883e
00000280: 2eb3 8a3f 6654 a93e c985 8f3e 34f3 093f
00000290: b0de 873f abd1 a83e 9767 4d3f d145 1340
000002a0: 3c6d 6d40 9419 2140 00d1 a13a 69e8 fe3f
000002b0: f3f2 0b3f be33 a43b 772c ca3d a7e6 cf3e
000002c0: 7eed 053f 50d8 c73f 1fa6 343e 0400 0000
000002d0: f0ce 803d db76 0e3f 9adb c03f 24cc 1b39
000002e0: ab51 fd3e 0acc 0f3e 015a a13e 3e0d 4a3e
000002f0: 49ca 0d3f 0066 9f3a c73e c43d 03a1 f73e
00000300: 9e63 e03f 3eb4 743f 2de7 0140 39de 7e3f
00000310: 80e5 f23c 8702 6b3f e2a6 0c3f e670 a63f
00000320: b0c4 a83f a59c b03f b120 693e b091 993f
00000330: d8ea 3e3f 2627 693d c067 473f 0fc1 8e3f
00000340: 0c63 5c3e 41c9 b13d 5440 9e3f 9706 dd3f
00000350: 6c5d 5a3e aaa9 e73e 30ef c13e d1ec 5a3f
00000360: d3d0 873f 9944 5f3d f296 d23f 671a 5e3f
00000370: 0a5d 533e 4664 bb3e 1de5 cf3c d883 6438
00000380: d6fa cb3e b0cd 333f 58b2 033f 5e65 5f3e
00000390: bfa2 3b40 dccd f138 b030 e33f 40f5 d13a
000003a0: 5fa7 163d 5459 2e3d c19b 9240 bd9c da3e
000003b0: 9c76 413f 0cc3 cd3f de13 053f 01bc 413c
000003c0: 3159 e63d 0400 0000 aae4 1c3f 80c3 e83e
000003d0: 91fd 2c3d 3cdb 1040 c458 2d3c 1697 fb3c
000003e0: 021e 843d ff59 543e 0400 0000 7a6c 4d40
000003f0: 302c d83d 1d1f 553f a329 253c ce20 1440
0.18807237 3.033039 1.3989776 0.13401972 1.8266109 0.3704494 0.012301098 0.20339301
0.22380228 0.0290561 1.3385237 0.15699641 0.7665583 1.4600134 0.2292372 0.0026450155
0.12203999 1.8533101 0.2247392 0.25255206 1.1792717 0.07820516 1.6853628 0.6161854
0.46786457 0.01835 1.7779813 0.088514574 6e-45 0.35632935 0.2942026 0.1252716
0.686665 0.036610488 0.9354317 6e-45 0.17626959 2.3201966 3.7809513 0.21239705
0.82042915 3.3105392 0.56863284 0.046714164 1.0588067 1.4166875 1.4775567 0.11951579
1.1491654 1.7595 0.19391839 0.094665974 0.7455252 2.237 0.15398638 0.024616577
0.54441816 0.023002096 0.1445213 0.22030827 0.38225463 2.835187 4.780279 1.7133408
0.9165949 1.4030982 1.0170346 0.61044574 1.0103267 0.47620645 0.22725706 0.3903736
1.1337473 0.13187933 0.25915858 0.034752224 3.3175814 0.8941618 0.28742823 2.176007
0.66383576 0.15411854 1.0784737 0.19788419 0.7184028 1.4722136 0.032577913 0.1469063
1.1004227 3.4986262 0.41510525 0.18503428 0.012157916 6e-45 0.114757806 2.3912487
0.2894431 0.24318843 0.99091995 0.106615216 0.8761405 2.4951706 0.29658362 0.33404553
0.04696938 2.0434806 0.25709727 1.3317866 0.84687793 0.13115299 0.07989362 1.89876
0.3199463 1.1810795 0.27318913 1.5918828 0.6325757 0.7654056 0.12029942 1.4885478
0.27208456 1.2586596 0.39600608 0.3068504 0.23966716 6e-45 0.28364295 1.5371286
1.6079006 0.07048192 0.9803669 1.8530451 0.6326904 0.13682163 0.47279325 0.23574033
0.98075175 0.58377296 0.39301676 0.20424818 0.26228055 0.51605487 1.4907413 0.00028339357
1.2457017 0.094648205 6e-45 2.9114728 0.7869736 0.092250094 1.5444038 0.121505655
0.38366252 0.55938613 0.06469082 0.46414164 0.4907905 0.62028134 1.5333542 0.2664003
1.0835931 0.33072203 0.28031757 0.53886724 1.0614834 0.32972464 0.8023619 2.3011363
3.7097921 2.5171862 0.0012345612 1.9914676 0.54667586 0.005011051 0.09871762 0.4060566
0.5231551 1.5612888 0.17641495 6e-45 0.0628947 0.5565011 1.5067017 0.00014858
0.4947637 0.14042678 0.3151398 0.19731614 0.5538679 0.0012161136 0.09582286 0.4836503
1.7530401 0.9558753 2.0297348 0.99557835 0.02965045 0.9180073 0.5494214 1.3003204
1.3185024 1.3797804 0.22766377 1.1997585 0.74577093 0.0569221 0.77892685 1.1152667
0.21522158 0.08680964 1.2363381 1.7267636 0.213247 0.4524663 0.37877798 0.85517603
1.0610603 0.05450878 1.6452315 0.86759037 0.2064096 0.3659994 0.025377804 5.4482225e-05
0.3983981 0.7023573 0.51444006 0.21816012 2.9318082 0.0001153012 1.7749233 0.0016018525
0.03678071 0.04256566 4.581513 0.42697707 0.7557161 1.6075149 0.5198344 0.011824609
0.11247481 6e-45 0.61286414 0.45461655 0.042234007 2.263381 0.010580245 0.030711692
0.06451036 0.20737456 6e-45 3.209746 0.10555303 0.832506 0.010080728 2.3145022
